results/ppoTraining/HockeyAgent/HockeyAgent-1000009.pt (torch, 492367 bytes, 44 tensors)

network_body.observation_encoder.processors.0.normalizer.running_mean f4 [21]
000000 55 59 2a bf 4c ab f6 bf 00 00 00 00 53 ae 7c be
       -0.6654256 -1.9271026 0.0 -0.24675874
000010 8d 87 0b 3f 9e cb df bd 71 4c 4b bd 00 00 00 00
       0.5450371 -0.10927509 -0.049633447 0.0
000020 ce 4a a8 3b 6a 2a f8 3d 6a 13 07 be fe a6 25 40
       0.0051358705 0.12117465 -0.13191 2.5883174
000030 00 00 00 00 00 00 00 00 00 00 00 00 00 00 00 00
       0.0 0.0 0.0 0.0
000040 da fe af c0 00 00 00 00 00 00 00 00 da fe af 40
       -5.49986 0.0 0.0 5.49986
000050 00 00 00 00
       0.0

network_body.observation_encoder.processors.0.normalizer.running_variance f4 [21]
000000 61 bc 5a 49 5a 1c 37 49 00 00 80 3f 21 fe 84 4a
       895942.06 750021.6 1.0 4.3579045e+06
000010 f8 6d a9 4a fa 0d f9 49 f4 7a b9 4a 00 00 80 3f
       5.551868e+06 2.0402552e+06 6.077818e+06 1.0
000020 22 6b dc 4b d0 8c 36 4b 96 80 65 49 bb 1c 16 49
       2.8890692e+07 1.19636e+07 940041.4 614859.7
000030 00 00 80 3f 00 00 80 3f 00 00 80 3f 00 00 80 3f
       1.0 1.0 1.0 1.0
000040 3a 30 fa 41 00 00 80 3f 00 00 80 3f 3a 30 fa 41
       31.273548 1.0 1.0 31.273548
000050 00 00 80 3f
       1.0

network_body.processors.0.normalizer.running_mean f4 [21]
000000 55 59 2a bf 4c ab f6 bf 00 00 00 00 53 ae 7c be
       -0.6654256 -1.9271026 0.0 -0.24675874
000010 8d 87 0b 3f 9e cb df bd 71 4c 4b bd 00 00 00 00
       0.5450371 -0.10927509 -0.049633447 0.0
000020 ce 4a a8 3b 6a 2a f8 3d 6a 13 07 be fe a6 25 40
       0.0051358705 0.12117465 -0.13191 2.5883174
000030 00 00 00 00 00 00 00 00 00 00 00 00 00 00 00 00
       0.0 0.0 0.0 0.0
000040 da fe af c0 00 00 00 00 00 00 00 00 da fe af 40
       -5.49986 0.0 0.0 5.49986
000050 00 00 00 00
       0.0

network_body.processors.0.normalizer.running_variance f4 [21]
000000 61 bc 5a 49 5a 1c 37 49 00 00 80 3f 21 fe 84 4a
       895942.06 750021.6 1.0 4.3579045e+06
000010 f8 6d a9 4a fa 0d f9 49 f4 7a b9 4a 00 00 80 3f
       5.551868e+06 2.0402552e+06 6.077818e+06 1.0
000020 22 6b dc 4b d0 8c 36 4b 96 80 65 49 bb 1c 16 49
       2.8890692e+07 1.19636e+07 940041.4 614859.7
000030 00 00 80 3f 00 00 80 3f 00 00 80 3f 00 00 80 3f
       1.0 1.0 1.0 1.0
000040 3a 30 fa 41 00 00 80 3f 00 00 80 3f 3a 30 fa 41
       31.273548 1.0 1.0 31.273548
000050 00 00 80 3f
       1.0

network_body._body_endoder.seq_layers.0.weight f4 [128, 21]
000000 64 f4 d8 3e d4 35 af 3e 48 e8 e2 bc 83 36 fe ba
       0.42373955 0.34220755 -0.027698651 -0.0019394908
000010 d4 8f f4 bc 47 49 99 bd 7d 60 0a be c0 62 4d 3c
       -0.029853739 -0.0748468 -0.1351337 0.012535751
000020 71 d4 ee bd 7a d4 34 3e 49 b3 aa 3e 7a 1a 1c 3d
       -0.11661614 0.17659178 0.3333991 0.038111188
000030 bd 01 69 3c f5 90 1c 3d a3 68 24 3e 89 e9 de bd
       0.014221606 0.03822418 0.1605554 -0.10884387
000040 8c c3 bc bd 2a d6 49 be 70 81 47 be c6 10 8d bd
       -0.09216985 -0.19710603 -0.1948297 -0.06887965
000050 d7 ba c0 be 8c cc d0 be ca a2 24 3e b3 50 d1 3c
       -0.37642547 -0.40781057 0.16077724 0.025551176
000060 fa 87 ad bd 14 fb cf bd 77 94 57 bc 9c 7a 4e be
       -0.08473201 -0.10155311 -0.013157955 -0.2016396
000070 90 19 e5 bd d3 b8 4d 3e bc 7a d1 3d 69 d2 31 3e
       -0.11186516 0.20090036 0.10228488 0.17365421
000080 b0 c5 9b be 87 fe 98 3e 42 6b c8 3d 1c 5c 64 be
       -0.3042426 0.2988169 0.09786083 -0.22300762
000090 94 54 77 3e 4b a0 3a be 66 b1 48 be 64 60 90 be
       0.24153358 -0.1822521 -0.19598922 -0.2819854
0000a0 5b 35 f7 bc 64 21 18 be 78 0a 14 3e fa ce 27 3e
       -0.030176809 -0.14856488 0.14457119 0.16387549
0000b0 b3 5d f5 3d ef 6f 2e be 9b 24 68 be f5 7a 13 3c
       0.11980762 -0.17034887 -0.22670214 0.009001483
0000c0 48 5f 9d 3e 47 d0 15 be 6d ff 6e be a5 27 70 3e
       0.30736756 -0.14630233 -0.23339625 0.23452623
0000d0 64 03 0e be a7 aa 21 be 3c 2a a3 3d f6 20 4a be
       -0.13868481 -0.15787755 0.0796704 -0.19739136
0000e0 7d bd b0 3e 82 ac f0 bd bf 06 f0 bc 06 23 22 3d
       0.34519568 -0.11751653 -0.029300092 0.039584182
0000f0 b3 88 82 3e da b6 e3 bd eb 52 af 3e 78 83 8a 3c
       0.25494918 -0.111188605 0.3424295 0.016908392
000100 1e bd 36 be c9 d9 63 bd 43 44 96 3e 7c 4a 87 bd
       -0.1784558 -0.055627618 0.29348955 -0.06606004
000110 40 11 ad bd 5d a6 13 3e 75 7f ad 3e d2 9b c0 3e
       -0.08450556 0.14418931 0.33886304 0.3761888
000120 93 15 8d 3e 26 7a 01 be 1d 77 cf 3e 5c 92 81 3e
       0.27555522 -0.12644252 0.40520564 0.25306976
000130 3e ac 40 3e 99 e2 88 3d 8a 2f 14 3e 32 9c 4b bb
       0.18815705 0.06683845 0.1447126 -0.0031068441
000140 2c 61 41 3e e7 5a ce be 31 06 ee 3d 15 53 ca 3d
       0.18884724 -0.40303728 0.11622275 0.09879128
000150 cf 83 07 be 63 f3 16 bf 72 88 48 be eb 4c 84 bc
       -0.13233875 -0.5896513 -0.195833 -0.016149959
000160 ba 1f 92 3d 13 39 31 3d ff 87 a2 bc d8 8e 94 3e
       0.071349576 0.04326732 -0.019840239 0.2901523
000170 76 71 90 be 62 77 39 3e a2 5b f0 3d 71 65 32 3d
       -0.28211564 0.18111947 0.117362276 0.043553773
000180 7b 0f 84 be 26 d1 58 3d 6a fb 9e be 6e 57 d6 3e
       -0.2579306 0.052933834 -0.3105119 0.4186358
000190 3a 1c e3 3e ab 8e 12 be 4c f9 5f 3e 7b 14 cd 3e
       0.44357473 -0.14312236 0.21872443 0.40054688
0001a0 db 76 85 3d 06 98 4f bd 19 6f ad 3c 20 45 85 bd
       0.065168105 -0.05068209 0.02117114 -0.06507325
0001b0 5e d1 a0 3e d6 13 9b 3d 07 51 3a bd bc 50 96 3d
       0.31409734 0.07572143 -0.04548743 0.073396176
0001c0 73 06 02 3d dd 55 7a 3d b7 b8 7b 3e c7 7b 39 3e
       0.03174443 0.06111704 0.24582182 0.18113624
0001d0 9d 78 ce 3d fc d5 c3 3e 45 5c 91 bc 93 02 6c 3e
       0.10081599 0.38249195 -0.017744193 0.23047857
0001e0 98 52 7b be 63 66 4f 3c e0 c9 b3 be 89 75 55 3e
       -0.24543226 0.012658688 -0.35114956 0.20845617
0001f0 07 e3 96 3d 04 df 13 bf bb 32 c8 be 92 3f fc 3d
       0.07367521 -0.5776217 -0.39101204 0.123168126
000200 a9 1e df 3e f3 10 73 bd b5 bb 79 be d7 e4 5e 3e
       0.4357808 -0.059342336 -0.24388011 0.21766983
000210 72 a9 df bd 72 6d 5f 3d fd f8 e6 3e fa 5f 87 3e
       -0.10920991 0.054547735 0.45111838 0.26440412
000220 ca 82 10 3e e7 e2 cf bd 5b 1e 3e 3e 5f d2 93 bd
       0.14112392 -0.101507 0.18566267 -0.072178595
000230 48 2a 31 3d 05 12 ae bd ea 15 ad be 77 33 31 3d
       0.043253213 -0.08499531 -0.33805782 0.04326197
000240 8e 09 69 3c 62 24 76 3e a8 c1 6f 3c 3a 24 0b bd
       0.014223469 0.24037316 0.014633574 -0.033970095
000250 d1 9c 0e be 8a a0 ce 3e f2 30 cc 3d 26 9c 89 3d
       -0.13927008 0.40356857 0.09970273 0.06719236
000260 97 76 1a be cb 3c de 3d 76 06 79 3e 96 6a aa be
       -0.15084301 0.10851439 0.24318871 -0.33284444
000270 b2 ff 5c bd 4d 9e c1 3c f9 3e be bc 74 a4 9f be
       -0.053954788 0.023635054 -0.023223387 -0.31180155
000280 ce 62 3e be bf 01 c2 bb ad f4 8e 3e b9 73 7b 3e
       -0.18592378 -0.0059206183 0.27921048 0.24555863
000290 39 f8 e3 3d c2 f4 60 3e 06 69 49 3d b9 de 31 3d
       0.11131329 0.21968368 0.049172424 0.043425296
0002a0 e5 c1 75 3d 9a 42 9a be 8c 1c 43 3e 6c 92 61 3e
       0.059999365 -0.30128938 0.19053859 0.22028512
0002b0 bc d3 37 be e3 e5 fc bd ec 9c b8 bc af 86 d5 bd
       -0.17951864 -0.12348535 -0.022535764 -0.104260795
0002c0 dc 81 c0 3d 64 33 8f 3d 9a c9 c5 3d 09 ac 92 bd
       0.09399769 0.06992224 0.09657593 -0.07161719
0002d0 80 6b e0 3d 3c 55 d4 bd 77 d6 5d bd 34 66 66 3e
       0.10958004 -0.1036782 -0.054159608 0.22499925
0002e0 fa dd 7d 3d 4c 4d e4 3e 8e b5 72 3d 7f 87 9a 3e
       0.06197927 0.44590223 0.059255175 0.301815
0002f0 75 70 6d be 13 5e 62 3e 32 7f 4b 3d c2 fc 81 be
       -0.2318743 0.22106199 0.04968185 -0.2538815
000300 c5 14 5b bd 79 1a cd be 57 3f 0b 3f d2 93 d2 3d
       -0.053486604 -0.4005926 0.54393524 0.10282101
000310 2f 38 2a be 64 d3 3d 3d a1 93 b9 bb 9f dd 5d be
       -0.16622995 0.046344176 -0.0056633507 -0.21666573
000320 7d 08 2b 3d 12 1b f0 3e 90 2c 49 3e 43 99 f5 bd
       0.041756142 0.46895653 0.19645905 -0.11992123
000330 9f 37 3c 3e 75 ad 7e bd 86 86 0a bd 00 ba e3 bd
       0.18380593 -0.06217714 -0.033819698 -0.11119461
000340 d0 af a9 3e b5 0a 1f 3e 60 1f 4e be 3b 39 a2 3d
       0.33141947 0.15531428 -0.20129156 0.07921072
000350 cf 9f 72 bc 75 c4 41 3c 76 64 e7 3d 90 de 4e 3c
       -0.014808609 0.011826624 0.11298458 0.012626305
000360 2a 65 26 be fb 8a dd 3d f3 57 71 3e 0e 97 76 be
       -0.16249529 0.10817524 0.23568706 -0.2408106
000370 ed b8 ac bd d1 e2 0d 3e 2e 70 78 3d ba 66 b4 bd
       -0.08433709 0.13856055 0.060653858 -0.08808656
000380 4c 73 2e be 8b 13 6e be 43 7b 64 3d d8 e6 80 3e
       -0.1703617 -0.23249643 0.055781614 0.2517612
000390 e1 40 4f be 6a 7e e5 3e a4 b9 d9 bd 3b 56 e6 3e
       -0.20239593 0.4482301 -0.10631111 0.44987664
0003a0 7b d5 eb bd 5a 60 c2 3d 29 3d 78 be 83 f6 14 3e
       -0.115153275 0.09491034 -0.24242081 0.14547162
0003b0 83 3b 79 be 79 cd 39 3e 5e d4 bc bd 97 4e 0f be
       -0.24339108 0.18144788 -0.09220193 -0.13994823
0003c0 1b 40 85 3e 73 1d a8 3d 2c 0e 2b bd 23 10 94 3c
       0.2602547 0.08208742 -0.041761562 0.0180741
0003d0 b7 0b 88 bd 94 59 3f 3e b2 4d 88 3e 09 fd f6 3d
       -0.066428594 0.18686515 0.26621777 0.120599814
0003e0 27 49 60 be 55 ec 66 3c 50 07 4b 3e d2 d0 26 3e
       -0.21902905 0.014094432 0.19827008 0.16290596
0003f0 b1 fc be be 9a 4e d2 bb bc a7 09 be cc d6 53 be
       -0.37302163 -0.0064180614 -0.13442892 -0.20687407

network_body._body_endoder.seq_layers.0.bias f4 [128]
000000 a4 34 29 3d 99 ca 8d 3c 49 c0 2c 3d 59 51 59 3d
       0.041309968 0.01730852 0.042175565 0.053056095
000010 8c 2c 2f bd 5e cd 56 3d 16 94 cb 3b 0d 4d 9f 3d
       -0.042767093 0.052441947 0.0062127216 0.07778368
000020 d4 a1 1c bd c8 ed 48 3d b6 d5 9c bb c3 87 b7 3d
       -0.03824027 0.04905489 -0.0047862185 0.08961441
000030 4b 61 06 3d 5a 54 c9 3d 27 f7 46 3d 5c fc 03 bc
       0.03280763 0.09830542 0.048575547 -0.008055773
000040 8a e5 31 3c 15 0f be 3c c1 ae 46 bb 9b 19 9f 3d
       0.010857949 0.023200551 -0.0030316564 0.07768556
000050 9e 8e bb 3d 69 cc f3 ba 45 3a 25 bc 81 5c 2d bb
       0.091580614 -0.0018600348 -0.010084693 -0.0026452842
000060 22 94 1b bc b2 0e 89 bb 27 0b 45 bd ab c7 98 3c
       -0.009495767 -0.00418266 -0.04810634 0.018649897
000070 22 69 56 3d 11 c3 f5 3d 8c 48 69 3d c6 11 35 3d
       0.052346356 0.120000966 0.05695395 0.044206403
000080 c9 51 69 3d 1a 43 98 bc 6b fb 74 3d b8 4b 8a 3d
       0.056962762 -0.018586684 0.059810083 0.067527235
000090 bb f8 b9 3c c6 ec b0 3d 38 17 8f bb b9 f8 8c 3d
       0.022701612 0.08638911 -0.0043667816 0.068833776
0000a0 00 87 35 3d 48 bc f3 3c 30 e6 8a 3d 1b 7d eb ba
       0.0443182 0.029752865 0.06782186 -0.0017966361
0000b0 46 75 5e bc f4 99 66 bd 9f ea 8b bb 8d 8d cc 3c
       -0.013577765 -0.056299165 -0.0042699124 0.02496984
0000c0 ec 63 01 3d 4f c4 0b 3d fe f1 09 bd 70 e4 c3 3d
       0.031589434 0.03412276 -0.033678047 0.09565055
0000d0 59 58 10 bd c3 fb 18 3d d8 cd 09 bd c9 1e 5c 3d
       -0.035240505 0.037349474 -0.033643574 0.053740297
0000e0 45 2f b5 3d 18 1a 7c 3d a8 ea b2 3d e8 8e c4 bc
       0.088469066 0.061548322 0.087361634 -0.023993924
0000f0 89 07 94 3d 34 c7 52 bc 60 29 4b 3d e9 a4 42 3d
       0.07228 -0.012864877 0.049600005 0.04752055
000100 d8 80 ed bc cd 2d 5d 3c aa f9 81 bc a6 1a 9d 3c
       -0.028992102 0.013499689 -0.01586612 0.019177746
000110 03 2e 2c 3d df b0 89 3b 90 ba 97 bc ff d7 28 3d
       0.042036068 0.004201993 -0.018521577 0.041221615
000120 16 8d 57 3b 6b 2c ef bb 4c dc 36 3d af a0 1a 3d
       0.003289049 -0.007298996 0.044643685 0.037750896
000130 f4 79 85 3d 2e 95 e4 3c 76 9b 81 3d f1 e8 72 3d
       0.06517401 0.027903166 0.0632848 0.05930418
000140 ee 98 c7 3b 28 db 66 3d bd 4e 24 bd 89 bd 00 3d
       0.0060912287 0.056361347 -0.040114153 0.031430755
000150 b1 11 2f 3d c7 8f 47 3d 4f bd 93 3b 2f 2f 47 bd
       0.04274148 0.0487211 0.0045086513 -0.048628982
000160 3b 5a a8 bc 09 2e 0a 3d 49 e8 d1 bc cd 6a 16 3d
       -0.020550838 0.03373531 -0.025623458 0.036722947
000170 5d 1f 8a 3d 2b 3e 2c bd 65 5d 91 3c ae e4 a6 bc
       0.06744263 -0.042051475 0.01774473 -0.020372715
000180 07 b0 22 3d 27 17 6a 3d 32 58 fb 3c 9a d0 05 bd
       0.039718654 0.057150986 0.030681703 -0.03266964
000190 62 89 b1 3d cc b4 2a 3d b3 99 ce 3c 0a 9b af 3d
       0.08668782 0.041676328 0.025219774 0.08574493
0001a0 1a 0e 46 3c 41 91 26 3d 32 53 c0 bc 76 3c 2c 3d
       0.012088323 0.04066587 -0.02347717 0.042049848
0001b0 1e 0f 8e 3d 4d 6f 08 3d 83 8e 9f 3d e8 1b d7 3c
       0.06936477 0.03330927 0.07790854 0.026258424
0001c0 20 1a 6d 3d 17 59 e0 bc a9 5f 03 3c 5d db 1e bc
       0.057886243 -0.027386231 0.008018413 -0.009695855
0001d0 c2 2a a5 3d cc d3 13 3d 39 53 5f 3c 74 e7 36 3c
       0.08064796 0.036090657 0.013630682 0.011163581
0001e0 ef 8e 50 bd 32 3b 8e 3d 86 50 65 3d e8 52 66 3d
       -0.050917562 0.06944884 0.055984996 0.05623141
0001f0 42 16 83 bd 40 49 94 3d da 42 cc bc b0 43 00 bd
       -0.0640073 0.07240534 -0.024934221 -0.03131455

network_body._body_endoder.seq_layers.2.weight f4 [128, 128]
000000 a2 db ed 3d a7 5a 84 3c 4d c8 ec bc f2 43 2a 3e
       0.11614157 0.016156508 -0.028904105 0.16627482
000010 9c 87 be 3d 05 e5 32 3c cd e0 93 3d ff b9 ce 3d
       0.09303209 0.01091886 0.07220612 0.1009407
000020 db d1 48 3d 3d f0 11 bd 7c 4c c1 bd e2 34 c7 bd
       0.04902826 -0.0356295 -0.09438416 -0.097268835
000030 eb 5a 5b bc e0 43 eb 3c 57 51 41 bd 2e fa 41 be
       -0.013388376 0.028718889 -0.047196712 -0.18943092
000040 a2 5b 44 bb ae c8 d0 bd cb fc 9c bd 53 ef 77 bd
       -0.0029961844 -0.101945266 -0.07665404 -0.06053097
000050 ca 22 aa 3d d1 ba d2 bd 24 df 84 bc 7f 6b b7 bc
       0.08307417 -0.10289539 -0.016219683 -0.022390125
000060 1a 96 d0 bd f8 02 a9 bc c3 5f 51 3e ba 9f 19 3d
       -0.101848796 -0.020631298 0.20446686 0.037505843
000070 16 03 fd bd 85 93 b2 bd ec fb a3 bc 57 80 4d be
       -0.12354104 -0.08719543 -0.020017587 -0.20068489
000080 e2 8e 54 bd 0b 34 cb bd 1f b8 08 3e 34 1d 2c bd
       -0.051894076 -0.09922036 0.13351487 -0.042020038
000090 eb cb a8 bd 07 1c c0 bd 03 94 18 3e 64 43 6c 3d
       -0.08242019 -0.09380346 0.14900212 0.057681456
0000a0 a6 6e 80 bd 8a ae 17 bb 4d af a5 bc 30 b8 79 3d
       -0.062711045 -0.0023144805 -0.020225191 0.06096667
0000b0 f0 8c 61 3d 21 45 97 bb e4 1a 86 bd e1 f1 ac bd
       0.05506605 -0.004616395 -0.06548098 -0.08444572
0000c0 44 d3 8f 3d a7 5e 4d 3d f3 29 02 be b3 1a 1e bd
       0.070227176 0.050139096 -0.12711315 -0.03859968
0000d0 80 c3 2e be 35 4c 23 bd 44 9e 0a bd 02 bb d4 bc
       -0.17066765 -0.0398676 -0.03384234 -0.025968079
0000e0 e6 27 44 3e f7 0d 00 3e d7 d0 32 3e bb 0a 9a bd
       0.19155845 0.12505327 0.17462479 -0.07521578
0000f0 86 d2 a9 bd 78 93 05 3b d6 af 68 3d 14 30 15 ba
       -0.08292107 0.0020382088 0.056808315 -0.0005691063
000100 9b a3 a9 bc 2f b5 47 3d d9 88 f6 3b a1 e2 ac bc
       -0.020707896 0.048756775 0.0075236377 -0.021104159
000110 7d 15 ae 3c 1d 93 07 be 8d 42 ee bd 07 99 16 3c
       0.02125048 -0.13239713 -0.11633787 0.009191758
000120 46 9d 0b 3e bb 6e 92 bd ae f0 f9 bd 82 5a 2a 3e
       0.13634214 -0.071500264 -0.12204109 0.16636088
000130 bb 3c 7b 3d 07 08 45 3d aa 39 48 bd 09 cc 37 bb
       0.061337214 0.04810336 -0.048883118 -0.0028045198
000140 34 84 80 3d ce bf f1 bd 19 ee 86 bd 30 5d 38 3d
       0.06275216 -0.11804162 -0.06588382 0.045010746
000150 f3 e2 19 bd 18 13 ec 3d c4 8e 2e 3d a8 e3 55 bd
       -0.03756995 0.11527079 0.04261662 -0.052219063
000160 ca ba 38 3d 17 40 8f bc 70 6e 3c be 9c 2d 3e bd
       0.04510001 -0.017486615 -0.18401504 -0.046430215
000170 b4 dc cb bd 45 23 1d 3c 66 52 b6 3d fd 21 bc 3d
       -0.09954205 0.009590928 0.08902435 0.0918617
000180 1b ce 02 3e 02 6f 49 be ef ea e3 bd 2f db b9 bc
       0.12773935 -0.19671252 -0.111287944 -0.022687523
000190 d9 18 9d bc 3c 0e 95 bc 4b ba 11 be 0e 92 64 3d
       -0.019176887 -0.018195264 -0.14231221 0.05580335
0001a0 65 8c 6b bd 73 a1 00 bd 21 fc 07 bc 08 97 07 bb
       -0.057506938 -0.03140397 -0.008299858 -0.0020689387
0001b0 cf 83 81 3d ca 0b 6f bd 4c 77 8b bb 8a 23 06 3d
       0.063239686 -0.058360852 -0.0042561647 0.032748736
0001c0 cc ad d5 3c 07 9c a4 bd ab 5a 36 bd 3e 18 16 3b
       0.02608385 -0.08037572 -0.04452006 0.0022902633
0001d0 00 ea 9a bd 41 e7 e3 3c 51 c7 bd 3b 2d 38 9c 3b
       -0.07564163 0.027820231 0.0057915826 0.004767439
0001e0 2b 31 17 be cd ea 1b be cd a1 e9 bb 35 99 82 bd
       -0.1476485 -0.15226288 -0.007129884 -0.06376878
0001f0 6d d1 0b be 99 59 98 bd 5b 18 95 bd 77 91 c0 3d
       -0.13654108 -0.074389644 -0.07280036 0.09402745
000200 4b 26 2e bd fa 1a 03 3d 6b e8 35 bd a2 a7 3d 3e
       -0.042516988 0.03200815 -0.044411104 0.18520978
000210 cd aa 30 be c3 b5 d6 bd a4 ad 6f bc 39 1e 6d 3d
       -0.17252655 -0.10483887 -0.0146288015 0.05789015
000220 fc 25 b0 3d 0f 04 f7 bd 33 5b f6 bb 76 1b cd 3d
       0.08600995 -0.12061321 -0.007518196 0.100150034
000230 92 b0 d3 3d 39 b8 4f bd cb c7 82 3d 15 38 6a 3b
       0.103364125 -0.050712798 0.06385764 0.0035738994
000240 68 e4 ba bd 9b 27 09 bd 27 7b 47 3e 20 f4 0c bc
       -0.09125596 -0.033485036 0.19480573 -0.008603126
000250 4c 1d 49 be 0d 33 d6 3c be d8 b9 3c 7c c5 4d be
       -0.19640082 0.02614739 0.022686359 -0.20094866
000260 de 76 9b bd d6 16 5d be 21 da 36 3d 4e 3a e3 3d
       -0.075910315 -0.21590742 0.044641618 0.11095105
000270 a4 d1 df 3d e8 9f 9a 3b 01 91 51 3e 3b ca 91 bc
       0.10928658 0.0047187693 0.20465471 -0.017796626
000280 c4 53 80 bc 13 4d fb bc 1d cf 69 3d 96 43 80 bd
       -0.015664943 -0.0306764 0.057082284 -0.06262891
000290 d3 5a 0c bd c7 d0 d6 3c e7 83 15 3d 89 61 95 3d
       -0.034266304 0.0262226 0.036502745 0.07293994
0002a0 d6 db 10 be 75 c4 39 be 67 99 36 3d cd 1f a9 3d
       -0.14146361 -0.18141349 0.04457989 0.08258019
0002b0 fb 9a a1 bd a9 68 0f 3e b7 09 67 bd ca d7 bf 3d
       -0.07890888 0.14004768 -0.05640575 0.0936733
0002c0 66 7c 49 3d ff 58 8d be 85 2b 12 3e 53 54 f4 bd
       0.0491909 -0.2760696 0.14274414 -0.11930146
0002d0 09 d4 5b 3d 18 77 c8 bc 7f fe 40 bd 93 87 35 bd
       0.05366901 -0.02447085 -0.047117706 -0.044318747
0002e0 98 22 06 3e 52 f4 ee bd 42 ae 94 bd 7f 77 a5 3d
       0.13099134 -0.11667694 -0.072597995 0.08079433
0002f0 33 06 82 3c 01 5c 20 3d 1e 12 73 3d 3b a6 85 3d
       0.015872097 0.03915024 0.05934345 0.065258466
000300 5f 73 9d bd 73 f5 80 bb c5 0a e8 3c 8c 2b 4e 39
       -0.07688021 -0.00393551 0.028325448 0.00019661913
000310 5f 55 41 bd ec c7 b1 3c 0f 85 f0 3c d2 86 c9 bd
       -0.047200557 0.021701775 0.029360322 -0.09840168
000320 60 73 01 3e 0f f6 47 3e 2c 46 2b be 0e 32 c9 3c
       0.12641668 0.19527458 -0.16725987 0.02456
000330 fc 98 13 3e 32 78 bc 3d 38 42 f0 bc cf 2c c7 3c
       0.14413828 0.09202613 -0.02932845 0.024313359
000340 95 7a b3 bd b1 e7 23 be 3d 94 f8 bd a3 be e7 3d
       -0.08763615 -0.16006352 -0.12137649 0.11315658
000350 d9 18 a3 3d e8 20 0d 3e 7f 01 5a 3d 90 ad 06 3b
       0.07963724 0.13782084 0.053224083 0.0020550229
000360 5b 25 27 bc 32 0f 19 3e 52 b9 93 3c 07 d4 85 be
       -0.010201777 0.14947203 0.018032704 -0.26138327
000370 95 9b 6f bd c4 b0 c1 bd 07 7e 0e 3e bf 3b 32 3d
       -0.058497984 -0.094575435 0.13915263 0.04351401
000380 af e0 85 bd e9 ca aa bd 2b 17 cb 3d 2d 24 e2 bd
       -0.065369956 -0.08339483 0.09916528 -0.11042056
000390 8b 35 93 bb a8 ff ed 3d 93 96 f5 3d be 0b 40 3e
       -0.004492467 0.11621028 0.119916104 0.1875448
0003a0 8f cf 2a 3c 67 6d 18 3d 96 3e 6a bb c0 e2 c1 3d
       0.010425462 0.03721371 -0.003574287 0.09467077
0003b0 be 6c 88 bc 30 f6 a0 3d 48 92 fe 3c 9f 71 1d 3e
       -0.016653415 0.078594565 0.031075612 0.15375374
0003c0 54 ee a2 bd 08 3b bc 3d 88 33 10 be 28 0e 10 3d
       -0.07955614 0.09190947 -0.14082158 0.03516975
0003d0 10 2e c3 3d 09 49 6a bd 76 bd 95 3d 8e 07 c0 bb
       0.0953027 -0.057198558 0.073115274 -0.0058602756
0003e0 e5 8b de 3c 24 c5 56 3d 5b 7b 1c 3e d5 8d 9b 3e
       0.027166316 0.0524341 0.15281431 0.30381647
0003f0 c0 92 1f be 76 c1 eb 3d 9e 8a 36 3d 5b 3d 96 3d
       -0.15583324 0.11511509 0.04456579 0.073359214

network_body._body_endoder.seq_layers.2.bias f4 [128]
000000 4c 72 0b 3c 9d 3b a7 3c df cc 13 bd 74 98 0a bd
       0.008511137 0.020414168 -0.036084052 -0.033836797
000010 8e 72 3a bd 41 58 cb bc 9e d7 81 3d 4b 7d 93 3d
       -0.045519404 -0.024822356 0.06339954 0.07201632
000020 f9 b6 8e 3d 56 47 12 3d 36 7a 5b 3d 8c 16 f6 ba
       0.06968493 0.035712563 0.053583346 -0.001877503
000030 65 f6 62 3d 51 58 32 3d a4 0f 7a 3d 0c 48 76 bc
       0.05541076 0.043541256 0.061050072 -0.015031826
000040 5e eb 4d bd 39 aa 66 3d cd 8d 1f bb 3a 3c da 3d
       -0.05027329 0.05631468 -0.0024345994 0.106560186
000050 2e 79 3c bd eb fb 20 bd 04 d3 9f 3c 7a a5 06 bd
       -0.046014003 -0.039302748 0.0195098 -0.032872654
000060 c6 3d 0e bd e5 9c 0f bd 24 f7 99 3d 06 a2 75 3d
       -0.03472688 -0.035061736 0.075178415 0.05996897
000070 e2 d9 9d 3d 55 61 51 3d c0 43 0b bd 1b 95 20 bd
       0.077075735 0.051118214 -0.03400016 -0.039204698
000080 ec a1 96 bc 54 59 06 bd 59 15 33 3d e7 fe f4 3c
       -0.018387757 -0.032800034 0.04372153 0.029906703
000090 50 09 a8 3d 30 59 80 3d 93 7d 31 bd e0 54 69 bc
       0.08204901 0.06267011 -0.043332648 -0.014241427
0000a0 96 76 ec bc 2e 98 00 bd 60 eb 42 bd 4a 33 9d 3d
       -0.02886514 -0.03139513 -0.047587752 0.07675798
0000b0 d7 a6 2b 3c 57 cc f4 bb 6c 68 8f 3d 00 b2 df bc
       0.010476789 -0.0074706483 0.07002339 -0.027306557
0000c0 e3 6e dc bc 7f ba 0b bd 85 f6 35 3d 65 6f b3 3b
       -0.026908344 -0.034113403 0.044424552 0.0054759257
0000d0 05 93 5c 3d 93 ca 17 ba 18 2c 92 3d 63 bd 52 3c
       0.053851146 -0.0005790379 0.071373165 0.012862536
0000e0 c1 58 ea bc 88 6d 32 3b 8e 35 1a bc 93 4a 50 3d
       -0.028606774 0.002722593 -0.0094121825 0.05085237
0000f0 6f 9a 20 bd 79 9f cc 3c f2 8f 94 3c 93 66 1c 3d
       -0.03920978 0.024978386 0.018135045 0.03818376
000100 0f 17 ca 3d 37 10 7d 3d 2c 3c 72 3c 5d 37 0e 3d
       0.09867679 0.06178304 0.014784854 0.034720767
000110 68 c3 a7 bc 80 97 17 bc 45 96 bb bc e2 04 50 3d
       -0.02047892 -0.009252429 -0.022898803 0.050785907
000120 5a 8c de 3a f0 4c d0 3c c3 e7 92 3c c0 fe ad 3d
       0.0016979084 0.025427312 0.017932778 0.08495855
000130 d7 fd 41 3c 6b 6f 2c 3d 97 a3 6c 3c 19 fa 5c 3d
       0.011840305 0.042098444 0.0144433 0.05394945
000140 2d fc b4 3d 8c 48 d3 3c 33 47 2f bd e8 53 2b bd
       0.08837161 0.025791429 -0.04279251 -0.041828066
000150 ed 23 68 3d 53 76 97 bb 9e 45 33 3d b7 8b 5d 3d
       0.056674886 -0.0046222596 0.043767564 0.05408832
000160 d3 b4 28 3d 0c 4c 81 3d 24 12 58 3d 93 a4 8a 3d
       0.041188072 0.06313333 0.052751675 0.06769671
000170 7d 18 7b 3c c4 70 33 3d 99 0c b5 bc 51 a6 a2 bc
       0.015325663 0.043808714 -0.022100734 -0.019854696
000180 d4 d9 1d bd 53 88 cc bc 97 ad dd bc 49 4f 0b 3d
       -0.038537815 -0.024967348 -0.027060313 0.03401116
000190 54 9f 8f bc 56 1a 44 bd 6d 1f b2 3c 73 2d b0 3d
       -0.017532028 -0.04787668 0.0217435 0.08602419
0001a0 f6 b3 97 3d 7a fd 8a 3d 3d f0 03 bd 93 41 17 bd
       0.07407372 0.06786628 -0.03221153 -0.03692777
0001b0 84 b0 87 3d 26 92 6e bd 67 b1 95 3b f9 02 62 3d
       0.066254646 -0.058244847 0.004568267 0.055178616
0001c0 6c 50 7e ba 66 2f 2d 3d 3f f6 51 3d e7 0c 7a 3d
       -0.0009701315 0.04228153 0.05126023 0.06104746
0001d0 82 24 53 3d 52 b9 38 3d b1 4b 90 bc cb 00 82 bc
       0.05154849 0.04509861 -0.017614217 -0.015869519
0001e0 6c bb d8 bc 8f 7d 43 bd ab 7b 6c 3d 2d 55 1b bc
       -0.026456557 -0.047727164 0.057735126 -0.009480757
0001f0 50 91 51 3d 21 40 98 3c 8a a1 b5 bc 56 6e 50 3d
       0.05116397 0.018585267 -0.022171754 0.050886475

action_model._continuous_distribution.log_sigma f4 [1, 2]
000000 f8 d2 2d bc 35 8c af 3a
       -0.010609381 0.0013393225

action_model._continuous_distribution.mu.weight f4 [2, 128]
000000 7d 7c 1e 3d a0 94 68 3d 61 37 33 3d ce 81 90 3d
       0.03869294 0.056782365 0.043753985 0.07056008
000010 ee 96 a9 3c 85 95 02 3c 9f 41 81 bc 3b a3 96 3a
       0.020701852 0.007970219 -0.01577836 0.0011492738
000020 e4 66 0f bd 63 18 b5 3c dc 23 91 bb 12 8e e4 bc
       -0.035010234 0.022106355 -0.0044293236 -0.027899776
000030 d5 19 6a 3c b4 6f b8 bc c9 76 39 bd 5e 54 12 3d
       0.014288385 -0.022514202 -0.045279298 0.03572499
000040 e3 4f 55 3d df bd 09 b8 c7 a1 4d bc 42 0d 62 bd
       0.05207814 -3.2840177e-05 -0.012550778 -0.055188425
000050 8a 59 36 3d 53 6c 4f 3d 14 68 51 3d 92 26 32 3d
       0.044518985 0.050640415 0.051124647 0.043493815
000060 2e c8 f9 3b 64 de 9f 3c 5f 71 f7 bc cb 97 32 bd
       0.00762274 0.019515224 -0.030205427 -0.043601792
000070 d1 75 67 bd 2d 9e 1a bd 0d 36 58 3d 57 c4 cf 3c
       -0.056508843 -0.037748504 0.05278592 0.025362177
000080 40 ac 3c 3d db 25 17 3c b5 b0 e3 3c 55 94 b5 bd
       0.046062708 0.009225334 0.027794221 -0.08866183
000090 fe f7 7d bc 2f e7 21 bc 49 17 61 3d e3 77 e2 3c
       -0.0155010205 -0.009881779 0.054953847 0.027645057
0000a0 d9 12 d7 3c e4 a3 e2 3c 53 a7 51 3d be 9e 1d bd
       0.026254104 0.02766604 0.051184963 -0.038481466
0000b0 dc 74 40 bd fd c6 5d 3d 94 3b 12 bd fb 80 65 bc
       -0.046986446 0.05414485 -0.03570135 -0.014007802
0000c0 6d ae 8d bc 51 06 12 3d 1d 76 83 bd e9 61 33 bd
       -0.017295087 0.035650555 -0.06419013 -0.043794546
0000d0 d4 bd 95 bd a8 4f d3 bc aa 9b 1c bd 79 d9 ab bc
       -0.073115975 -0.025794819 -0.03823439 -0.020977722
0000e0 4f c7 a1 3b 6e 1d be bc 00 fc 76 3d de 60 90 bc
       0.0049370895 -0.023207393 0.06029892 -0.017624315
0000f0 79 96 95 3c 2c 5f 48 3d e8 e4 41 3d ba 69 8f bd
       0.018260228 0.048918888 0.047337443 -0.070025876
000100 d3 48 27 bd 3e 1d b2 bb b4 6b 1e bd c9 6c b8 3c
       -0.040840935 -0.005435615 -0.038676932 0.02251281
000110 a8 67 d9 3d 03 14 04 3d f7 ca 4e 3d 09 c3 02 bc
       0.10615474 0.032245647 0.05048653 -0.00798107
000120 ad c9 d3 bc 83 3f 2b bd 26 fc 04 3d 29 bd 02 bd
       -0.025853002 -0.041808616 0.03246703 -0.03191868
000130 d9 4f 46 bd d8 f8 07 3d 60 37 1e 3d 11 89 f6 bc
       -0.048415992 0.0331963 0.03862703 -0.030094655
000140 23 8c 2b bd 16 65 12 3d 18 ac 0f 3b 7d e3 92 3c
       -0.04188169 0.035740934 0.0021922644 0.01793074
000150 19 5b 0f bc e6 5c 94 3c e1 63 71 bd b9 87 8f bd
       -0.008749747 0.018110704 -0.058933143 -0.07008309
000160 a6 2b 43 bd de 66 1d bc a2 15 27 bd 30 89 57 bd
       -0.04764905 -0.009607045 -0.040792115 -0.052621067
000170 7d e5 60 bd 52 23 e8 bc 50 73 83 3d a7 4d b8 3c
       -0.054906357 -0.028337155 0.064184785 0.022497965
000180 b6 0b 57 3d 03 4b ba 3c 8b 75 30 3d 64 fc 73 bc
       0.052501403 0.022740846 0.043080848 -0.014891718
000190 da d8 92 3d ec db 61 3d e6 2f 5b bc 47 c8 eb bc
       0.071702674 0.055141374 -0.013378119 -0.028782023
0001a0 af dc 0b bd ae 06 0f 3c a4 ce c2 3b 45 46 89 3c
       -0.034146007 0.00872962 0.0059450436 0.01675714
0001b0 40 14 93 bb 7a 70 28 3d 1a ae 18 3d a3 d3 f2 bc
       -0.004488498 0.04112289 0.03727541 -0.029641932
0001c0 3a ec 15 3d e3 f2 ab 3b 77 ba 8e 3c 0b 0c d6 bc
       0.036602236 0.00524746 0.017422898 -0.02612879
0001d0 3e f1 28 3c 86 09 b6 3c c0 2e 15 3d bf c8 5b 3d
       0.010311423 0.022221338 0.036421537 0.053658243
0001e0 95 64 99 3c af 71 57 3c c3 29 8e bc 67 78 dc 3c
       0.018724719 0.013149663 -0.017353898 0.026912881
0001f0 54 cf 22 bd 22 7f 0b 3d 9b f8 72 3d 17 c2 89 bd
       -0.039748505 0.03405679 0.05931912 -0.06726473
000200 53 f2 28 3c 45 64 cd 3c 34 eb 79 bd 47 b5 6f bd
       0.010311681 0.025072226 -0.061015323 -0.05852249
000210 f8 0f e0 bc 00 a4 ea bc 16 58 be 3d 32 b0 b1 3d
       -0.027351364 -0.028642654 0.09294145 0.08676185
000220 8d 86 45 3d fb 40 45 3c 8c 17 12 3d de 6f 6e bd
       0.04822402 0.012039418 0.035666987 -0.058212154
000230 57 91 9e 3d 9e c9 e6 3c 0a 19 32 3d 20 16 6e 3c
       0.07742565 0.02817231 0.04348091 0.014531642
000240 09 49 3c bd c9 31 45 3d 98 7f a3 bd 37 60 a4 3d
       -0.04596809 0.048143182 -0.07983321 0.08026164
000250 53 3d 18 bd c8 51 6c bd de 9c 48 bc af eb 88 bd
       -0.03716786 -0.05769518 -0.012244431 -0.06685578
000260 b6 ec e3 bc 62 5d 98 bd 32 3e 07 3d 75 cb 9c 3d
       -0.027822834 -0.07439686 0.0330183 0.07655994
000270 15 f7 c3 3c 76 e2 ef 3c 74 cb b7 bc f2 b3 ba bd
       0.023921529 0.02928279 -0.022435881 -0.09116353
000280 03 6b 9b bd 1a cb 5d bd 91 e2 8b 3d d3 85 54 bc
       -0.0758877 -0.05414877 0.068303235 -0.012971359
000290 f1 6c 0d 3d 2c 76 01 3d 29 b2 66 bd 1f ca db bc
       0.034527723 0.031606838 -0.05632225 -0.026829777
0002a0 10 4c 67 bc cb cd a4 bd c6 cd 37 bd a7 e2 66 3d
       -0.014117256 -0.080470644 -0.044873975 0.056368496
0002b0 9a 05 0d bd 4b 94 78 bd 5e b1 02 3d 22 c4 85 bc
       -0.03442917 -0.0606883 0.03190743 -0.016328875
0002c0 f6 6d c2 bb 7f 71 33 3c aa 5a b0 3b bb ba f4 bc
       -0.0059335185 0.010952353 0.0053819017 -0.029874196
0002d0 2b fd ee 3c 2e 33 a7 bc d2 78 85 3d a5 5e b1 bd
       0.029173454 -0.020410147 0.06517185 -0.0866063
0002e0 5f 53 c7 bb b8 1a 05 bd cb 11 53 bd 94 4b 1d 3d
       -0.0060829367 -0.032496184 -0.05153064 0.038402155
0002f0 eb 25 7a 3c 73 6a 02 3d f6 3c b5 bc 2c 04 77 3c
       0.015267829 0.0318398 -0.022123795 0.015076678
000300 95 93 7d 3d 73 08 f4 3c 95 18 b2 3a 4d 60 62 3d
       0.061908323 0.029789185 0.0013587648 0.05526762
000310 02 20 1d bd 49 74 77 3a 2b c3 e4 bd 8c 5e 42 3d
       -0.038360603 0.000943963 -0.11170038 0.04745345
000320 2b 8e 98 3c a2 6d 26 3b 6f 72 d9 3c 53 be 8c 3d
       0.018622478 0.0025394936 0.026543824 0.06872239
000330 2c ae ef bc 91 b9 e2 3c 14 65 e9 bc b1 8c e7 3c
       -0.029257856 0.027676376 -0.02849058 0.02826533
000340 de 95 ba 3d 9f f0 05 3d 88 76 c0 bd 87 23 40 bc
       0.09110616 0.032700177 -0.09397608 -0.01172722
000350 28 eb 2f 3d 5f d1 84 3c 91 75 e9 3c e0 07 cf bc
       0.04294887 0.016213117 0.028498443 -0.02527231
000360 5a ca b7 3c 00 e6 a0 3d 3f 23 f5 3c 58 d0 04 3d
       0.022435356 0.07856369 0.029924033 0.032425255
000370 7c c0 fa 3a 8f 22 e3 3b bb 7a 84 bd a5 8d 93 bd
       0.0019130851 0.00693161 -0.064687215 -0.07204751
000380 f9 de 32 bd 88 94 70 bd 26 45 08 3c 30 84 5d 3c
       -0.043669675 -0.0587354 0.0083172675 0.0135202855
000390 80 7f 5d bc fa 93 2c bd c0 1f 06 3d d5 8a ab 3d
       -0.013519168 -0.04213331 0.032745123 0.083760895
0003a0 15 11 bb 3c 54 1a aa 3d c4 0a 45 bd e3 67 28 bd
       0.022835294 0.08305803 -0.04810597 -0.0411147
0003b0 63 13 55 3d f8 92 4f bd 39 19 52 bc 67 20 a5 3c
       0.05202044 -0.05067727 -0.012823396 0.020157052
0003c0 97 d7 36 bd 08 ce a9 3c 5f 70 43 3d ce 3e a1 3d
       -0.044639196 0.020728126 0.047714587 0.07873307
0003d0 79 4a 8d 3d 9f 52 6f 3d 3e 63 bc bd 7a b9 fc 3b
       0.0689897 0.058428403 -0.091986164 0.00771254
0003e0 03 5f f0 bc 90 cb 40 bd 2d 5b 9b 3d c1 94 82 bd
       -0.02934218 -0.047069132 0.0758575 -0.06376029
0003f0 a9 5b 93 3c de 1c 21 3c 60 53 1a bd 2f cd 0f 3b
       0.017988043 0.009833543 -0.03767717 0.0021942367

action_model._continuous_distribution.mu.bias f4 [2]
000000 08 66 b9 bc 0e a5 48 3d
       -0.02263166 0.048985533

exp_avg f4 [128, 21]
000000 5b eb 2b b9 8b e9 41 39 00 00 00 00 40 aa d4 b8
       -0.00016395508 0.00018492916 0.0 -0.00010140659
000010 b1 95 a4 b8 8f 9e 19 38 16 4f 74 39 00 00 00 00
       -7.8480116e-05 3.662571e-05 0.00023299115 0.0
000020 3e dc 0e 38 18 c3 a0 b8 21 c1 64 38 5b 52 d7 b8
       3.4060555e-05 -7.6657336e-05 5.45393e-05 -0.00010267339
000030 00 00 00 00 00 00 00 00 00 00 00 00 00 00 00 00
       0.0 0.0 0.0 0.0
000040 43 a4 70 b5 00 00 00 00 00 00 00 00 43 a4 70 35
       -8.9646e-07 0.0 0.0 8.9646e-07
000050 00 00 00 00 1e c6 5f 3a 5e fe df b9 00 00 00 00
       0.0 0.00085362967 -0.00042723393 0.0
000060 7f a0 8b 34 20 11 30 3a 4d dc 3f b9 f4 76 a3 b9
       2.6007544e-07 0.0006716419 -0.00018297248 -0.0003117841
000070 00 00 00 00 24 87 57 b9 63 1f 99 3a fd de 37 b9
       0.0 -0.00020554342 0.0011682328 -0.0001753531
000080 3d d6 94 3a 00 00 00 00 00 00 00 00 00 00 00 00
       0.0011355352 0.0 0.0 0.0
000090 00 00 00 00 48 5b 99 37 00 00 00 00 00 00 00 00
       0.0 1.8281527e-05 0.0 0.0
0000a0 48 5b 99 b7 00 00 00 00 6b fa ff b9 96 41 04 39
       -1.8281527e-05 0.0 -0.00048823966 0.00012612934
0000b0 00 00 00 00 04 1c 47 b9 49 60 95 b9 ad 38 2a 39
       0.0 -0.00018988556 -0.00028491233 0.00016233577
0000c0 25 1c 19 38 00 00 00 00 bf 5c 8e 38 4b 46 74 ba
       3.6504254e-05 0.0 6.788363e-05 -0.0009318336
0000d0 b1 b4 5a 39 aa 2c 0e ba 00 00 00 00 00 00 00 00
       0.00020857413 -0.00054235256 0.0 0.0
0000e0 00 00 00 00 00 00 00 00 3d a6 31 b7 00 00 00 00
       0.0 0.0 -1.05887275e-05 0.0
0000f0 00 00 00 00 3d a6 31 37 00 00 00 00 83 31 2d b9
       0.0 1.05887275e-05 0.0 -0.0001651701
000100 f2 9d 32 b9 00 00 00 00 2a 6d db 39 74 38 c8 b8
       -0.00017034242 0.0 0.0004185227 -9.5472584e-05
000110 11 53 24 39 20 e3 36 b9 00 00 00 00 b6 d9 5c 39
       0.00015671203 -0.00017441483 0.0 0.00021061939
000120 de f1 90 b9 8c fd 48 39 71 ab 55 b9 00 00 00 00
       -0.00027646025 0.0001916794 -0.0002037713 0.0
000130 00 00 00 00 00 00 00 00 00 00 00 00 21 08 c7 b6
       0.0 0.0 0.0 -5.9316085e-06
000140 00 00 00 00 00 00 00 00 21 08 c7 36 00 00 00 00
       0.0 0.0 5.9316085e-06 0.0
000150 74 87 e5 b8 5b 73 50 b9 00 00 00 00 5c 8f 7d 38
       -0.00010944801 -0.00019879399 0.0 6.0453414e-05
000160 6a 07 da b7 1b 6b 19 39 3d be 30 b8 00 00 00 00
       -2.5991078e-05 0.00014631117 -4.2138843e-05 0.0
000170 ba 79 97 b8 ee f6 48 b9 36 d8 52 39 5a 1f b1 b8
       -7.2229144e-05 -0.00019165475 0.00020107705 -8.4458574e-05
000180 00 00 00 00 00 00 00 00 00 00 00 00 00 00 00 00
       0.0 0.0 0.0 0.0
000190 ef 29 94 b6 00 00 00 00 00 00 00 00 ef 29 94 36
       -4.4156254e-06 0.0 0.0 4.4156254e-06
0001a0 00 00 00 00 31 ce 83 b9 2e 82 47 b8 00 00 00 00
       0.0 -0.00025139892 -4.7566537e-05 0.0
0001b0 ad f7 4e 39 20 ac b7 36 00 1f 09 39 95 9c 0f b9
       0.00019737957 5.473863e-06 0.00013076887 -0.00013695874
0001c0 00 00 00 00 e0 01 8a 39 07 ee 0d ba ce e5 9d 39
       0.0 0.00026322808 -0.0005414192 0.0003011659
0001d0 8b 9f b6 b9 00 00 00 00 00 00 00 00 00 00 00 00
       -0.00034832614 0.0 0.0 0.0
0001e0 00 00 00 00 0b 16 0d b7 00 00 00 00 00 00 00 00
       0.0 -8.409387e-06 0.0 0.0
0001f0 0b 16 0d 37 00 00 00 00 c6 b2 db 39 e9 e5 03 37
       8.409387e-06 0.0 0.00041904132 7.861739e-06
000200 00 00 00 00 ac 47 65 b9 18 ef a8 39 01 2d 74 b9
       0.0 -0.00021865842 0.00032221596 -0.00023286419
000210 5a a8 a4 38 00 00 00 00 ca 06 90 b9 72 a8 6c 3a
       7.851487e-05 0.0 -0.0002747088 0.0009027786
000220 86 26 44 b9 f0 e3 1c 3a 00 00 00 00 00 00 00 00
       -0.00018706368 0.0005984893 0.0 0.0
000230 00 00 00 00 00 00 00 00 e4 01 5c 37 00 00 00 00
       0.0 0.0 1.3113462e-05 0.0
000240 00 00 00 00 e4 01 5c b7 00 00 00 00 63 ec 9b ba
       0.0 -1.3113462e-05 0.0 -0.001189601
000250 29 e5 50 b8 00 00 00 00 3c 53 0a b9 59 01 1f 38
       -4.9804486e-05 0.0 -0.00013191713 3.790981e-05
000260 a4 bb 19 39 e9 b4 1d 39 00 00 00 00 56 66 a5 b7
       0.00014661119 0.00015040081 0.0 -1.9717187e-05
000270 9c 1c 07 bb bc b8 8c 3a dd 91 70 ba 00 00 00 00
       -0.0020616418 0.0010736207 -0.0009177009 0.0
000280 00 00 00 00 00 00 00 00 00 00 00 00 62 b9 dd b7
       0.0 0.0 0.0 -2.6431579e-05
000290 00 00 00 00 00 00 00 00 62 b9 dd 37 00 00 00 00
       0.0 0.0 2.6431579e-05 0.0
0002a0 2b 22 b9 b8 ce d2 bf b8 00 00 00 00 9d 31 96 39
       -8.827852e-05 -9.146855e-05 0.0 0.00028647194
0002b0 61 d5 6e b9 46 9c 08 39 05 58 b8 b8 00 00 00 00
       -0.00022776939 0.00013028187 -8.7901986e-05 0.0
0002c0 e3 da 1d 39 70 98 94 b9 0f 90 28 38 37 89 69 b9
       0.00015054228 -0.00028342335 4.0188486e-05 -0.00022271728
0002d0 00 00 00 00 00 00 00 00 00 00 00 00 00 00 00 00
       0.0 0.0 0.0 0.0
0002e0 17 fc 90 b6 00 00 00 00 00 00 00 00 17 fc 90 36
       -4.3208815e-06 0.0 0.0 4.3208815e-06
0002f0 00 00 00 00 ed c6 1b b8 e5 c8 96 39 00 00 00 00
       0.0 -3.7140144e-05 0.00028759908 0.0
000300 2b 57 c7 b8 e0 3d bc 38 ee 89 57 b9 18 eb d9 38
       -9.505296e-05 8.976064e-05 -0.0002055538 0.00010391156
000310 00 00 00 00 cf 56 b5 b8 6e 84 9d 39 a0 51 57 b9
       0.0 -8.646922e-05 0.0003004404 -0.00020534405
000320 8f fb 8d b7 00 00 00 00 00 00 00 00 00 00 00 00
       -1.6925651e-05 0.0 0.0 0.0
000330 00 00 00 00 98 1e 05 36 00 00 00 00 00 00 00 00
       0.0 1.9836352e-06 0.0 0.0
000340 98 1e 05 b6 00 00 00 00 b9 e6 83 3a 21 b4 13 b9
       -1.9836352e-06 0.0 0.0010063268 -0.00014086116
000350 00 00 00 00 c8 d7 fd b9 20 63 6b 3a e3 0c c8 b9
       0.0 -0.0004841669 0.00089793094 -0.00038156574
000360 90 2f 70 b9 00 00 00 00 f8 f0 a0 b9 a8 4b 03 3b
       -0.00022905902 0.0 -0.00030697114 0.0020034108
000370 8a a5 38 ba c1 f4 b6 3a 00 00 00 00 00 00 00 00
       -0.000704371 0.001395844 0.0 0.0
000380 00 00 00 00 00 00 00 00 38 4d dc 37 00 00 00 00
       0.0 0.0 2.6262001e-05 0.0
000390 00 00 00 00 38 4d dc b7 00 00 00 00 f8 b5 06 ba
       0.0 -2.6262001e-05 0.0 -0.000513881
0003a0 c4 d1 14 39 00 00 00 00 90 fd bc b9 69 3c e3 39
       0.00014192524 0.0 -0.00036047073 0.00043341823
0003b0 94 cd cc 38 bf 69 96 39 00 00 00 00 66 9a 27 b9
       9.76577e-05 0.00028689016 0.0 -0.00015983879
0003c0 5a d7 bc b8 b2 97 28 3a 7a 52 80 38 00 00 00 00
       -9.004651e-05 0.0006431296 6.118878e-05 0.0
0003d0 00 00 00 00 00 00 00 00 00 00 00 00 f2 44 45 b6
       0.0 0.0 0.0 -2.939542e-06
0003e0 00 00 00 00 00 00 00 00 f2 44 45 36 00 00 00 00
       0.0 0.0 2.939542e-06 0.0
0003f0 66 7a 8f 3a 13 38 96 b9 00 00 00 00 19 b0 80 39
       0.0010946512 -0.00028652008 0.0 0.00024545265

exp_avg_sq f4 [128, 21]
000000 16 4e 0b 34 5f 22 40 34 00 00 00 00 6e df 8b 34
       1.2973791e-07 1.7893898e-07 0.0 2.6053334e-07
000010 29 89 99 34 02 97 57 34 26 6c 48 34 00 00 00 00
       2.8598268e-07 2.0078372e-07 1.8665796e-07 0.0
000020 e3 b2 24 34 08 71 de 34 53 42 51 34 63 88 42 34
       1.5338769e-07 4.1432963e-07 1.948877e-07 1.8117275e-07
000030 00 00 00 00 00 00 00 00 00 00 00 00 00 00 00 00
       0.0 0.0 0.0 0.0
000040 c9 0a d5 2e 00 00 00 00 00 00 00 00 c9 0a d5 2e
       9.6880344e-11 0.0 0.0 9.6880344e-11
000050 00 00 00 00 af 54 4a 35 a8 c3 37 35 00 00 00 00
       0.0 7.5374095e-07 6.845753e-07 0.0
000060 18 0f 98 35 b0 ce a3 35 d0 de 57 35 1b 4f 33 35
       1.1329275e-06 1.22046e-06 8.0417976e-07 6.679781e-07
000070 00 00 00 00 1e d8 48 35 c6 b8 e4 35 b0 40 35 35
       0.0 7.48203e-07 1.70411e-06 6.7521887e-07
000080 31 b3 97 35 00 00 00 00 00 00 00 00 00 00 00 00
       1.1302528e-06 0.0 0.0 0.0
000090 00 00 00 00 d3 ff e0 2f 00 00 00 00 00 00 00 00
       0.0 4.0927137e-10 0.0 0.0
0000a0 d3 ff e0 2f 00 00 00 00 ae 18 9c 34 ac 89 95 34
       4.0927137e-10 0.0 2.907522e-07 2.7853582e-07
0000b0 00 00 00 00 f1 f6 e7 34 1c 5d 1f 35 c2 4c d5 34
       0.0 4.3206776e-07 5.936761e-07 3.973019e-07
0000c0 27 03 bd 34 00 00 00 00 8d 6a ca 34 de ef 19 35
       3.5206287e-07 0.0 3.7702958e-07 5.7345994e-07
0000d0 08 03 a4 34 eb da fe 34 00 00 00 00 00 00 00 00
       3.0549586e-07 4.747047e-07 0.0 0.0
0000e0 00 00 00 00 00 00 00 00 a6 f5 40 2f 00 00 00 00
       0.0 0.0 1.754957e-10 0.0
0000f0 00 00 00 00 a6 f5 40 2f 00 00 00 00 48 5d a4 34
       0.0 1.754957e-10 0.0 3.0615251e-07
000100 a9 bb b3 34 00 00 00 00 6c 2b 02 35 24 df 01 35
       3.347789e-07 0.0 4.849196e-07 4.838096e-07
000110 83 a8 d0 34 45 65 18 35 00 00 00 00 41 08 9f 34
       3.8865628e-07 5.677178e-07 0.0 2.9622063e-07
000120 fe c7 0f 35 3d ba d9 34 39 64 9d 34 00 00 00 00
       5.356268e-07 4.0554906e-07 2.931645e-07 0.0
000130 00 00 00 00 00 00 00 00 00 00 00 00 47 6d 2c 2f
       0.0 0.0 0.0 1.5682132e-10
000140 00 00 00 00 00 00 00 00 47 6d 2c 2f 00 00 00 00
       0.0 0.0 1.5682132e-10 0.0
000150 6d b8 8e 33 5c 35 6e 34 00 00 00 00 6b 6c 23 34
       6.645937e-08 2.218489e-07 0.0 1.522e-07
000160 07 45 44 34 6e 9b f9 33 10 38 05 34 00 00 00 00
       1.8279034e-07 1.16232385e-07 1.2406986e-07 0.0
000170 70 81 b1 33 53 c7 6e 34 ed 17 0b 34 b3 ae df 33
       8.265749e-08 2.2237991e-07 1.2954088e-07 1.0416024e-07
000180 00 00 00 00 00 00 00 00 00 00 00 00 00 00 00 00
       0.0 0.0 0.0 0.0
000190 fa b2 51 2e 00 00 00 00 00 00 00 00 fa b2 51 2e
       4.768006e-11 0.0 0.0 4.768006e-11
0001a0 00 00 00 00 08 06 9f 34 7d 70 cd 34 00 00 00 00
       0.0 2.9620446e-07 3.8266072e-07 0.0
0001b0 f8 d7 12 35 a7 77 0e 35 d6 b2 ff 34 b6 91 0c 35
       5.4703514e-07 5.307324e-07 4.7627572e-07 5.23661e-07
0001c0 00 00 00 00 15 06 c8 34 7f 94 42 35 8c a4 f5 34
       0.0 3.7257328e-07 7.248672e-07 4.575453e-07
0001d0 3f 87 dd 34 00 00 00 00 00 00 00 00 00 00 00 00
       4.1262862e-07 0.0 0.0 0.0
0001e0 00 00 00 00 d4 bd 4b 2f 00 00 00 00 00 00 00 00
       0.0 1.8530183e-10 0.0 0.0
0001f0 d4 bd 4b 2f 00 00 00 00 86 74 9c 34 e5 af b1 34
       1.8530183e-10 0.0 2.9142046e-07 3.30968e-07
000200 00 00 00 00 89 98 06 35 e1 e5 1c 35 d8 60 df 34
       0.0 5.014086e-07 5.8449046e-07 4.160745e-07
000210 c5 21 e3 34 00 00 00 00 b2 c3 b8 34 62 c6 39 35
       4.2306615e-07 0.0 3.4415058e-07 6.9206556e-07
000220 03 5f c1 34 6a 4c e5 34 00 00 00 00 00 00 00 00
       3.6018182e-07 4.2710172e-07 0.0 0.0
000230 00 00 00 00 00 00 00 00 10 12 3d 2f 00 00 00 00
       0.0 0.0 1.7195867e-10 0.0
000240 00 00 00 00 10 12 3d 2f 00 00 00 00 4e 1b 20 36
       0.0 1.7195867e-10 0.0 2.3857751e-06
000250 0b 54 56 36 00 00 00 00 5c 9f 8b 36 13 01 9c 36
       3.1937404e-06 0.0 4.1610747e-06 4.6492873e-06
000260 99 e3 52 36 72 d4 56 36 00 00 00 00 91 da 34 36
       3.1424918e-06 3.2012144e-06 0.0 2.6949313e-06
000270 01 1a b1 36 e2 ae 53 36 2d 51 6d 36 00 00 00 00
       5.2780383e-06 3.1543245e-06 3.5363003e-06 0.0
000280 00 00 00 00 00 00 00 00 00 00 00 00 f8 de ce 30
       0.0 0.0 0.0 1.5051844e-09
000290 00 00 00 00 00 00 00 00 f8 de ce 30 00 00 00 00
       0.0 0.0 1.5051844e-09 0.0
0002a0 0a 13 1b 33 50 d1 9b 33 00 00 00 00 3c 63 ef 33
       3.6106066e-08 7.255824e-08 0.0 1.11473554e-07
0002b0 c7 90 1c 34 2d 57 a4 33 62 d3 91 33 00 00 00 00
       1.4581302e-07 7.652702e-08 6.790539e-08 0.0
0002c0 82 3d 72 33 0d 9f 1d 34 70 11 8d 33 e3 4b ba 33
       5.6400957e-08 1.4679627e-07 6.568996e-08 8.675104e-08
0002d0 00 00 00 00 00 00 00 00 00 00 00 00 00 00 00 00
       0.0 0.0 0.0 0.0
0002e0 55 42 fd 2d 00 00 00 00 00 00 00 00 55 42 fd 2d
       2.8792227e-11 0.0 0.0 2.8792227e-11
0002f0 00 00 00 00 dc 52 ff 33 fa 20 7c 34 00 00 00 00
       0.0 1.1889435e-07 2.3481326e-07 0.0
000300 e7 94 8e 34 56 6c c1 34 81 94 80 34 52 fa 7a 34
       2.6557902e-07 3.6027876e-07 2.394991e-07 2.337413e-07
000310 00 00 00 00 63 7f 43 34 19 f2 c0 34 b2 d4 65 34
       0.0 1.8207133e-07 3.5938936e-07 2.1404665e-07
000320 8e 91 64 34 00 00 00 00 00 00 00 00 00 00 00 00
       2.1287107e-07 0.0 0.0 0.0
000330 00 00 00 00 ea ee c8 2e 00 00 00 00 00 00 00 00
       0.0 9.137387e-11 0.0 0.0
000340 ea ee c8 2e 00 00 00 00 9f f7 8a 35 9d a6 90 35
       9.137387e-11 0.0 1.0353868e-06 1.0777327e-06
000350 00 00 00 00 07 1b e0 35 95 ea f6 35 40 e0 93 35
       0.0 1.6697167e-06 1.8396701e-06 1.1017619e-06
000360 d6 98 9d 35 00 00 00 00 19 db 73 35 78 fd 2f 36
       1.1741893e-06 0.0 9.0843383e-07 2.622457e-06
000370 ef 42 97 35 9c da ad 35 00 00 00 00 00 00 00 00
       1.1269857e-06 1.2953128e-06 0.0 0.0
000380 00 00 00 00 00 00 00 00 d2 84 14 30 00 00 00 00
       0.0 0.0 5.4030835e-10 0.0
000390 00 00 00 00 d2 84 14 30 00 00 00 00 86 4b 26 35
       0.0 5.4030835e-10 0.0 6.194972e-07
0003a0 a7 ef 87 35 00 00 00 00 15 8a 9a 35 f5 6a 92 35
       1.0128032e-06 0.0 1.1514081e-06 1.0908976e-06
0003b0 39 a5 67 35 d5 18 6e 35 00 00 00 00 dd bb 3e 35
       8.6294637e-07 8.8698044e-07 0.0 7.105389e-07
0003c0 08 fb 9e 35 fc ad 7e 35 03 5f 63 35 00 00 00 00
       1.1844977e-06 9.4875554e-07 8.470235e-07 0.0
0003d0 00 00 00 00 00 00 00 00 00 00 00 00 d9 19 ee 2f
       0.0 0.0 0.0 4.3310314e-10
0003e0 00 00 00 00 00 00 00 00 d9 19 ee 2f 00 00 00 00
       0.0 0.0 4.3310314e-10 0.0
0003f0 b9 e0 83 35 d0 e5 a0 35 00 00 00 00 fd 71 c7 35
       9.825663e-07 1.1987813e-06 0.0 1.485983e-06

exp_avg f4 [128]
000000 e0 2c 16 38 75 73 3f ba 13 c9 dd 39 11 7d 78 39
       3.580458e-05 -0.0007303276 0.00042302217 0.00023697714
000010 5b fb 38 39 fa 23 b0 39 1a 57 09 ba c4 67 8a 3a
       0.00017641245 0.0003359614 -0.00052391144 0.0010559489
000020 c2 02 35 39 67 30 a6 b8 b7 83 89 ba eb 52 f6 38
       0.00017262532 -7.9245125e-05 -0.0010491525 0.00011745639
000030 62 e1 83 ba dd b0 2c 3a 26 6e 6f 3a e2 17 88 b9
       -0.0010061676 0.0006587634 0.000913354 -0.00025957735
000040 25 91 0a 39 8e d9 59 ba 53 ee e0 38 06 c5 a7 38
       0.00013214776 -0.0008310311 0.00010725544 7.999879e-05
000050 0d ee 7f b9 19 24 93 37 d2 d5 65 b8 eb cd 9d b9
       -0.00024407376 1.7540575e-05 -5.479699e-05 -0.00030098794
000060 bc dc c1 b8 d9 b7 97 ba 90 30 9e ba 2d 13 0c 39
       -9.244072e-05 -0.0011575177 -0.0012068916 0.00013358584
000070 a9 3b 04 3a 41 0b 67 3a 50 22 a7 39 3a e8 e6 39
       0.00050442904 0.00088136276 0.00031878287 0.0004404204
000080 fc fd 4a 39 36 24 a6 b9 e2 01 ed b8 d8 15 96 39
       0.00019358838 -0.00031688967 -0.00011301391 0.00028626504
000090 eb 8d 4f b9 06 21 f7 38 64 ef 9f ba ac 58 23 38
       -0.00019793927 0.00011784029 -0.0012202081 3.894481e-05
0000a0 94 74 6c 39 4b c3 a8 38 7f d4 b3 39 76 3a 1b ba
       0.00022550143 8.0472404e-05 0.00034299862 -0.0005921492
0000b0 d4 c0 12 39 ed ee 9f b9 8b 82 7c 39 ce 30 d3 39
       0.00013995479 -0.00030504857 0.00024081224 0.00040281418
0000c0 4a 65 c0 b9 b8 8c 99 b8 bd ff 41 b9 5e 98 15 3a
       -0.0003669656 -7.3218194e-05 -0.00018501184 0.00057066034
0000d0 9b 71 1b 38 f4 e1 f8 39 b4 08 49 ba 1f 78 c9 38
       3.7060683e-05 0.00047470594 -0.00076688384 9.606801e-05
0000e0 5e ee be ba ab 8e 29 39 3d 5a 24 3a 8b ea b2 ba
       -0.0014566889 0.00016170244 0.000626955 -0.0013650222
0000f0 8b ba 5f 3a f2 e2 8b ba 39 b4 ee b8 ab 2b ce 39
       0.0008534572 -0.0010672493 -0.000113822935 0.00039323917
000100 38 91 37 ba 6f d5 3f 39 b5 48 cd b9 50 09 f1 39
       -0.0007002535 0.0001829469 -0.00039154818 0.0004597404
000110 8e 55 db b7 77 54 c5 38 aa cb 9f b9 dd 90 1b 3a
       -2.6146674e-05 9.409425e-05 -0.00030478585 0.0005934367
000120 cb d1 b5 ba e7 54 fe b9 20 59 5f 38 9d 7b 88 39
       -0.0013871727 -0.00048509912 5.3250347e-05 0.0002603204
000130 73 c0 a8 39 53 46 0b 3a 0d 9e 24 39 dd 8c d6 b8
       0.00032186843 0.00053129083 0.00015699137 -0.00010230553
000140 c5 37 e0 39 66 e3 4a b9 cd 4c 78 b9 cf 26 fe b8
       0.0004276616 -0.00019348934 -0.00023679734 -0.000121188925
000150 4c b3 72 39 72 d5 23 ba 53 28 16 b7 83 0b 25 b9
       0.00023145712 -0.00062497624 -8.950085e-06 -0.00015739915
000160 46 0c 5a b8 eb 6a 98 b9 6d d9 83 ba 93 cb c6 39
       -5.198668e-05 -0.0002907136 -0.0010059305 0.00037917178
000170 02 a6 d0 38 ad 60 8a ba 47 d9 92 ba cf e3 8e b9
       9.949134e-05 -0.0010557376 -0.001120367 -0.0002725408
000180 5e 8a 42 3a d0 b4 ea 38 d4 20 f5 38 11 6b 12 b9
       0.0007421131 0.000111916685 0.00011688625 -0.0001396353
000190 d7 85 93 39 29 5c fc 36 19 0c 7b ba 9f f4 91 39
       0.00028137743 7.520914e-06 -0.0009576693 0.00027838812
0001a0 e5 34 87 ba ee c4 05 39 0b 3f 10 ba 2e 4c 16 3a
       -0.0010315446 0.0001275723 -0.0005502558 0.00057333976
0001b0 ab 43 2e 37 82 f7 27 3a 77 f3 09 ba fa 04 a9 39
       1.0386963e-05 0.0006407426 -0.00052624143 0.000322379
0001c0 f1 8f a2 39 b5 91 22 b9 58 cf 0b ba ec 28 aa ba
       0.00031006293 -0.00015503804 -0.0005333326 -0.0012982166
0001d0 90 44 55 3a fe ec c7 38 85 8e 29 b9 4a 3b f5 39
       0.0008135522 9.533203e-05 -0.00016170189 0.00046774215
0001e0 31 28 17 ba b1 0e 93 39 ba 58 9b ba c5 4e 51 3a
       -0.0005766182 0.0002804897 -0.0011852004 0.0007984455
0001f0 80 17 b8 b8 bb 0e e0 39 0f d0 74 b9 30 a5 a2 ba
       -8.778181e-05 0.00042735584 -0.00023347161 -0.0012408849
