results/ppoTraining/HockeyAgent/HockeyAgent-499957.pt (torch, 492298 bytes, 44 tensors)

network_body.observation_encoder.processors.0.normalizer.running_mean f4 [21]
-0.30527958 -1.8739219 0.0 -0.10148684 0.38164365 -0.025339358 -0.8647212 0.0
0.005436568 -0.004809208 -0.02954774 2.6278868 0.0 0.0 0.0 0.0
-5.49986 0.0 0.0 5.49986 0.0
00000000: 9b4d 9cbe acdc efbf 0000 0000 55d8 cfbd
00000010: cc66 c33e 7c94 cfbc 5e5e 5dbf 0000 0000
00000020: 3d25 b23b 9096 9dbb 1a0e f2bc 4c2f 2840
00000030: 0000 0000 0000 0000 0000 0000 0000 0000
00000040: dafe afc0 0000 0000 0000 0000 dafe af40
00000050: 0000 0000

network_body.observation_encoder.processors.0.normalizer.running_variance f4 [21]
456717.28 325353.47 1.0 1.9048292e+06 2.1062478e+06 871944.1 2.7798948e+06 1.0
1.7979944e+07 5.030765e+06 326093.16 228208.3 1.0 1.0 1.0 1.0
31.260798 1.0 1.0 31.260798 1.0
00000000: a901 df48 2fdd 9e48 0000 803f ea85 e849
00000010: 1f8e 004a 82e0 5449 dbab 294a 0000 803f
00000020: 142d 894b da86 994a a539 9f48 13dc 5e48
00000030: 0000 803f 0000 803f 0000 803f 0000 803f
00000040: 1d16 fa41 0000 803f 0000 803f 1d16 fa41
00000050: 0000 803f

network_body.processors.0.normalizer.running_mean f4 [21]
-0.30527958 -1.8739219 0.0 -0.10148684 0.38164365 -0.025339358 -0.8647212 0.0
0.005436568 -0.004809208 -0.02954774 2.6278868 0.0 0.0 0.0 0.0
-5.49986 0.0 0.0 5.49986 0.0
00000000: 9b4d 9cbe acdc efbf 0000 0000 55d8 cfbd
00000010: cc66 c33e 7c94 cfbc 5e5e 5dbf 0000 0000
00000020: 3d25 b23b 9096 9dbb 1a0e f2bc 4c2f 2840
00000030: 0000 0000 0000 0000 0000 0000 0000 0000
00000040: dafe afc0 0000 0000 0000 0000 dafe af40
00000050: 0000 0000

network_body.processors.0.normalizer.running_variance f4 [21]
456717.28 325353.47 1.0 1.9048292e+06 2.1062478e+06 871944.1 2.7798948e+06 1.0
1.7979944e+07 5.030765e+06 326093.16 228208.3 1.0 1.0 1.0 1.0
31.260798 1.0 1.0 31.260798 1.0
00000000: a901 df48 2fdd 9e48 0000 803f ea85 e849
00000010: 1f8e 004a 82e0 5449 dbab 294a 0000 803f
00000020: 142d 894b da86 994a a539 9f48 13dc 5e48
00000030: 0000 803f 0000 803f 0000 803f 0000 803f
00000040: 1d16 fa41 0000 803f 0000 803f 1d16 fa41
00000050: 0000 803f

network_body._body_endoder.seq_layers.0.weight f4 [128, 21]
0.39569184 0.36447236 -0.027698651 -0.017487824 -0.027875395 -0.08604317 -0.12744805 0.012535751
-0.104414724 0.18415017 0.32522136 0.04065277 0.014221606 0.03822418 0.1605554 -0.10884387
-0.083506964 -0.19710603 -0.1948297 -0.077542536 -0.37642547 -0.3839824 0.15448658 0.025551176
-0.08642391 -0.09331713 -0.015735583 -0.19827941 -0.11186516 0.1905967 0.11328624 0.1718001
-0.2965133 0.2988169 0.09786083 -0.22300762 0.24153358 -0.1711471 -0.19598922 -0.2819854
-0.041281775 -0.14856488 0.13882637 0.17474845 0.11980762 -0.17497656 -0.22461045 0.009501531
0.29679543 -0.14630233 -0.21981367 0.22763437 -0.1365306 -0.15212303 0.0796704 -0.19739136
0.34519568 -0.11751653 -0.021661218 0.039584182 0.25494918 -0.11882737 0.3424295 0.020839842
-0.1760071 -0.055627618 0.29678267 -0.06464808 -0.0849183 0.14358589 0.33886304 0.37591487
0.27091327 -0.12523547 0.41101283 0.25306976 0.18815705 0.06683845 0.1447126 -0.0010862795
0.18884724 -0.40303728 0.1142022 0.09879128 -0.12011455 -0.6011499 -0.195833 -0.00467972
0.072628744 0.059014447 -0.030768594 0.2901523 -0.27946833 0.1794094 0.11922289 0.041553155
-0.2579306 0.052933834 -0.3105119 0.4186358 0.44794908 -0.14312236 0.21872443 0.39617252
0.065168105 -0.052135695 0.02401297 -0.06507325 0.3155968 0.0741718 -0.047017932 0.06681947
0.03174443 0.07484028 0.24027526 0.18261099 0.10093313 0.38249195 -0.017744193 0.23047857
-0.24543226 0.016224913 -0.35114956 0.20845617 0.070108876 -0.5776217 -0.39053118 0.12169498
0.4357808 -0.06435581 -0.24137573 0.21200725 -0.10375537 0.054547735 0.44698545 0.27789894
0.13949436 -0.0966133 0.18566267 -0.072178595 0.043253213 -0.08499531 -0.33409742 0.04326197
0.014223469 0.23641227 0.014633574 -0.037250824 -0.13894814 0.40356857 0.09922108 0.06163919
-0.13718617 0.09924463 0.24318871 -0.3081215 -0.056270335 0.021944577 -0.01536099 -0.31180155
-0.18592378 -0.0059206183 0.27921048 0.26177448 0.11131329 0.21968368 0.03295642 0.043425296
0.07203783 -0.30156797 0.19053859 0.22683123 -0.18025905 -0.11705524 -0.03384738 -0.104260795
0.097848415 0.059956122 0.10147814 -0.07425837 0.10958004 -0.1036782 -0.054159608 0.22499925
0.064179115 0.44590223 0.059255175 0.29961511 -0.2318743 0.20179114 0.051404946 -0.2538815
-0.053270306 -0.41032255 0.5316038 0.10014672 -0.16622995 0.042007558 -0.009906516 -0.2394243
0.03871024 0.46895653 0.19645905 -0.11992123 0.18380593 -0.06213825 -0.033819698 -0.11119461
0.33138075 0.15531428 -0.18343402 0.07523127 -0.014808609 0.0022300738 0.12586266 -0.0012665335
-0.15819411 0.10817524 0.21944684 -0.2234739 -0.080189094 0.1472803 0.060653858 -0.08808656
-0.1703617 -0.23249643 0.061571658 0.2517612 -0.20239593 0.44243985 -0.10631111 0.4427451
-0.107790366 0.09491034 -0.24448971 0.13947383 -0.23262347 0.1820124 -0.09220193 -0.12538445
0.27488372 0.07920093 -0.024820738 0.0180741 -0.066428594 0.18686515 0.26621777 0.1436345
-0.21902905 0.014094432 0.17523545 0.16290596 -0.35614604 -0.012535636 -0.13442892 -0.20671736
00000000: 1f98 ca3e 1f9c ba3e 48e8 e2bc a042 8fbc
00000010: f15a e4bc 6737 b0bd be81 02be c062 4d3c
00000020: 63d7 d5bd dd91 3c3e 6a83 a63e 8583 263d
00000030: bd01 693c f590 1c3d a368 243e 89e9 debd
00000040: b305 abbd 2ad6 49be 7081 47be 9fce 9ebd
00000050: d7ba c0be 5799 c4be bb31 1e3e b350 d13c
00000060: 05ff b0bd 0d1d bfbd e9e7 80bc c209 4bbe
00000070: 9019 e5bd c82b 433e 9e02 e83d 5eec 2f3e
00000080: 97d0 97be 87fe 983e 426b c83d 1c5c 64be
00000090: 9454 773e 2f41 2fbe 66b1 48be 6460 90be
000000a0: 1417 29bd 6421 18be 8028 0e3e 42f1 323e
000000b0: b35d f53d 0e2d 33be 4800 66be 4fac 1b3c
000000c0: 92f5 973e 47d0 15be d616 61be fc18 693e
000000d0: adce 0bbe 24c6 1bbe 3c2a a33d f620 4abe
000000e0: 7dbd b03e 82ac f0bd de72 b1bc 0623 223d
000000f0: b388 823e c45b f3bd eb52 af3e 51b8 aa3c
00000100: 353b 34be c9d9 63bd e6f3 973e 3666 84bd
00000110: a5e9 adbd 2e08 133e 757f ad3e ea77 c03e
00000120: 25b5 8a3e ba3d 00be 4670 d23e 5c92 813e
00000130: 3eac 403e 99e2 883d 8a2f 143e 7e61 8eba
00000140: 2c61 413e e75a cebe d8e2 e93d 1553 ca3d
00000150: 9efe f5bd f6e4 19bf 7288 48be 5658 99bb
00000160: 61be 943d 22b9 713d 6b0e fcbc d88e 943e
00000170: 7916 8fbe 19b7 373e 212b f43d a433 2a3d
00000180: 7b0f 84be 26d1 583d 6afb 9ebe 6e57 d63e
00000190: 9559 e53e ab8e 12be 4cf9 5f3e 20d7 ca3e
000001a0: db76 853d 3d8c 55bd d9b6 c43c 2045 85bd
000001b0: e795 a13e 62e7 973d e095 40bd a5d8 883d
000001c0: 7306 023d dc45 993d b80a 763e 60fe 3a3e
000001d0: 07b6 ce3d fcd5 c33e 455c 91bc 9302 6c3e
000001e0: 9852 7bbe 1cea 843c e0c9 b3be 8975 553e
000001f0: 3e95 8f3d 04df 13bf b4f3 c7be 383b f93d
00000200: a91e df3e fbcc 83bd 332b 77be 6e18 593e
00000210: b27d d4bd 726d 5f3d 47db e43e c548 8e3e
00000220: 9cd7 0e3e 32dd c5bd 5b1e 3e3e 5fd2 93bd
00000230: 482a 313d 0512 aebd d10e abbe 7733 313d
00000240: 8e09 693c 0f16 723e a8c1 6f3c 5294 18bd
00000250: 6c48 0ebe 8aa0 ce3e 6c34 cb3d 6079 7c3d
00000260: 887a 0cbe c540 cb3d 7606 793e 1ac2 9dbe
00000270: b97b 66bd 1dc5 b33c a9ac 7bbc 74a4 9fbe
00000280: ce62 3ebe bf01 c2bb adf4 8e3e 4e07 863e
00000290: 39f8 e33d c2f4 603e 50fd 063d b9de 313d
000002a0: 9288 933d 1e67 9abe 8c1c 433e 7246 683e
000002b0: d495 38be a8ba efbd 8da3 0abd af86 d5bd
000002c0: c064 c83d 8d94 753d c5d3 cf3d c614 98bd
000002d0: 806b e03d 3c55 d4bd 77d6 5dbd 3466 663e
000002e0: 5770 833d 4c4d e43e 8eb5 723d 2767 993e
000002f0: 7570 6dbe 56a2 4e3e fe8d 523d c2fc 81be
00000300: f731 5abd cc15 d2be 3017 083f b919 cd3d
00000310: 2f38 2abe 1e10 2c3d f14e 22bc a52b 75be
00000320: a18e 1e3d 121b f03e 902c 493e 4399 f5bd
00000330: 9f37 3c3e ad84 7ebd 8686 0abd 00ba e3bd
00000340: bdaa a93e b50a 1f3e 21d6 3bbe da12 9a3d
00000350: cf9f 72bc 6e26 123b 24e2 003e d001 a6ba
00000360: a3fd 21be fb8a dd3d acb6 603e 58d6 64be
00000370: 2e3a a4bd a6d0 163e 2e70 783d ba66 b4bd
00000380: 4c73 2ebe 8b13 6ebe 9032 7c3d d8e6 803e
00000390: e140 4fbe 7a87 e23e a4b9 d9bd 7caf e23e
000003a0: 32c1 dcbd 5a60 c23d 835b 7abe 3ad2 0e3e
000003b0: d934 6ebe 7561 3a3e 5ed4 bcbd c864 00be
000003c0: 8fbd 8c3e 1934 a23d dc54 cbbc 2310 943c
000003d0: b70b 88bd 9459 3f3e b24d 883e ec14 133e
000003e0: 2749 60be 55ec 663c ec70 333e d2d0 263e
000003f0: c658 b6be 4562 4dbc bca7 09be b7ad 53be

network_body._body_endoder.seq_layers.0.bias f4 [128]
0.033825923 0.007480472 0.0353123 0.051298227 -0.046486855 0.049418602 0.0026665616 0.06304533
-0.040193204 0.049561385 -0.010043981 0.06935342 0.027538229 0.07874297 0.037405036 -0.0006963121
-0.0071397857 0.024226984 -0.009265209 0.06902574 0.06076312 -0.01904763 -0.0032104359 0.0022877825
-0.00744701 -0.008871651 -0.04737249 0.021879816 0.037117306 0.09951945 0.04487686 0.030287854
0.054042615 -0.01323728 0.048171964 0.051383734 0.020567147 0.07053029 -0.0071369577 0.060700838
0.03511215 0.024173448 0.04532075 -0.0077413293 -0.013638172 -0.052691936 -0.009795413 0.015465168
0.020811765 0.030519987 -0.027499147 0.07568496 -0.030715855 0.023114499 -0.04065318 0.033150863
0.07698726 0.05027743 0.07612353 -0.029114116 0.061536342 -0.015441464 0.043312006 0.03561617
-0.029163066 -0.0053858208 -0.010693157 0.003838987 0.035995018 0.0024181968 -0.015467782 0.027482992
0.0022741333 -0.0054212776 0.038163755 0.0228693 0.054779503 0.018283235 0.046241865 0.058370307
-0.0019647712 0.05634805 -0.028883459 0.033558644 0.0399758 0.044758886 0.005931641 -0.042069033
-0.020257821 0.039385214 -0.025149738 0.030008687 0.048241172 -0.045207087 0.0045522205 -0.019494453
0.026063044 0.04301486 0.018357567 -0.025844172 0.07522553 0.040042855 0.022841353 0.069656454
0.011220688 0.039624583 -0.0264533 0.03743464 0.061680008 0.028695019 0.071064666 0.024231961
0.043932363 -0.04406333 0.0022396746 -0.009393933 0.06497867 0.03792384 0.020114334 0.00039612706
-0.046970736 0.06865729 0.05181702 0.04121646 -0.05289582 0.05664434 -0.024397992 -0.041757684
00000000: 0d8d 0a3d bf1e f53b a1a3 103d 171e 523d
00000010: 0069 3ebd 296b 4a3d 7bc1 2e3b e91d 813d
00000020: a1a1 24bd e100 4b3d 828f 24bc 2a09 8e3d
00000030: da97 e13c ff43 a13d 0636 193d b788 36ba
00000040: ddf4 e9bb ab77 c63c 1acd 17bc 5e5d 8d3d
00000050: c0e2 783d c609 9cbc 2d66 52bb 9fee 153b
00000060: 0c06 f4bb 675a 11bc a809 42bd 4d3d b33c
00000070: 5108 183d dad0 cb3d ccd0 373d 3c1e f83c
00000080: ca5b 5d3d 2de1 58bc f74f 453d c077 523d
00000090: 6f7c a83c 2f72 903d 24dd e9bb 71a1 783d
000000a0: c2d1 0f3d 6507 c63c 40a2 393d faaa fdbb
000000b0: a472 5fbc 80d3 57bd f17c 20bc 9e61 7d3c
000000c0: 6f7d aa3c 0d05 fa3c e445 e1bc b700 9b3d
000000d0: d19f fbbc 9e5a bd3c f383 26bd 33c9 073d
000000e0: 7fab 9d3d b5ef 4d3d a7e6 9b3d ba80 eebc
000000f0: 880d 7c3d 32fe 7cbc ee67 313d 43e2 113d
00000100: 62e7 eebc 8a7b b0bb 5a32 2fbc 8497 7b3b
00000110: 836f 133d 9c7a 1e3b 946c 7dbc 0324 e13c
00000120: a009 153b f9a4 b1bb 9951 1c3d 6658 bb3c
00000130: 7960 603d b9c6 953c 1c68 3d3d b415 6f3d
00000140: 64c3 00bb 36cd 663d 019d ecbc ca74 093d
00000150: aabd 233d 1855 373d 365e c23b 9450 2cbd
00000160: bbf3 a5bc 6452 213d d306 cebc c7d4 f53c
00000170: 8998 453d 112b 39bd cb2a 953b d5b2 9fbc
00000180: 2a82 d53c 5a30 303d 9c62 963c 28b7 d3bc
00000190: d80f 9a3d fa03 243d ca1d bb3c 0ba8 8e3d
000001a0: fad6 373c 634d 223d 97b4 d8bc 1155 193d
000001b0: 2da4 7c3d d111 eb3c 5a8a 913d 1b82 c63c
000001c0: 6cf2 333d c07b 34bd 81c7 123b 03e9 19bc
000001d0: 8913 853d 0756 1b3d d1c6 a43c 46af cf39
000001e0: 6364 40bd 319c 8c3d 153e 543d 97d2 283d
000001f0: 4aa9 58bd e503 683d 4cde c7bc 1b0a 2bbd

network_body._body_endoder.seq_layers.2.weight f4 [128, 128]
0.12940586 -0.003418013 -0.02003882 0.16685323 0.09525557 0.012391361 0.062265605 0.108936645
0.04610318 -0.03226642 -0.1099995 -0.08725464 -0.021457357 0.037041184 -0.05050549 -0.19019243
0.004996587 -0.10866189 -0.089671575 -0.057064768 0.07227893 -0.0997599 -0.019334057 -0.019000905
-0.10086648 -0.026030876 0.19186357 0.03131847 -0.1196542 -0.08894333 -0.019992016 -0.2042209
-0.056194384 -0.092995584 0.12181541 -0.036996737 -0.084379084 -0.081907295 0.13042611 0.053714313
-0.059321184 -0.0026763598 -0.02446837 0.051243197 0.061502013 -0.020798206 -0.07605658 -0.08889612
0.053364303 0.05690733 -0.12339545 -0.032630697 -0.16684823 -0.03803651 -0.058721215 -0.030942064
0.17447528 0.1275554 0.17772254 -0.08985925 -0.08166551 -0.009255135 0.0738035 0.002077436
-0.032035567 0.055229288 0.009714765 -0.022379678 0.029478155 -0.1280855 -0.13079976 0.015545828
0.13853778 -0.08845681 -0.11812823 0.16837014 0.06217538 0.04905361 -0.04764236 0.0056768446
0.06383394 -0.111872144 -0.06262975 0.04614972 -0.04548732 0.1151018 0.046020877 -0.06321431
0.038661487 -0.020225696 -0.17745791 -0.04796344 -0.09584274 -0.0038284059 0.06611563 0.088130265
0.12203238 -0.18419531 -0.11152787 -0.022088584 -0.011515875 -0.014464775 -0.15209444 0.06183501
-0.06631667 -0.034899954 -0.01826263 -0.0017930154 0.08133093 -0.061435748 0.0045671924 0.021525057
0.041563094 -0.08779972 -0.041736405 -0.008811763 -0.07587435 0.031802192 0.0039399834 0.013282429
-0.1648902 -0.1565275 -0.019126717 -0.070165925 -0.13604647 -0.062092558 -0.0757611 0.07107637
-0.02875626 0.017779754 -0.03890102 0.1874659 -0.17141184 -0.10227098 -0.021561317 0.05954101
0.08512365 -0.11784945 -0.02248308 0.10850344 0.09013367 -0.045032788 0.06122057 -0.0017965646
-0.082838416 -0.038104776 0.18478695 -0.0045034974 -0.20472436 0.030036652 0.020680018 -0.19258013
-0.073270924 -0.22384109 0.03262033 0.105890825 0.11370775 0.002218061 0.20515211 -0.02679544
-0.016608583 -0.031042157 0.044898104 -0.06120458 -0.039403524 0.0408641 0.022451242 0.07064728
-0.13834204 -0.18029785 0.038537372 0.07473469 -0.07537909 0.12690821 -0.06534006 0.089307435
0.03839343 -0.26709452 0.145806 -0.11621289 0.05736141 -0.022898598 -0.06917866 -0.04996607
0.119929 -0.11338778 -0.072875835 0.06905475 0.015216101 0.030712789 0.076104686 0.065183505
-0.08438999 -0.008246499 0.028575674 -0.00252289 -0.038103998 0.022594828 0.01970633 -0.09860074
0.12909852 0.18169324 -0.16140579 0.026908878 0.13897957 0.090991914 -0.033027664 0.035491247
-0.08899082 -0.15336442 -0.12252716 0.11288321 0.072627544 0.1386741 0.058319896 -0.0035737131
-0.0124192545 0.14968492 0.023882808 -0.2679732 -0.06588964 -0.104280636 0.12188289 0.03816532
-0.07160378 -0.07131152 0.101652294 -0.10921522 -0.003937756 0.11844739 0.113807224 0.19157286
0.005103468 0.033177998 -0.010109841 0.093865335 -0.003524851 0.0734305 0.03843198 0.14361697
-0.068713754 0.08649458 -0.13823357 0.028403802 0.087389365 -0.05284047 0.071356446 -0.0007099944
0.012383043 0.051051132 0.14492637 0.29330817 -0.1571543 0.117660664 0.041416973 0.050533593
00000000: f882 043e be00 60bb 7428 a4bc 93db 2a3e
00000010: 5a15 c33d 2305 4b3c 380a 7f3d 2d1a df3d
00000020: b0d6 3c3d cb29 04bd 6b47 e1bd 90b2 b2bd
00000030: 57c7 afbc 7fb8 173d d8de 4ebd cec1 42be
00000040: 69ba a33b 208a debd bba5 b7bd bfbc 69bd
00000050: fa06 943d eb4e ccbd 7562 9ebc c9a7 9bbc
00000060: 1693 cebd b43e d5bc e277 443e cc47 003d
00000070: 430d f5bd ec27 b6bd 4cc6 a3bc 491f 51be
00000080: 152c 66bd 7874 bebd 5c7a f93d e489 17bd
00000090: f1ce acbd 03bf a7bd 6c8e 053e 8a03 5c3d
000000a0: c5fa 72bd de65 2fbb e471 c8bc 63e4 513d
000000b0: 89e9 7b3d 0061 aabc 8dc3 9bbd 2b0f b6bd
000000c0: 8794 5a3d a917 693d c1b6 fcbd c4a7 05bd
000000d0: 43da 2abe 2ccc 1bbd a885 70bd 367a fdbc
000000e0: a6a9 323e e29d 023e e6fc 353e 2008 b8bd
000000f0: 3f40 a7bd daa2 17bc 4a26 973d 9825 083b
00000100: ba37 03bd 1b38 623d ad2a 1f3c 9655 b7bc
00000110: 2c7c f13c d828 03be 5ff0 05be eeb3 7e3c
00000120: d9dc 0d3e d828 b5bd 37ed f1bd 3969 2c3e
00000130: 9cab 7e3d 70ec 483d a324 43bd d304 ba3b
00000140: 5ebb 823d 391d e5bd 0744 80bd 7d07 3d3d
00000150: e950 3abd 7eba eb3d 6380 3c3d 8176 81bd
00000160: 825b 1e3d 5cb0 a5bc 87b7 35be 5075 44bd
00000170: 3349 c4bd fee5 7abb a267 873d a47d b43d
00000180: 1dec f93d b29d 3cbe b968 e4bd 1ef3 b4bc
00000190: 15ad 3cbc aafd 6cbc a5be 1bbe b546 7d3d
000001a0: 09d1 87bd 41f3 0ebd 839b 95bc 9d03 ebba
000001b0: d590 a63d 0da4 7bbd 63a8 953b 5155 b03c
000001c0: 103e 2a3d 57d0 b3bd cbf3 2abd 365f 10bc
000001d0: 0364 9bbd 0443 023d fa1a 813b 8c9e 593c
000001e0: fad8 28be bf48 20be a2af 9cbc 27b3 8fbd
000001f0: c44f 0bbe c454 7ebd a328 9bbd 7d90 913d
00000200: 4092 ebbc d9a6 913c ad56 1fbd 10f7 3f3e
00000210: 9686 2fbe 7373 d1bd 5ca1 b0bc 46e1 733d
00000220: 4f55 ae3d 0d5b f1bd 702e b8bc 0d37 de3d
00000230: 0098 b83d 4d74 38bd 6cc2 7a3d b47a ebba
00000240: 30a7 a9bd c113 1cbd ca38 3d3e 1392 93bb
00000250: 43a3 51be 6d0f f63c 2469 a93c ba33 45be
00000260: 110f 96bd 9936 65be e59c 053d 4add d83d
00000270: 9cdf e83d e35c 113b 6513 523e 1c82 dbbc
00000280: b90e 88bc 1f4c febc 13e7 373d a7b1 7abd
00000290: 9765 21bd 1d61 273d abeb b73c 85af 903d
000002a0: 89a9 0dbe 00a0 38be 5dd9 1d3d 800e 993d
000002b0: 5a60 9abd 3af4 013e 02d1 85bd d1e6 b63d
000002c0: 6e42 1d3d 9dc0 88be 2b4e 153e 0601 eebd
000002d0: ccf3 6a3d d795 bbbc 8bad 8dbd 39a9 4cbd
000002e0: 569d f53d da37 e8bd ed3f 95bd 946c 8d3d
000002f0: f44c 793c 6399 fb3c c6dc 9b3d ee7e 853d
00000300: a9d4 acbd 531c 07bc 8817 ea3c 1257 25bb
00000310: f012 1cbd ca18 b93c 2b6f a13c 2fef c9bd
00000320: 6732 043e cb0d 3a3e 8f47 25be 0270 dc3c
00000330: a950 0e3e f859 ba3d 0448 07bd 455f 113d
00000340: d240 b6bd 900b 1dbe 85ef fabd 502f e73d
00000350: c0bd 943d 9500 0e3e d8e0 6e3d f534 6abb
00000360: 217a 4bbc 0147 193e e1a5 c33c c933 89be
00000370: 26f1 86bd 1691 d5bd bd9d f93d 3d53 1c3d
00000380: 01a5 92bd c60b 92bd 142f d03d 3bac dfbd
00000390: 4b08 81bb 8c94 f23d c313 e93d ad2b 443e
000003a0: fe3a a73b a7e5 073d bfa3 25bc 783c c03d
000003b0: 3001 67bb bb62 963d da6a 1d3d 5410 133e
000003c0: ccb9 8cbd 1224 b13d 1a8d 0dbe 17af e83c
000003d0: 32f9 b23d 406f 58bd 5423 923d eb1e 3aba
000003e0: 3fe2 4a3c fe1a 513d 9467 143e 7d2c 963e
000003f0: 0fed 20be 13f8 f03d d8a4 293d 50fc 4e3d

network_body._body_endoder.seq_layers.2.bias f4 [128]
0.007096226 0.016919801 -0.042526387 -0.036285426 -0.04290822 -0.021538325 0.04968729 0.057387277
0.04736775 0.029234828 0.039419584 8.886592e-05 0.044015046 0.035092197 0.048192956 -0.018986667
-0.054454412 0.045700315 -0.002786527 0.08783203 -0.05421287 -0.043160222 0.018861728 -0.040714003
-0.028742256 -0.033784635 0.06466375 0.049150486 0.06647568 0.043366812 -0.036161005 -0.037711244
-0.020138621 -0.029019952 0.037404366 0.025007453 0.062962525 0.05409437 -0.048718426 -0.015049659
-0.02707773 -0.03371628 -0.05665377 0.06312003 0.009642203 -0.00890058 0.057984605 -0.023452545
-0.024310136 -0.040008966 0.038999118 0.0027892473 0.03887372 0.0012605338 0.054798633 0.014597413
-0.027462881 0.0035564129 -0.012013384 0.035786472 -0.046342526 0.019617433 0.014263061 0.03355879
0.08260314 0.050762482 -0.00080463424 0.03054004 -0.025232201 -0.013679736 -0.024772309 0.042572904
-0.011129961 0.016493399 0.011722095 0.07124047 0.006567535 0.032966126 0.015244787 0.04284423
0.07320197 0.017441807 -0.042724673 -0.040080063 0.04223786 -0.013752735 0.036337603 0.05018068
0.031342182 0.05293188 0.044399526 0.055739477 0.0055254693 0.029195845 -0.025432136 -0.018871162
-0.041203424 -0.023440938 -0.032296345 0.029995166 -0.024785118 -0.048820645 0.008996338 0.06953953
0.06013211 0.056230426 -0.028108668 -0.033797514 0.05511546 -0.06250069 -0.0014502475 0.04443658
-0.0031489907 0.03404142 0.04051109 0.048409875 0.04026416 0.036173493 -0.021355921 -0.020404328
-0.024649909 -0.04569942 0.044409417 -0.017890172 0.042112887 0.01635318 -0.03029696 0.04382756
00000000: 7587 e83b 659b 8a3c 2630 2ebd 07a0 14bd
00000010: 88c0 2fbd 2471 b0bc e684 4b3d ec0e 6b3d
00000020: b004 423d e17d ef3c 6e76 213d 875d ba38
00000030: 1f49 343d d6bc 0f3d fa65 453d ed89 9bbc
00000040: 970b 5fbd 4130 3b3d 2a9e 36bb 48e1 b33d
00000050: 500e 5ebd c6c8 30bd e983 9a3c bac3 26bd
00000060: e174 ebbc c261 0abd 6e6e 843d 0552 493d
00000070: 6724 883d 66a1 313d 901d 14bd 1b77 1abd
00000080: c0f9 a4bc 40bb edbc 5235 193d 6edc cc3c
00000090: 7ff2 803d 0f92 5d3d f98c 47bd d892 76bc
000000a0: 1ed2 ddbc 151a 0abd c90d 68bd 1345 813d
000000b0: 55fa 1d3c bdd3 11bc 4481 6d3d 8d1f c0bc
000000c0: 0d26 c7bc 71e0 23bd 8abd 1f3d cecb 363b
000000d0: 0d3a 1f3d 7f38 a53a 8874 603d fd29 6f3c
000000e0: d6f9 e0bc b512 693b c9d3 44bc d694 123d
000000f0: a9d1 3dbd bdb4 a03c 9daf 693c f174 093d
00000100: d62b a93d 52ec 4f3d 17ee 52ba 1b2f fa3c
00000110: c3b3 cebc f920 60bc 4cef cabc ed60 2e3d
00000120: 715a 36bc 2a1d 873c 080e 403c 86e6 913d
00000130: 7a34 d73b 7d07 073d 45c5 793c 6e7d 2f3d
00000140: eaea 953d 1fe2 8e3c 1100 2fbd fe2a 24bd
00000150: 9b01 2d3d 2753 61bc bdd6 143d 428a 4d3d
00000160: a960 003d 19cf 583d 47dc 353d 144f 643d
00000170: ff0e b53b 202c ef3c 0e57 d0bc b297 9abc
00000180: ecc4 28bd 3607 c0bc 2c49 04bd 6cb8 f53c
00000190: 290a cbbc 28f8 47bd 6065 133c be6a 8e3d
000001a0: 164d 763d e051 663d 2644 e6bc 436f 0abd
000001b0: c0c0 613d 5d00 80bd 3b16 beba 2203 363d
000001c0: 4c5f 4ebb 046f 0b3d f5ee 253d 6f49 463d
000001d0: 08ec 243d a82a 143d 9df2 aebc fa26 a7bc
000001e0: 9bee c9bc 512f 3bbd a6e6 353d 698e 92bc
000001f0: 907e 2c3d 1bf7 853c 5531 f8bc 8784 333d

action_model._continuous_distribution.log_sigma f4 [1, 2]
-0.004274468 0.00946402
00000000: d610 8cbb fa0e 1b3c

action_model._continuous_distribution.mu.weight f4 [2, 128]
0.036010474 0.045897666 0.021392953 0.05634836 0.0070688548 0.00030535174 -0.0036293648 0.0034769226
-0.0194906 0.009483319 -0.003548847 -0.02888168 0.016711319 -0.022866039 -0.03340141 0.028970458
0.030875837 -0.0030513855 -0.015934972 -0.041856214 0.029572424 0.03719087 0.036057908 0.025601799
0.010334603 0.007799844 -0.02756326 -0.036405485 -0.044265162 -0.02979169 0.04189517 0.013891181
0.030042803 0.010131938 0.031182123 -0.078307435 -0.0074665826 -0.010047492 0.031954635 0.020457108
0.015691405 0.012267707 0.028177273 -0.02179286 -0.037783735 0.03642045 -0.021303294 -0.015776925
-0.019349579 0.024406618 -0.054916836 -0.028126283 -0.05454016 -0.022868419 -0.02743389 -0.02165557
0.0023260138 -0.020700438 0.04005596 -0.011190319 0.014104521 0.041230414 0.026168171 -0.061568078
-0.032296397 0.00033005682 -0.015564376 0.03101518 0.089910775 0.01871417 0.03732153 -0.005691907
-0.01287649 -0.028292516 0.025681553 -0.019967362 -0.034795765 0.022031657 0.028802019 -0.010075113
-0.022770971 0.031974398 0.004815654 0.008404428 -0.0028255647 0.009475865 -0.054074142 -0.0618822
-0.03556365 -0.004500493 -0.033476796 -0.033135492 -0.038218945 -0.009151403 0.04181544 0.005468402
0.030754749 0.009329599 0.037188813 0.0016579009 0.054834384 0.03535627 -0.0059544216 -0.013353062
-0.021643937 0.0043363892 -0.004795791 0.0040464113 -9.48695e-05 0.029198755 0.023052238 -0.016075796
0.019875221 -0.0026303264 0.01781476 -0.022772983 0.008435056 0.021976836 0.019377345 0.037900887
0.0074297595 0.011690801 -0.0064681876 0.0121906195 -0.030301796 0.027957138 0.033009313 -0.05277405
0.016650064 0.024435505 -0.042123184 -0.04914707 -0.02146166 -0.020211386 0.07291401 0.06729222
0.028875042 0.004861781 0.021356843 -0.050341606 0.060123038 0.022445338 0.037028164 0.0047766175
-0.030954128 0.03961895 -0.06365647 0.060397148 -0.027068486 -0.042038247 -0.005952106 -0.052641828
-0.019752443 -0.06045107 0.027313484 0.07034183 0.018087484 0.03107827 -0.020298397 -0.07645157
-0.06149848 -0.047980707 0.065084636 -0.017519377 0.018803045 0.02522222 -0.042449813 -0.01875752
-0.015502265 -0.062322572 -0.028509488 0.05003374 -0.03351245 -0.050403565 0.026126873 -0.012404334
-0.012849257 0.008088363 0.0021668915 -0.021195792 0.012507208 -0.02072489 0.04867007 -0.07722425
-0.0032753488 -0.025618777 -0.03837339 0.02565252 0.011631827 0.026628628 -0.011558701 0.013016654
0.045615606 0.017728668 0.006970476 0.05024169 -0.0318538 -0.00069442915 -0.09511008 0.04305025
0.010607139 0.00057609513 0.018915249 0.05602035 -0.021293126 0.020681681 -0.022545522 0.029117707
0.08196957 0.027294146 -0.07913984 -0.012098206 0.031154463 0.009840651 0.019273052 -0.025124565
0.011856999 0.069387764 0.021473747 0.02104055 -0.0010586891 0.0071600145 -0.049876932 -0.05830752
-0.032854047 -0.051482223 0.012586726 0.02055246 -0.0059876596 -0.029978016 0.02432861 0.067090295
0.0150411725 0.07091543 -0.04576086 -0.032473043 0.042070143 -0.039343864 -0.00089565857 0.011636038
-0.030328477 0.015741577 0.03612839 0.06101547 0.05198647 0.048463825 -0.07566512 0.006853043
-0.024310425 -0.036663294 0.05813827 -0.043463662 0.017850306 0.011796539 -0.026202014 0.004073938
00000000: b87f 133d 31ff 3b3d 4640 af3c 8acd 663d
00000010: daa1 e73b 9e17 a039 a3da 6dbb 15dd 633b
00000020: c0aa 9fbc ec5f 1b3c c693 68bb 4699 ecbc
00000030: 2de6 883c 8f51 bbbc ebcf 08bd 7453 ed3c
00000040: 53ef fc3c c1f9 47bb 0f8a 82bc 6c71 2bbd
00000050: de41 f23c 7455 183d 75b1 133d ddba d13c
00000060: 7752 293c d595 ff3b 59cc e1bc eb1d 15bd
00000070: 634f 35bd b40d f4bc 459a 2b3d d697 633c
00000080: 531c f63c 6e00 263c a771 ff3c a65f a0bd
00000090: 3caa f4bb 3c9e 24bc dde2 023d aa95 a73c
000000a0: 438b 803c 7efe 483c 06d4 e63c f186 b2bc
000000b0: 1ec3 1abd 9c2d 153d 3f84 aebc 9c3e 81bc
000000c0: 0283 9ebc 63f0 c73c 7af0 60bd 1769 e6bc
000000d0: 8165 5fbd 8d56 bbbc 0abd e0bc 0667 b1bc
000000e0: 0970 183b f793 a9bc b811 243d 9a57 37bc
000000f0: a616 673c 39e1 283d a25e d63c cf2e 7cbd
00000100: 3a49 04bd 7a0b ad39 b901 7fbc 8c13 fe3c
00000110: 2423 b83d 764e 993c 76de 183d 2d83 babb
00000120: eaf7 52bc b5c5 e7bc 1f62 d23c 9892 a3bc
00000130: 0186 0ebd bc7b b43c 36f2 eb3c 1612 25bc
00000140: 308a babc 96f7 023d a2cc 9d3b bab2 093c
00000150: 1c2d 39bb a940 1b3c d97c 5dbd 3178 7dbd
00000160: 31ab 11bd df78 93bb f71e 09bd 15b9 07bd
00000170: 788b 1cbd c4ef 15bc ab46 2b3d 4830 b33b
00000180: 62f1 fb3c 2ddb 183c 4c53 183d ec4d d93a
00000190: 059a 603d bcd1 103d 4f1d c3bb cdc6 5abc
000001a0: a04e b1bc 4518 8e3b 0326 9dbb c297 843b
000001b0: adf4 c6b8 3a32 ef3c 0cd8 bc3c 63b1 83bc
000001c0: 5cd1 a23c 8e61 2cbb 42f0 913c 688e babc
000001d0: 3033 0a3c c408 b43c 3dbd 9e3c f63d 1b3d
000001e0: 5775 f33b c68a 3f3c 17f3 d3bb 2abb 473c
000001f0: 793b f8bc 5e06 e53c c634 073d 9a29 58bd
00000200: b765 883c f82c c83c 5c89 2cbd 704e 49bd
00000210: 5dd0 afbc 5992 a5bc f153 953d 81d0 893d
00000220: 5a8b ec3c 934f 9f3b 8cf4 ae3c 0033 4ebd
00000230: 9343 763d 49df b73c d8aa 173d 2c85 9c3b
00000240: 8393 fdbc 7b47 223d 535e 82bd 0063 773d
00000250: bbbe ddbc 4c30 2cbd e209 c3bb f59e 57bd
00000260: e0cf a1bc 8b9b 77bd 87c0 df3c 610f 903d
00000270: 342c 943c db97 fe3c d348 a6bc a492 9cbd
00000280: d5e5 7bbd 6b87 44bd 184b 853d cc84 8fbc
00000290: d808 9a3c d49e ce3c dbdf 2dbd 5fa9 99bc
000002a0: 36fd 7dbc f445 7fbd bb8c e9bc 2ef0 4c3d
000002b0: 5a44 09bd f873 4ebd 0608 d63c 8c3b 4bbc
000002c0: b185 52bc 0e85 043c 6802 0e3b cca2 adbc
000002d0: 08eb 4c3c 3fc7 a9bc 445a 473d bf27 9ebd
000002e0: 3ca7 56bb 78de d1bc 6a2d 1dbd 3c25 d23c
000002f0: 6b93 3e3c 4824 da3c b560 3dbc ce43 553c
00000300: 6ed7 3a3d b63b 913c 9768 e43b 3bca 4d3d
00000310: 2179 02bd 5a0a 36ba 13c9 c2bd 7555 303d
00000320: 91c9 2d3c 1705 173a 27f4 9a3c 9875 653d
00000330: ec6e aebc a16c a93c 63b1 b8bc 4288 ee3c
00000340: a9df a73d f997 df3c 1214 a2bd 8e37 46bc
00000350: a537 ff3c af3a 213c 85e2 9d3c 08d2 cdbc
00000360: dc43 423c 2c1b 8e3d b6e9 af3c 3b5d ac3c
00000370: b6c3 8aba 8e9e ea3b c14b 4cbd ded3 6ebd
00000380: f791 06bd 06df 52bd 8e38 4e3c a25d a83c
00000390: 2134 c4bb 7594 f5bc cb4c c73c a366 893d
000003a0: 406f 763c 1c3c 913d bd6f 3bbd 7402 05bd
000003b0: be51 2c3d 0827 21bd a1ca 6aba 15a5 3e3c
000003c0: 6d73 f8bc 7bf4 803c 5dfb 133d 5ceb 793d
000003d0: c4ef 543d 0182 463d 50f6 9abd 7e8f e03b
000003e0: a826 c7bc 402c 16bd 6522 6e3d f406 32bd
000003f0: ce3a 923c 4546 413c 9ba5 d6bc ab7e 853b

action_model._continuous_distribution.mu.bias f4 [2]
-0.021395868 0.042000722
00000000: 6346 afbc f308 2c3d

exp_avg f4 [128, 21]
-0.00014967904 8.8444096e-05 0.0 2.8825898e-06 0.00024040419 -0.00010777343 4.4591638e-05 0.0
-6.215123e-05 0.00019607042 -0.00012361647 0.0001270278 0.0 0.0 0.0 0.0
-5.4737376e-07 0.0 0.0 5.4737376e-07 0.0 0.00015451616 -0.00017714454 0.0
-0.00019715108 -0.00035940716 0.00018462224 4.793161e-05 0.0 0.00018488402 0.000138436 8.035023e-05
-6.218306e-05 0.0 0.0 0.0 0.0 -1.2597994e-07 0.0 0.0
1.2597994e-07 0.0 -1.0971448e-05 0.00015995478 0.0 0.00024147786 0.0001802124 -6.9047215e-05
-8.6830325e-05 0.0 -3.84495e-05 -0.00015893733 -8.725126e-06 4.6684825e-05 0.0 0.0
0.0 0.0 1.4129782e-06 0.0 0.0 -1.4129782e-06 0.0 4.208849e-05
-1.5824875e-05 0.0 -8.679814e-05 -0.0003063978 0.000103127015 7.6603155e-06 0.0 4.286659e-05
-0.00024791152 1.233987e-05 -1.8981491e-05 0.0 0.0 0.0 0.0 1.8687501e-07
0.0 0.0 -1.8687501e-07 0.0 3.756263e-05 -0.00013239663 0.0 -4.3091015e-05
-0.00017744617 4.7525777e-05 -7.774592e-05 0.0 4.890966e-05 -8.956319e-05 4.044233e-05 -1.3101728e-06
0.0 0.0 0.0 0.0 1.4729544e-07 0.0 0.0 -1.4729544e-07
0.0 6.775045e-05 7.3628406e-05 0.0 0.00010655412 -0.000114330054 0.00011481192 -0.00015987063
0.0 -2.2683327e-05 -0.00022115513 8.810151e-05 -8.9852096e-05 0.0 0.0 0.0
0.0 1.1784446e-06 0.0 0.0 -1.1784446e-06 0.0 2.7074486e-05 -0.00013863119
0.0 -7.792325e-05 -7.455364e-05 4.8692462e-05 -6.646062e-05 0.0 -1.1765518e-05 5.0627033e-05
-3.4571487e-05 -3.2610293e-05 0.0 0.0 0.0 0.0 -2.8225472e-07 0.0
0.0 2.8225472e-07 0.0 -8.648897e-05 0.00030260163 0.0 0.00032371076 -3.8686012e-05
-1.3025067e-05 -0.00023624733 0.0 -6.5977016e-05 -0.00023260024 -7.702367e-05 -0.000113949354 0.0
0.0 0.0 0.0 8.2101616e-07 0.0 0.0 -8.2101616e-07 0.0
4.670884e-05 -8.69158e-06 0.0 6.186554e-05 -2.9884345e-06 2.7625278e-05 1.8054992e-05 0.0
-3.764057e-05 5.2522842e-05 5.6535642e-05 1.3193529e-06 0.0 0.0 0.0 0.0
-1.4663381e-07 0.0 0.0 1.4663381e-07 0.0 -2.2352126e-05 2.2465965e-05 0.0
-3.3403692e-05 0.00018257879 -0.0001171989 -0.00012615643 0.0 4.0949544e-06 4.5055665e-05 -8.658215e-05
-6.684441e-05 0.0 0.0 0.0 0.0 1.5364374e-06 0.0 0.0
-1.5364374e-06 0.0 9.23629e-05 -9.721966e-05 0.0 -4.533036e-05 -0.0001689603 4.5275865e-05
9.731011e-06 0.0 0.00018891347 -3.6926063e-05 -6.771347e-05 -0.00010394017 0.0 0.0
0.0 0.0 1.9707687e-07 0.0 0.0 -1.9707687e-07 0.0 1.6827931e-05
0.00020610697 0.0 7.7980694e-05 0.00010802294 -0.00014787077 -0.0001674711 0.0 0.00010657281
-2.3761082e-05 -8.418224e-05 0.00027052383 0.0 0.0 0.0 0.0 2.1640672e-06
0.0 0.0 -2.1640672e-06 0.0 0.00016306344 -0.0002911502 0.0 -0.00010210528
00000000: 29f3 1cb9 107b b938 0000 0000 8472 4136
00000010: 0215 7c39 6b04 e2b8 e807 3b38 0000 0000
00000020: 3057 82b8 4198 4d39 0b9f 01b9 c432 0539
00000030: 0000 0000 0000 0000 0000 0000 0000 0000
00000040: 3def 12b5 0000 0000 0000 0000 3def 1235
00000050: 0000 0000 9e05 2239 e0bf 39b9 0000 0000
00000060: 57ba 4eb9 d06e bcb9 2897 4139 2d0a 4938
00000070: 0000 0000 6ddd 4139 2129 1139 b481 a838
00000080: 4768 82b8 0000 0000 0000 0000 0000 0000
00000090: 0000 0000 1a45 07b4 0000 0000 0000 0000
000000a0: 1a45 0734 0000 0000 0312 38b7 89b9 2739
000000b0: 0000 0000 3835 7d39 66f7 3c39 71cd 90b8
000000c0: ad18 b6b8 0000 0000 d644 21b8 6aa8 26b9
000000d0: 2162 12b7 73cf 4338 0000 0000 0000 0000
000000e0: 0000 0000 0000 0000 90a5 bd35 0000 0000
000000f0: 0000 0000 90a5 bdb5 0000 0000 2c88 3038
00000100: a9bf 84b7 0000 0000 6607 b6b8 04a4 a0b9
00000110: e545 d838 ce84 0037 0000 0000 a7cb 3338
00000120: 1ffa 81b9 5707 4f37 713a 9fb7 0000 0000
00000130: 0000 0000 0000 0000 0000 0000 d0a7 4834
00000140: 0000 0000 0000 0000 d0a7 48b4 0000 0000
00000150: 918c 1d38 f3d3 0ab9 0000 0000 a0bc 34b8
00000160: d810 3ab9 6a56 4738 860b a3b8 0000 0000
00000170: 5924 4d38 dfd3 bbb8 9fa0 2938 32d9 afb5
00000180: 0000 0000 0000 0000 0000 0000 0000 0000
00000190: 4328 1e34 0000 0000 0000 0000 4328 1eb4
000001a0: 0000 0000 3f15 8e38 f368 9a38 0000 0000
000001b0: cf75 df38 7bc4 efb8 2ec7 f038 f2a2 27b9
000001c0: 0000 0000 1348 beb7 e1e5 67b9 23c3 b838
000001d0: fa6e bcb8 0000 0000 0000 0000 0000 0000
000001e0: 0000 0000 0c2b 9e35 0000 0000 0000 0000
000001f0: 0c2b 9eb5 0000 0000 041e e337 875d 11b9
00000200: 0000 0000 ba6a a3b8 ae59 9cb8 223b 4c38
00000210: c660 8bb8 0000 0000 8464 45b7 5d58 5438
00000220: da00 11b8 09c7 08b8 0000 0000 0000 0000
00000230: 0000 0000 0000 0000 cb88 97b4 0000 0000
00000240: 0000 0000 cb88 9734 0000 0000 6a61 b5b8
00000250: 81a6 9e39 0000 0000 b9b7 a939 ca42 22b8
00000260: 3d86 5ab7 29b9 77b9 0000 0000 245d 8ab8
00000270: 27e6 73b9 c587 a1b8 18f8 eeb8 0000 0000
00000280: 0000 0000 0000 0000 0000 0000 cd63 5c35
00000290: 0000 0000 0000 0000 cd63 5cb5 0000 0000
000002a0: 3ce9 4338 0dd2 11b7 0000 0000 cfbd 8138
000002b0: ea8c 48b6 d5bc e737 cd74 9737 0000 0000
000002c0: 41e0 1db8 f94b 5c38 af20 6d38 9f14 b135
000002d0: 0000 0000 0000 0000 0000 0000 0000 0000
000002e0: 6572 1db4 0000 0000 0000 0000 6572 1d34
000002f0: 0000 0000 d380 bbb7 4b75 bc37 0000 0000
00000300: f11a 0cb8 9f72 3f39 aec8 f5b8 dc48 04b9
00000310: 0000 0000 6467 8936 27fa 3c38 7093 b5b8
00000320: d22e 8cb8 0000 0000 0000 0000 0000 0000
00000330: 0000 0000 9637 ce35 0000 0000 0000 0000
00000340: 9637 ceb5 0000 0000 f4b2 c138 68e2 cbb8
00000350: 0000 0000 1a21 3eb8 ef2a 31b9 97e6 3d38
00000360: 6042 2337 0000 0000 1317 4639 0fe1 1ab8
00000370: 6401 8eb8 74fa d9b8 0000 0000 0000 0000
00000380: 0000 0000 0000 0000 149c 5334 0000 0000
00000390: 0000 0000 149c 53b4 0000 0000 b529 8d37
000003a0: 6b1e 5839 0000 0000 9189 a338 608a e238
000003b0: c20d 1bb9 2e9b 2fb9 0000 0000 d77f df38
000003c0: 8952 c7b7 ff8a b0b8 18d5 8d39 0000 0000
000003d0: 0000 0000 0000 0000 0000 0000 643a 1136
000003e0: 0000 0000 0000 0000 643a 11b6 0000 0000
000003f0: 02fc 2a39 85a5 98b9 0000 0000 5b21 d6b8

exp_avg_sq f4 [128, 21]
4.908543e-08 5.0620805e-08 0.0 8.806185e-08 9.6152164e-08 8.4828024e-08 1.1381293e-07 0.0
4.086588e-08 2.0009224e-07 9.304632e-08 8.639809e-08 0.0 0.0 0.0 0.0
1.4548761e-11 0.0 0.0 1.4548761e-11 0.0 2.1591819e-07 1.2275179e-07 0.0
2.2969138e-07 2.2235723e-07 2.0093715e-07 2.1614747e-07 0.0 1.4513323e-07 4.844092e-07 2.1270304e-07
3.5530306e-07 0.0 0.0 0.0 0.0 4.0931643e-11 0.0 0.0
4.0931643e-11 0.0 9.5395514e-08 4.746728e-08 0.0 9.3299455e-08 1.0420604e-07 9.485047e-08
1.0821016e-07 0.0 6.50575e-08 1.7035707e-07 8.430721e-08 1.3733138e-07 0.0 0.0
0.0 0.0 1.9123448e-11 0.0 0.0 1.9123448e-11 0.0 1.2705577e-07
1.0212242e-07 0.0 1.3117442e-07 1.6123022e-07 1.6631898e-07 3.035342e-07 0.0 8.112692e-08
2.5276628e-07 1.9379868e-07 1.2643865e-07 0.0 0.0 0.0 0.0 3.0169322e-11
0.0 0.0 3.0169322e-11 0.0 4.962964e-08 5.7133903e-08 0.0 7.170843e-08
7.2366426e-08 6.950354e-08 1.0327326e-07 0.0 3.5549636e-08 1.7481318e-07 7.8518646e-08 8.082251e-08
0.0 0.0 0.0 0.0 1.1962379e-11 0.0 0.0 1.1962379e-11
0.0 1.2901782e-07 1.08437405e-07 0.0 1.4664111e-07 1.6765134e-07 1.6646685e-07 2.8820955e-07
0.0 8.2100186e-08 3.8421365e-07 1.7390396e-07 1.6220386e-07 0.0 0.0 0.0
0.0 2.9945636e-11 0.0 0.0 2.9945636e-11 0.0 1.07641974e-07 5.905473e-08
0.0 1.0880101e-07 1.3137048e-07 1.1494424e-07 1.3748318e-07 0.0 7.309548e-08 2.0364394e-07
1.1017315e-07 1.4640534e-07 0.0 0.0 0.0 0.0 2.3412165e-11 0.0
0.0 2.3412165e-11 0.0 4.6205201e-07 3.7526416e-07 0.0 5.21421e-07 5.309669e-07
5.4595563e-07 6.8499094e-07 0.0 3.612705e-07 1.04344e-06 5.77013e-07 7.175855e-07 0.0
0.0 0.0 0.0 1.1228343e-10 0.0 0.0 1.1228343e-10 0.0
2.0443707e-08 2.1797232e-08 0.0 3.314013e-08 4.1720206e-08 3.3217024e-08 4.0542858e-08 0.0
1.7549162e-08 6.657694e-08 3.2644127e-08 4.453402e-08 0.0 0.0 0.0 0.0
5.8098908e-12 0.0 0.0 5.8098908e-12 0.0 3.052076e-08 2.2821535e-08 0.0
3.739758e-08 4.6534602e-08 4.366797e-08 6.3786494e-08 0.0 2.2909868e-08 7.081854e-08 4.1704546e-08
4.155374e-08 0.0 0.0 0.0 0.0 6.2257244e-12 0.0 0.0
6.2257244e-12 0.0 1.759883e-07 9.148568e-08 0.0 1.5816671e-07 1.6103044e-07 1.4358689e-07
1.6535745e-07 0.0 9.902748e-08 3.239528e-07 1.5239995e-07 2.0679059e-07 0.0 0.0
0.0 0.0 2.9579665e-11 0.0 0.0 2.9579665e-11 0.0 1.7376472e-07
1.7885874e-07 0.0 2.7504265e-07 2.5153147e-07 2.544648e-07 3.5045693e-07 0.0 1.353041e-07
4.9669484e-07 2.6487962e-07 2.5673785e-07 0.0 0.0 0.0 0.0 5.080018e-11
0.0 0.0 5.080018e-11 0.0 2.5947492e-07 1.4840019e-07 0.0 2.6969383e-07
00000000: 00d2 5233 2a6a 5933 0000 0000 841c bd33
00000010: 367c ce33 b32a b633 5269 f433 0000 0000
00000020: 8384 2f33 f0d8 5634 c1d0 c733 da89 b933
00000030: 0000 0000 0000 0000 0000 0000 0000 0000
00000040: cbf1 7f2d 0000 0000 0000 0000 cbf1 7f2d
00000050: 0000 0000 24d7 6734 c1cd 0334 0000 0000
00000060: 16a1 7634 17c1 6e34 2fc1 5734 2a16 6834
00000070: 0000 0000 ebd5 1b34 5908 0235 5e63 6434
00000080: 7bc0 be34 0000 0000 0000 0000 0000 0000
00000090: 0000 0000 ef04 342e 0000 0000 0000 0000
000000a0: ef04 342e 0000 0000 3ddc cc33 d4de 4b33
000000b0: 0000 0000 eb5b c833 e0c7 df33 99b0 cb33
000000c0: 2a61 e833 0000 0000 bdb5 8b33 65eb 3634
000000d0: 610c b533 5d75 1334 0000 0000 0000 0000
000000e0: 0000 0000 0000 0000 2d36 a82d 0000 0000
000000f0: 0000 0000 2d36 a82d 0000 0000 d36c 0834
00000100: 654e db33 0000 0000 f3d8 0c34 a01e 2d34
00000110: 6a95 3234 6cf5 a234 0000 0000 ff37 ae33
00000120: efb3 8734 fa16 5034 31c3 0734 0000 0000
00000130: 0000 0000 0000 0000 0000 0000 a3af 042e
00000140: 0000 0000 0000 0000 a3af 042e 0000 0000
00000150: 5e28 5533 6463 7533 0000 0000 20fe 9933
00000160: dd67 9b33 fa41 9533 13c7 dd33 0000 0000
00000170: 3daf 1833 48b4 3b34 159e a833 a590 ad33
00000180: 0000 0000 0000 0000 0000 0000 0000 0000
00000190: c471 522d 0000 0000 0000 0000 c471 522d
000001a0: 0000 0000 2688 0a34 18de e833 0000 0000
000001b0: 6774 1d34 a603 3434 0fbe 3234 38bb 9a34
000001c0: 0000 0000 0e4f b033 ec45 ce34 5bba 3a34
000001d0: 422a 2e34 0000 0000 0000 0000 0000 0000
000001e0: 0000 0000 cab3 032e 0000 0000 0000 0000
000001f0: cab3 032e 0000 0000 cd28 e733 5da3 7d33
00000200: 0000 0000 fda5 e933 d80e 0d34 44d7 f633
00000210: 179f 1334 0000 0000 aaf8 9c33 38a9 5a34
00000220: 5498 ec33 9833 1d34 0000 0000 0000 0000
00000230: 0000 0000 0000 0000 82ef cd2d 0000 0000
00000240: 0000 0000 82ef cd2d 0000 0000 f20f f834
00000250: ea77 c934 0000 0000 c7f7 0b35 c487 0e35
00000260: c98d 1235 38e0 3735 0000 0000 a4f4 c134
00000270: 530c 8c35 08e4 1a35 1aa0 4035 0000 0000
00000280: 0000 0000 0000 0000 0000 0000 f4e9 f62e
00000290: 0000 0000 0000 0000 f4e9 f62e 0000 0000
000002a0: 309c af32 9f3c bb32 0000 0000 f555 0e33
000002b0: da2f 3333 81aa 0e33 5821 2e33 0000 0000
000002c0: 04bf 9632 0ff9 8e33 9934 0c33 ac45 3f33
000002d0: 0000 0000 0000 0000 0000 0000 0000 0000
000002e0: d86a cc2c 0000 0000 0000 0000 d86a cc2c
000002f0: 0000 0000 ee15 0333 1609 c432 0000 0000
00000300: 139f 2033 56dd 4733 718d 3b33 fffa 8833
00000310: 0000 0000 55cb c432 e714 9833 a21e 3333
00000320: d278 3233 0000 0000 0000 0000 0000 0000
00000330: 0000 0000 570c db2c 0000 0000 0000 0000
00000340: 570c db2c 0000 0000 4cf7 3c34 c976 c433
00000350: 0000 0000 89d4 2934 b6e7 2c34 dd2c 1a34
00000360: 1c8d 3134 0000 0000 efa8 d433 bceb ad34
00000370: 61a3 2334 2a0a 5e34 0000 0000 0000 0000
00000380: 0000 0000 0000 0000 be17 022e 0000 0000
00000390: 0000 0000 be17 022e 0000 0000 1594 3a34
000003a0: 510c 4034 0000 0000 93a9 9334 390a 8734
000003b0: 609d 8834 6f26 bc34 0000 0000 1c48 1134
000003c0: 9c54 0535 c734 8e34 c8d5 8934 0000 0000
000003d0: 0000 0000 0000 0000 0000 0000 eb6b 5f2e
000003e0: 0000 0000 0000 0000 eb6b 5f2e 0000 0000
000003f0: f64d 8b34 ef57 1f34 0000 0000 70ca 9034

exp_avg f4 [128]
3.1011376e-05 7.1871304e-06 -8.0219936e-05 -1.0588331e-05 -8.332675e-06 -6.691534e-05 1.5998294e-05 -4.6590107e-05
8.360752e-06 -8.729366e-05 -1.1235615e-05 -0.00012285751 9.254579e-05 -0.00013927693 -0.000117457086 2.087978e-05
1.9787693e-05 3.314789e-05 -6.1222294e-05 5.911465e-06 -4.5564517e-05 9.073879e-05 -1.4379702e-05 -4.6826062e-05
-0.000104001985 2.0248655e-05 0.00013319259 2.616693e-06 -2.4158382e-05 -9.508025e-05 -6.387411e-05 -5.7260626e-05
-8.346827e-05 7.2174436e-05 4.7090853e-06 -0.00015374465 1.662369e-05 6.59848e-05 -8.815142e-06 -4.886641e-05
-5.055066e-05 8.1999515e-06 -3.086847e-06 2.4859284e-05 -6.361023e-05 7.926233e-05 -2.535323e-05 4.760509e-05
5.7407393e-05 1.1322783e-05 4.674519e-05 2.242039e-05 9.778818e-05 -0.0001921965 -3.2993776e-05 4.6521123e-05
2.6295751e-05 -6.091681e-05 -0.00010752495 2.8657601e-05 0.000114650524 5.0488576e-05 -2.8888692e-06 -9.70154e-05
-1.2697993e-06 -1.9312838e-05 1.6541211e-05 -7.5673364e-05 -8.983847e-05 9.1338814e-05 7.692615e-05 0.00010394372
0.00013494684 3.6994825e-05 1.7661494e-05 8.6453176e-05 -0.00013925969 -0.0001345262 1.14170025e-05 -3.4968496e-05
-4.4618268e-05 -2.7499602e-05 6.118547e-05 3.82279e-05 -4.555463e-05 4.219349e-05 3.582254e-05 3.2654563e-05
9.065619e-07 4.7800673e-05 7.683389e-05 -1.4084475e-05 -6.2140716e-05 2.786917e-05 4.2101e-05 -7.675267e-06
-9.9853634e-05 2.3702474e-05 3.5847709e-06 0.0001956955 5.482669e-05 1.7026101e-05 0.00010231334 -3.6651403e-05
9.952681e-05 -6.262103e-05 2.1633008e-05 8.0876225e-06 8.92736e-05 9.623149e-05 -3.936887e-05 2.2329077e-05
-8.574501e-05 1.9451423e-05 -5.9452645e-06 6.88511e-05 -0.00012234517 -3.612128e-05 1.750156e-05 6.8127956e-06
7.086918e-05 -5.3254364e-05 1.8831815e-05 -6.14654e-05 3.6261963e-06 5.890746e-06 3.9044403e-06 4.5153047e-06
00000000: 3612 0238 fb28 f136 c03b a8b8 89a4 31b7
00000010: 91cc 0bb7 e654 8cb8 1334 8637 bf69 43b8
00000020: 2845 0c37 6d11 b7b8 9980 3cb7 50d3 00b9
00000030: 2515 c238 de0a 12b9 4b53 f6b8 fc26 af37
00000040: bffd a537 4708 0b38 7864 80b8 195b c636
00000050: 871c 3fb8 044b be38 5a40 71b7 1a67 44b8
00000060: a41b dab8 a8db a937 9da9 0b39 729a 2f36
00000070: bba7 cab7 d265 c7b8 27f4 85b8 212b 70b8
00000080: b00b afb8 5b5c 9738 bc02 9e36 8436 21b9
00000090: 1a73 8b37 5261 8a38 bfe4 13b7 e9f5 4cb8
000000a0: 5c06 54b8 8692 0937 a127 4fb6 e888 d037
000000b0: 7b66 85b8 a439 a638 a6ad d4b7 93ab 4738
000000c0: b8c8 7038 fcf6 3d37 4410 4438 6c13 bc37
000000d0: a113 cd38 5b88 49b9 cc62 0ab8 ad1f 4338
000000e0: b295 dc37 ed80 7fb8 057f e1b8 bb65 f037
000000f0: 8870 f038 b2c3 5338 65de 41b6 bf74 cbb8
00000100: f96d aab5 0102 a2b7 fbc1 8a37 d4b2 9eb8
00000110: a967 bcb8 278d bf38 6a53 a138 5cfc d938
00000120: 8480 0d39 e42a 1b38 c527 9437 324e b538
00000130: 3d06 12b9 9a0f 0db9 a78b 3f37 23ab 12b8
00000140: 8024 3bb8 f2ae e6b7 b350 8038 e556 2038
00000150: e911 3fb8 eaf8 3038 2940 1638 92f6 0838
00000160: 765a 7335 957d 4838 e121 a138 5c4c 6cb7
00000170: 8b51 82b8 96c8 e937 9b95 3038 05c5 00b7
00000180: 8368 d1b8 add4 c637 e591 7036 9c33 4d39
00000190: b6f5 6538 46d3 8e37 0e91 d638 25ba 19b8
000001a0: 0db9 d038 6953 83b8 8878 b537 13b0 0737
000001b0: 6638 bb38 e3cf c938 0120 25b8 544f bb37
000001c0: 00d2 b3b8 9d2b a337 6f7d c7b6 2764 9038
000001d0: c849 00b9 ee80 17b8 50d0 9237 7899 e436
000001e0: 9a9f 9438 705d 5fb8 04f9 9d37 fce6 80b8
000001f0: 9459 7336 1fa9 c536 e302 8336 2c82 9736

exp_avg_sq f4 [128]
6.550106e-08 1.7513239e-07 7.695086e-08 1.2809588e-07 5.9525608e-08 1.3744057e-07 8.9739665e-08 4.4850114e-07
2.7025726e-08 3.145238e-08 1.18265625e-07 2.171403e-07 2.0512272e-07 5.231335e-07 2.1050163e-07 6.4865006e-08
3.5362273e-08 9.4127365e-08 2.2206104e-08 1.6848058e-07 2.4343146e-08 3.8792315e-08 2.524563e-08 6.604142e-08
8.246227e-08 2.1446465e-07 3.1576803e-07 2.2496362e-08 1.6829694e-07 3.1615076e-07 1.5054744e-07 8.5991545e-08
1.961519e-07 1.2442725e-07 4.052037e-08 5.937534e-07 8.1331555e-09 1.2789742e-07 1.3460861e-07 4.0312166e-08
8.59276e-08 3.9468905e-08 3.1334427e-08 3.402366e-08 9.414967e-08 8.52626e-08 2.9184157e-08 2.8751077e-07
1.401665e-07 6.06108e-08 1.305327e-07 1.00559404e-07 6.4126866e-08 1.15655126e-07 1.7444098e-07 2.0840263e-08
1.09420874e-07 9.612619e-08 2.363429e-07 1.6394387e-07 3.2409133e-07 2.2841081e-07 1.8746626e-08 7.445638e-08
2.0059936e-07 3.459084e-08 1.42545e-07 9.838678e-08 5.1899356e-08 7.262735e-08 3.0684657e-08 2.2765784e-07
3.4438094e-07 2.7003006e-08 1.8705366e-07 5.6921646e-08 1.560383e-07 2.2418688e-07 7.4739646e-08 2.0629285e-08
1.3971108e-07 4.229378e-08 9.016893e-08 2.7439913e-08 8.628034e-08 6.241108e-08 1.5892944e-08 3.8193868e-08
4.989416e-08 1.6165988e-07 4.3507066e-07 7.556337e-08 4.04626e-08 1.3335622e-07 6.8322876e-08 1.0714177e-07
1.7223316e-07 5.4426096e-08 4.758334e-08 1.1975955e-07 2.0595749e-07 2.378131e-08 1.6630015e-07 3.282837e-07
1.889498e-07 6.240808e-08 1.4935885e-08 1.12498206e-07 3.302813e-08 3.4923843e-07 4.0942574e-08 7.771408e-08
1.8162254e-07 1.9033237e-08 6.622619e-08 2.0863666e-07 2.1216944e-07 3.6550073e-08 3.2906133e-08 8.900064e-08
1.3276333e-07 1.9342419e-07 7.30226e-08 1.16383895e-07 4.125024e-08 9.668496e-08 4.1078987e-08 1.4701338e-07
00000000: 97a9 8c33 060c 3c34 2f40 a533 ba8a 0934
00000010: 19a9 7f33 6093 1334 e7b6 c033 87c9 f034
00000020: 3326 e832 4216 0733 37f9 fd33 1227 6934
00000030: b43f 5c34 766d 0c35 3f06 6234 ea4b 8b33
00000040: 3be1 1733 1123 ca33 bdbf be32 97e7 3434
00000050: 251b d132 9a9c 2633 badb d832 a8d2 8d33
00000060: 1d16 b133 9847 6634 d486 a934 063e c132
00000070: 1cb5 3434 6ebb a934 2aa6 2134 5aaa b833
00000080: d39d 5234 4d9a 0534 9e08 2e33 6c62 1f35
00000090: ffb9 0b32 2d54 0934 ef88 1034 b223 2d33
000000a0: 3387 b833 8584 2933 9194 0633 6921 1233
000000b0: 542f ca33 9c19 b733 a4b0 fa32 2e5b 9a34
000000c0: ad80 1634 2429 8233 8e28 0c34 1ef3 d733
000000d0: 1eb6 8933 145e f833 f94d 3b34 3904 b332
000000e0: c3fa ea33 ef6d ce33 71c5 7d34 8c08 3034
000000f0: c6fe ad34 1641 7534 4408 a132 d4e4 9f33
00000100: 5564 5734 0891 1433 790e 1934 b448 d333
00000110: f2e7 5e33 4ff7 9b33 23ca 0333 1c72 7434
00000120: 5be3 b834 3df4 e732 ebd8 4834 037a 7433
00000130: 7b8b 2734 05b8 7034 8e80 a033 4734 b132
00000140: 7d03 1634 81a6 3533 e5a2 c133 02b5 eb32
00000150: 1e49 b933 db06 8633 f484 8832 9a0a 2433
00000160: 364b 5633 bb94 2d34 a893 e934 6745 a233
00000170: 19c9 2d33 ae30 0f34 e6b8 9233 d015 e633
00000180: 17ef 3834 20c2 6933 705e 4c33 4197 0034
00000190: 2a25 5d34 a747 cc32 3d90 3234 f83e b034
000001a0: 20e2 4a34 3405 8633 5c4c 8032 8b96 f133
000001b0: d0da 0d33 f77e bb34 d6d8 2f33 c4e3 a633
000001c0: 0604 4334 887e a332 3c38 8e33 9c05 6034
000001d0: b1d0 6334 3bfb 1c33 ad54 0d33 9f20 bf33
000001e0: b58d 0e34 09b0 4f34 99d0 9c33 b9ee f933
000001f0: 1e2b 3133 1ea1 cf33 d36e 3033 bbda 1d34
