results/pocaTraining/HockeyAgent.onnx (onnx, 83813 bytes, 9 tensors)

network_body.observation_encoder.processors.0.normalizer.running_mean f4 [21]
00000000: f57f bebe 3e95 aebe 0000 0000 2937 efbd
00000010: 05e7 c0be 0c71 ba39 acb6 72be 0000 0000
00000020: 8985 bb38 39f7 3e3b 246a 28bf da3a b8bf
00000030: 0000 0000 6fab 14be 8c56 acbe 0000 0000
00000040: ec32 893f 0000 0000 0000 0000 ec32 89bf
00000050: 0000 0000
-0.37206998 -0.34098238 0.0 -0.11680443 -0.37676254 0.0003556091 -0.23702496 0.0
8.941728e-05 0.0029139055 -0.6578696 -1.439296 0.0 -0.14518522 -0.3365978 0.0
1.0718665 0.0 0.0 -1.0718665 0.0

network_body._body_endoder.seq_layers.0.weight f4 [128, 21]
00000000: f245 4a3e 565c 4f3d b92e 84be 4f4c 363b
00000010: 8161 a3be 27c6 36be 912f 35be f75e 0bbd
00000020: fec4 1dbe 6931 4c3e 9860 353e c87e 0dbf
00000030: 1d03 e4bd 4f4e 203e 2938 79be 0c29 bebc
00000040: d2ad 823a 3ea6 91bd 8993 12be 2bcb dbbd
00000050: 8878 113e 4d8b 73be 6021 473e b41a 26be
00000060: e6e1 36bf 0e1e ac3e 56dc 0abe c79e d43d
00000070: 37d2 ad3d 3155 09be f697 1dbd fccd a0be
00000080: 80ce 293c f25d dbb7 dd6d 153e c617 1aba
00000090: 51a7 fb3d 2073 03bd 67c1 293f 89ed 793d
000000a0: 33e1 c53e e3c7 5bbe db2f 5cbe 5f89 5dbe
000000b0: ab71 0abf 3120 b8bd 2699 2f3e 5fa8 19be
000000c0: bf07 803e a17b 00bd 5ee1 3ebe 13d5 03be
000000d0: e720 e5be 78ee 13be 3aee afbe 3146 32be
000000e0: ce8e 793e cf65 30be 94f7 c2be 81b8 413e
000000f0: 858e 15be cc10 3f3e d0b8 84be 4559 a03e
00000100: 9935 7d3c 6239 54be 9294 e23d c1a5 3e3e
00000110: 2574 61be a619 06bc 7aa3 7fbe 7d55 e73d
00000120: e6fb 09be 81be bc3c 25f0 22be 7b03 b43d
00000130: 874a abba f1fd debd fe43 89be 4d68 98be
00000140: 1453 b9bd 6b55 b7be 3b4b a8be b22d 673e
00000150: f18e e2bc 6f28 c13d cdf0 133e 10fe 983d
00000160: b016 4abe 539d 283f f6cf 493e 5fce 26bd
00000170: 26da 283e 5bd9 503e 6950 68be f811 95bb
00000180: 9c1b d3bd 3b7b d33e 6ae3 31be c4a9 b23d
00000190: ebf2 1a3e 6cf4 34bd f6c0 30bd 7a0a 613e
000001a0: a604 c03d 279f 8fbe 49bd 82bc dbbe a6be
000001b0: 6f33 e33c 2048 723d a9f2 cf3c 8cf1 d43d
000001c0: 519f 43be 3cfc f8bc 2ad3 15be 6a4c 623e
000001d0: 3331 b43d 5977 abbe c1a6 e6bc 684e 003e
000001e0: 86d0 613e 9cac 9c3e 598d 023e 81e7 ce3b
000001f0: 6324 cebe 1259 8f3e d532 603e 3ef3 1fbe
00000200: 5b0d 4bbe 4dff 7d3d d2c1 47bd 5edd 81bd
00000210: 5c21 fe3d 3fc4 cbbc 69af 08be 060c 0cbd
00000220: ff0d 33be 8797 0f3e 7326 b53e 3774 05bc
00000230: 56d4 29be 5761 053e 2808 833e 805a 76be
00000240: 93f7 963e 742e 543d 9197 01be 9004 ac3d
00000250: dad7 0e3e 3973 9a3e 9cee f8bd cc18 ef3d
00000260: a087 c4be 9871 9abe a660 b03d 64fd fb3d
00000270: f40f ed3c 6d4c d03e 8ae5 41be fd03 a73d
00000280: 6c96 f93d 058a 09be bcc2 31bc 5934 7d3e
00000290: e598 f8bd 00be 07bd ce45 e2bc e35a 28be
000002a0: 5287 6fbe 85b9 08be 7a3e 1a3e 0a5e 273f
000002b0: c187 1d3e 7280 39be 478d 94be 9881 a93e
000002c0: 6ca9 b9bc c642 7fbe e744 a6be 47b3 b43e
000002d0: 02dc cb3d 0083 f23d a234 3dbe 8979 883e
000002e0: cc06 b3be 4a22 2fbe 18f6 65be f4c3 bcbc
000002f0: 141c 06be e6bf 25be 7214 d7bc 0dab 173d
00000300: a33b 3a3e 01e6 8c3e 6d66 a3bd 70e5 ddbd
00000310: 07c9 4ebe 8168 8abe b691 f53d 8980 0b3d
00000320: c8a8 593e e231 4dbd a5ee f3bd 5933 9ebe
00000330: 283f bdbe 5602 45be d44e 203d fec0 903e
00000340: 0159 f1bd 178a 1c3d 73fc 8abd 438a d3bd
00000350: 36aa 84be 65e5 ae3e 765c 1f3f 47dc 423c
00000360: f1d6 2e3e 4bf8 503d 1f21 bc3e 1e7d c9be
00000370: 01f1 9dbd 81e2 dfbc 6129 3cbe 3044 4d3e
00000380: 506b e8be 4101 1c3e deed c13c 57b7 9b3e
00000390: 3373 693e a768 1fbe 1efe d43e e3aa afbe
000003a0: e2c0 223e 3b25 4a3d 3051 c73e 95f8 083e
000003b0: fb0d 8f3e e758 84bd 6d4a 0abe 6f51 39be
000003c0: 3968 8a3e a200 283e 9bcd 753e d9e4 9cbc
000003d0: ab39 73bd e30a 133d bafb 993d 0740 9b3e
000003e0: 004f d63d ac02 d2bd ecf1 2abe 2ec4 55bd
000003f0: a2c3 89be dfde 39bd 4c58 bfbd 4650 87bd
0.19753245 0.050625168 -0.25816897 0.002781648 -0.31910327 -0.17849027 -0.17693926 -0.034026112
-0.15407178 0.19940723 0.17712629 -0.5527158 -0.11133406 0.15654872 -0.2433783 -0.023212932
0.0009970015 -0.07111786 -0.14314093 -0.107321106 0.14206135 -0.23783608 0.19446325 -0.16221124
-0.71438444 0.3361668 -0.13560614 0.10381847 0.08487361 -0.13411404 -0.038475 -0.31407154
0.010364175 -2.6150581e-05 0.14592691 -0.00058781763 0.122877724 -0.032092214 0.66310734 0.061017547
0.38648376 -0.2146297 -0.2150263 -0.21634434 -0.54079694 -0.08990515 0.17148265 -0.15005635
0.2500591 -0.0313679 -0.18640658 -0.1287425 -0.44751665 -0.14446437 -0.3436144 -0.17409588
0.24370882 -0.17226337 -0.38079512 0.18918039 -0.14605148 0.18658751 -0.2592225 0.31318107
0.015454673 -0.20725015 0.11063494 0.18617918 -0.22016962 -0.008184826 -0.24964705 0.112956025
-0.13474998 0.023040058 -0.1591192 0.08789726 -0.0013068476 -0.10888279 -0.26809686 -0.29767075
-0.09049049 -0.35807356 -0.32869896 0.22576025 -0.02765605 0.0943154 0.14447327 0.074703336
-0.19735217 0.6586506 0.19708237 -0.040724155 0.16489467 0.20395415 -0.22686924 -0.004549261
-0.103080004 0.41304955 -0.17371908 0.087237865 0.15131728 -0.04417841 -0.043152772 0.21976653
0.093758866 -0.2805111 -0.015959399 -0.32567486 0.027734486 0.059150815 0.025384264 0.10397634
-0.19103743 -0.030393712 -0.14631334 0.22099462 0.087984465 -0.33489493 -0.028155686 0.1252991
0.22052202 0.3060044 0.12749232 0.0063142185 -0.40262136 0.27997643 0.21894391 -0.15620133
-0.19829313 0.062011052 -0.048768826 -0.063410506 0.124087065 -0.02487385 -0.13348164 -0.034191154
-0.17485808 0.14022647 0.35380897 -0.008145384 -0.16584906 0.13025413 0.2559216 -0.2405796
0.2948576 0.051802114 -0.12655474 0.08399308 0.13949528 0.30166033 -0.12154886 0.116746515
-0.38384724 -0.3016479 0.08612184 0.1230419 0.028938271 0.40683308 -0.18935218 0.081550576
0.12186894 -0.13431557 -0.010849651 0.24727 -0.12138537 -0.033140182 -0.027621176 -0.1644092
-0.23391464 -0.1335202 0.15062895 0.6537787 0.15383817 -0.18115404 -0.29014036 0.33106685
-0.022663794 -0.24927816 -0.32474443 0.35293028 0.099540725 0.118413925 -0.18477109 0.26655224
-0.34966123 -0.17102924 -0.22457159 -0.023042656 -0.13096648 -0.16186485 -0.026254866 0.03702836
0.18186812 0.2751923 -0.079785205 -0.10834777 -0.20193873 -0.27032855 0.11990683 0.034058128
0.21255791 -0.0500964 -0.11910752 -0.3089855 -0.36962247 -0.19239172 0.039137676 0.2827224
-0.11784554 0.03821763 -0.06786432 -0.10329106 -0.2591111 0.3415939 0.6225046 0.0118933385
0.17074181 0.05101804 0.3674402 -0.3935327 -0.077119835 -0.027329685 -0.1837516 0.20045543
-0.45394373 0.15234853 0.023672994 0.30413315 0.22797851 -0.15567265 0.41600126 -0.34310064
0.15893891 0.049351912 0.3892913 0.13376077 0.27940354 -0.06462269 -0.13504954 -0.1809747
0.2703264 0.16406491 0.24004214 -0.019152092 -0.05938117 0.035899054 0.07518716 0.30322286
0.10464287 -0.10254416 -0.16693848 -0.052189045 -0.26907068 -0.045378562 -0.09343013 -0.06607108

network_body._body_endoder.seq_layers.0.bias f4 [128]
00000000: a0c7 cf3c 2d85 8fb9 b62d 4b3c a2e0 1ebc
00000010: ae90 fbbc 2eb0 bcbc 7997 b93c 8294 623c
00000020: b66c 98bc a292 893c bd49 2dbc 1f13 04bc
00000030: bd0b d1ba cdf4 f4bc 5a0b 0abc 9d1e 69ba
00000040: 2f22 913c c1b3 b33b c0a4 a73c f0cb 093b
00000050: 06da 503c 5c35 0a3d 91ca 4b3c f1d6 0e3c
00000060: d1b3 b3bb 395c 8fbc a19c 1dbb ed9d 973a
00000070: ed2c 99bc 6e53 9b3b 2877 af3c 7814 7c3c
00000080: 137d 6e3c 7312 ddbb 9241 2b3b 9609 273c
00000090: 15fb cdbb 5d64 903c 29d1 77bc 358c 183b
000000a0: f19e 703c 7ed1 5fbc 8434 92bc 5cfc 933c
000000b0: 178f 063d b52a 363c aab9 403c f3a4 87bc
000000c0: 14dd af3c 3fe2 04bb 6089 fabb 0c25 503c
000000d0: 45ee fa3c 2ed0 66bc 6fd0 b53c f0dd 813c
000000e0: b86f 45bc 5f82 acbc f97a 403c 7c24 0e3c
000000f0: 4fef 58bc a103 083d f70a 88bb 2025 d73b
00000100: bdd4 103c 20f6 d6bc 1135 893c ad50 0bbc
00000110: 408e 97bc 9652 8f3b 7079 3cbc 021c f5bc
00000120: b149 19bb 8236 1c3d d925 a53c fd1e 89bc
00000130: b9fa 52bc 5c2e 30bb 21d7 983c 2bf8 a3bb
00000140: f7ec 283b b6cd 49bc 0090 893b 9f45 9f3a
00000150: 4683 3f3b e452 ae3b 7507 b7bc 52df f1b8
00000160: e39d 94bb 1642 f7bb 39ec f5bc c369 6bbc
00000170: 41f6 99bc 3e3b ef3b f5b1 6d3c 0d56 1a3b
00000180: fb4a 38ba b9d2 c83b 272d 2bbb 3f63 c3bb
00000190: 72c3 8f3c f322 a33c 0b8e 88bc fab9 e7bc
000001a0: 7be3 493c 5ab3 c23b c3ed 84bc d9d3 45bc
000001b0: 6e27 4a3c 6573 8b3c 8003 8c3b f9ca 9cbc
000001c0: 1e74 00bc ce98 e9bb fd0f 603c 10db 233c
000001d0: 1be8 4dbc 6531 edbc 8f4f 8fbc 960a acbc
000001e0: b845 00bc 2031 e3bc ebba c83c bf85 793a
000001f0: 657c e0bc 8c2e cbbb 14f6 12bc 3009 b7bc
0.025363743 -0.0002737431 0.012401035 -0.009697111 -0.030708637 -0.023033228 0.022655236 0.013829352
-0.018606525 0.016793553 -0.010576663 -0.008061199 -0.0015948933 -0.029901886 -0.008425558 -0.00088928064
0.017716495 0.005484075 0.020464301 0.0021026097 0.012747293 0.033742294 0.012438432 0.008718238
-0.0054840823 -0.01750003 -0.0024049657 0.0011567451 -0.01869818 0.00474017 0.021419123 0.0153857395
0.014556187 -0.006746584 0.0026131612 0.010195157 -0.006286035 0.017625982 -0.015125551 0.002327693
0.014686332 -0.013660787 -0.017847307 0.01806467 0.032851305 0.011118581 0.011763016 -0.016558146
0.021467723 -0.0020276455 -0.007645771 0.012704145 0.030631194 -0.01408772 0.022194115 0.015852898
-0.012050562 -0.02105826 0.011748069 0.008675691 -0.013240649 0.033206586 -0.0041516977 0.006565705
0.008839783 -0.026240408 0.016748937 -0.008503121 -0.018500447 0.0043738587 -0.011503562 -0.029920582
-0.002338987 0.03813792 0.020159649 -0.01673841 -0.01287716 -0.00268831 0.018657269 -0.005003949
0.0025776008 -0.012317112 0.0041980743 0.0012151486 0.0029222532 0.00531994 -0.022342423 -0.00011533372
-0.004535423 -0.00754572 -0.030019866 -0.014368477 -0.01879418 0.0073007634 0.01450776 0.0023549825
-0.0007030216 0.0061286357 -0.0026119442 -0.005962759 0.01754925 0.019914126 -0.016669294 -0.028286923
0.012322302 0.0059417905 -0.016226655 -0.012074434 0.012338502 0.017022798 0.004272878 -0.019139754
-0.0078401845 -0.0071288114 0.013675687 0.010000959 -0.012567545 -0.028954217 -0.017493991 -0.021001142
-0.007829122 -0.027733386 0.024503192 0.0009518526 -0.027403066 -0.006200617 -0.008969802 -0.022343248

network_body._body_endoder.seq_layers.2.weight f4 [128, 128]
00000000: 1f7c 4c3d 6164 debd 9b0e c03d a8e1 053d
00000010: 76b6 1ebd eb2a 333d 264b 0d3d 26ef d13c
00000020: bb4d 8abd 89f7 b9bc 3c11 5f3d 9acd d1bd
00000030: 232a 88bd 066b 283d 8a0d ecbd 6d65 ca3d
00000040: 2fc2 653b 15c3 a03c 30ec 85bc 8752 0e3e
00000050: 166f 103e 6ecc d5bd c20c 1bbe e5cb 7c3d
00000060: 4cca aa3c 1c0a 5d3c 95e5 80bd 3e7e 78bd
00000070: 41fb abbd 83e5 3a3d 9dfd 3a3d d8b5 a6bd
00000080: eacf a63d 1acf ebbd d7ae c43d c495 9fbc
00000090: 3ae3 4a3c 49b9 39be 2266 d03d 84ab 063d
000000a0: 135a 3ebe d59d fe3d 5a6a 02be a001 9cbd
000000b0: 447b 713e 5ad0 633d 59fd 383e 34fc 2dbc
000000c0: e377 16bd def5 0bbd de7a 3bbe c746 e93d
000000d0: 6794 fa3d 57db d3bc 3c2f 783d 7feb 88bb
000000e0: 6422 2f39 9f6a 2bbd 0329 e73d 0ebe 8b3d
000000f0: ca44 7b3c d684 1dbd 039e 30bc 73f1 3dbd
00000100: c295 9fbc 6fcd c33d 2384 39bd dd44 713b
00000110: c43b 983c 0d37 c83d ef9d 18bc db6f 71bc
00000120: f54c 1d3e 8991 0c3d 8b74 80bd 0cae 593d
00000130: 5b5a 0c3e 97d0 cc3d 0efe debd 1355 9cbc
00000140: dba6 8abc fee1 12bd 51f3 b0bc 2a5d 593d
00000150: 4d20 073d 479f b43d 8efc 0e3d e070 0a3e
00000160: f6b7 a03d 0dac 95bc 9897 003c 4fa2 80bb
00000170: 5177 63bd e10a 553d ac4c 813c 245c 11bd
00000180: abc3 103e 9907 61bc 18c4 873c e65e d73b
00000190: c052 4b3e 35dc 9ebd c133 ddbd 5b2a c83c
000001a0: 2a73 173e b3a2 61bc 816e a0bc d2dd 0bbe
000001b0: c3b5 f7bc 3742 e23d cac1 d53d ea39 85bd
000001c0: 15d3 95bd a7ca e43c c52d 38be 1e10 8abd
000001d0: f97d c63d 667e c5bd b3e6 79bd 470a a9bd
000001e0: 2167 223d 6c54 d73c 0b06 33bd 421d 413a
000001f0: a162 bbbc bdc8 033d f668 ffbc 1099 553e
00000200: a1ef 033d 7d66 223d db70 503c d0b8 cd3c
00000210: f296 473c 1e41 4fbc e1c2 46bc bfab 95bd
00000220: f2cd 1abe aa61 1ebc 63ef 6bbc 0d70 f83d
00000230: 5197 dd3a f45a 15be d160 773c 8782 813d
00000240: 254b 463d d345 80bd 6b64 e53d b3f8 f63d
00000250: bd6f 2e3d d908 c93d 5fcd a0bc 75ad 5fbd
00000260: 5ae3 46bb 43e8 33bc 1ddb 413e eabc 323d
00000270: f32f b5bd deaf 413d 15b2 a5bd 1379 113e
00000280: 02f1 68bd 0241 b23d 36e7 ab3d 0656 4f3d
00000290: 9a1a 31bc 3afe 9fbd 29f2 a23c 085e 82bd
000002a0: 9062 62bd 36e2 ddbd 705d e5bd 16d0 f73d
000002b0: f3a6 843d ac20 24bd 890d 1c3e facf 9cbd
000002c0: 96f0 d83d 2099 753c e8ee a23c 858d 42bd
000002d0: 8856 c1bc 3db6 f83d 9f63 afb8 368c 6ebb
000002e0: d8f8 d1bc 39cf 3dbd d81d b03d 17a9 173e
000002f0: 70cd df3d 8048 903d 0884 233d 9e66 18bd
00000300: a245 593d 3d69 b93d 1da4 0bbe b0db eebd
00000310: df2a 1e3b f29e 81bc c0f7 e7bc febb 223d
00000320: 93ac 27bd b259 873c 8b90 06bd 2bd9 d2bd
00000330: ad1f aa3d a957 e63d 5fc9 22bd fa80 3fbd
00000340: 4f2f 183d b027 76bc ed1c 083e 4099 f1bc
00000350: b8be 3a3d e4b6 2d3d 7ef3 9abc ba9f 7ebd
00000360: 1839 85bd 9974 a2bd 92d8 babd 4634 88bd
00000370: d23d 733c 7d82 80bd f121 8bbc 1826 273c
00000380: aa12 c13d 9710 fbbc 187b 9d3c 5c53 6e3d
00000390: bdd8 033e e85c c83d 383a b5bd 89a6 11be
000003a0: 1ed7 64bc a726 20be 1674 663d 80c8 31be
000003b0: 3ab8 673d 747b 4e3e 079a ef3d 5380 7bbd
000003c0: bac5 823d 3ead 30bd 5851 32bd 3dbc cf3c
000003d0: 0be3 253d c992 503d afa6 9f3d 4b13 72bd
000003e0: d13c d0bc a405 96bd 26fc e9bc 65a5 143d
000003f0: 1c44 5d3c 0b1a aa3d 9597 e4bc 53dc 6ebd
0.04992306 -0.108589895 0.09377786 0.032685906 -0.038748227 0.0437421 0.034495495 0.02562673
-0.06753107 -0.022701042 0.054459795 -0.102442935 -0.06648662 0.04111769 -0.1152602 0.09882627
0.003505837 0.019624272 -0.016347975 0.13898669 0.14104876 -0.104393825 -0.15141585 0.061717886
0.020848416 0.01349118 -0.06293789 -0.06066727 -0.08397532 0.045629036 0.04565202 -0.08140153
0.08145125 -0.11514111 0.096036606 -0.019480594 0.012383277 -0.18137087 0.1017573 0.032878414
-0.18589048 0.12432448 -0.12735882 -0.076174974 0.23582178 0.05561862 0.18065394 -0.010619212
-0.036735427 -0.034170024 -0.18308589 0.11390453 0.12235337 -0.025861425 0.06059192 -0.004178464
0.00016702112 -0.04184973 0.11287119 0.068233594 0.015336225 -0.03845676 -0.01077986 -0.046372842
-0.01948059 0.09560668 -0.04529203 0.0036814727 0.018583186 0.09776125 -0.009314998 -0.014736141
0.15361388 0.03431848 -0.06272229 0.0531445 0.13706343 0.10000723 -0.10888301 -0.019083535
-0.016925266 -0.035860054 -0.021600397 0.053067364 0.03298979 0.08819442 0.034908824 0.13519621
0.07847588 -0.018270517 0.007848643 -0.0039255987 -0.05553371 0.052012328 0.01578363 -0.035488263
0.14137141 -0.013734722 0.016572997 0.006572592 0.19855785 -0.07756845 -0.10800887 0.02443426
0.14790025 -0.013771701 -0.019583942 -0.13658836 -0.030238038 0.11047786 0.10437353 -0.06505187
-0.07315651 0.027928663 -0.1798621 -0.06741355 0.09691996 -0.09643249 -0.061011028 -0.082539134
0.039649133 0.026285373 -0.043706935 0.00073667255 -0.022874178 0.03217386 -0.031177979 0.2085917
0.03221095 0.03964852 0.012722219 0.02511254 0.012181984 -0.0126498025 -0.012131424 -0.073081486
-0.15117624 -0.00966684 -0.014400336 0.12130747 0.0016906058 -0.14585477 0.015098766 0.06323724
0.048411507 -0.06263318 0.11200794 0.12059154 0.04258703 0.09816141 -0.019629179 -0.05460878
-0.0030347914 -0.0109806685 0.18931241 0.043637194 -0.08847036 0.04728686 -0.08090607 0.14206342
-0.056870468 0.087038055 0.08393709 0.050619148 -0.010809565 -0.07812162 0.019890862 -0.06365591
-0.055269778 -0.10834162 -0.111994624 0.12100236 0.064771555 -0.04007022 0.15239538 -0.07656856
0.10592763 0.014990121 0.01988931 -0.047498245 -0.023600832 0.12144134 -8.363206e-05 -0.003639949
-0.025631353 -0.0463402 0.08599442 0.14810596 0.10927856 0.07045078 0.039920837 -0.03720724
0.053044923 0.09053276 -0.13636823 -0.11662996 0.002413444 -0.015822861 -0.028316379 0.039730065
-0.040936064 0.016522262 -0.03285269 -0.10295328 0.08306823 0.112471886 -0.039742824 -0.04675386
0.037154492 -0.015024111 0.13292284 -0.02949202 0.04559204 0.042410746 -0.018914934 -0.062164046
-0.065050304 -0.079323955 -0.09123339 -0.06650595 0.014846282 -0.06274889 -0.016983958 0.010201953
0.09427388 -0.03064756 0.019223735 0.058184966 0.12875648 0.097833455 -0.08848995 -0.14223684
-0.013967304 -0.15639745 0.056263052 -0.17361641 0.056572177 0.20164281 0.116993 -0.061401676
0.063853696 -0.043133967 -0.043534607 0.025358314 0.04049973 0.050921235 0.07795464 -0.05910043
-0.025419625 -0.073252946 -0.028562617 0.036290545 0.013505008 0.083057486 -0.027904311 -0.058315586

network_body._body_endoder.seq_layers.2.bias f4 [128]
00000000: 1b85 d93a 6318 dd3c 578f e23a cd0a 633c
00000010: 775c b6bc 6a66 f53c d73a 98bc e968 0f3c
00000020: b340 7a3c 7421 413c 126f eabb 2069 893c
00000030: 006b cc3b 5e5a 8dbc b402 a3bb a1c2 213a
00000040: 3e90 a3bc cd18 96bc 48fd 373c a2ad 163c
00000050: fd46 ea3c 880d 9fbc 31ff 97bc 9e69 ea3b
00000060: aba3 07bc 31d6 c03c 3760 ee3b 3a5c 09ba
00000070: a3a8 153c db5b 853c 1423 96bc 6226 83bc
00000080: 8278 b73c 7907 8e3b 6912 7d3c 2f04 58bc
00000090: a78b 9cbb 5124 89bc 4da8 103c 94b7 e03c
000000a0: 0e8d 163d c58a 343c 209f 21bc ac88 a0bc
000000b0: ae0e adbb 3c52 403c b43d f83c b044 3fbc
000000c0: 7a4d 323d b40f 84bc 1e8d d0b9 e639 18bc
000000d0: c4b0 2cbc b1c5 babb 0f28 9d3b 083e a83b
000000e0: dbc9 003d 2cd3 48ba 9339 7ebc 312b 8abc
000000f0: 7907 dbbb 2ba4 fbbb c20d e7bc 1bc2 a0bc
00000100: 3f4f c53c 3e86 96bc de69 133b 3304 13bc
00000110: b841 793c 89ce cebc 3f2b cfba f07a 803c
00000120: b604 823c 182f d73c a7bf de3c 8015 f43c
00000130: 875b 313c c1a9 d33c f84b 28bc 3f4f 92bc
00000140: af53 7e3c 8ac1 6ebc bbd3 b93a b2ea 8739
00000150: 8015 b33c 1e56 213c ad25 8d3c 3f81 81bc
00000160: 527b c1bc 22ee c8bc daee 3dbc 9cd3 ea3c
00000170: 8d43 463b 92aa 71ba 0f3f f43c bfd6 2dbc
00000180: 6c4a 1cbb 844d 60bc 7c8b b63c 7825 c03c
00000190: 2144 8fbc c358 afbc f878 d0bc 1b58 79bc
000001a0: ccfd 143c 50b9 f83c 569a 843c a849 a7bc
000001b0: 5c73 8cbc 4305 adba aac4 a3bc 7048 94bc
000001c0: f880 133d c91e 6b3c 05bb 84bc 0363 2a3c
000001d0: 2af0 d73c e34e dabb 77fc a0bb a358 883c
000001e0: b323 74bc 1250 c83c 9ef1 8e3b f357 f13c
000001f0: ce1b 92bc f221 92bc 7798 213d d71e 60bb
0.0016595455 0.026989168 0.001728515 0.013857556 -0.022260888 0.029956061 -0.018582745 0.00875304
0.015274215 0.011787761 -0.007154354 0.01677376 0.0062383413 -0.017255004 -0.0049746875 0.00061706646
-0.019966241 -0.018322373 0.011229821 0.009196671 0.028598303 -0.019415632 -0.018554302 0.007153704
-0.008278768 0.023539634 0.0072746533 -0.0005239878 0.009134444 0.016279152 -0.018327273 -0.016009513
0.02239633 0.004334387 0.015446284 -0.013184591 -0.00477739 -0.01674095 0.0088291885 0.027431287
0.036755614 0.011019413 -0.0098645985 -0.01959642 -0.005281291 0.011738356 0.03030286 -0.011674091
0.04353092 -0.01612077 -0.00039777992 -0.009291148 -0.010540191 -0.005699836 0.004796035 0.005134348
0.031442504 -0.00076608616 -0.015516656 -0.016866298 -0.0066842404 -0.0076794825 -0.028204802 -0.019623807
0.024085639 -0.018374559 0.0022493522 -0.008973169 0.0152134225 -0.025244968 -0.0015805735 0.015683621
0.015871387 0.026267573 0.027190996 0.029795408 0.0108250445 0.02583778 -0.010272019 -0.017860053
0.015522881 -0.0145725105 0.001417748 0.00025924068 0.021860838 0.009847192 0.01722988 -0.0158087
-0.023618374 -0.024527613 -0.011592591 0.028665356 0.0030252666 -0.00092188374 0.029815225 -0.0106102815
-0.002384807 -0.013690356 0.022283308 0.023455366 -0.017488541 -0.02140463 -0.025448307 -0.01521876
0.009093713 0.030361801 0.016186874 -0.020420864 -0.017144851 -0.0013200421 -0.019991238 -0.018100947
0.036011666 0.0143506015 -0.01620246 0.010399583 0.026359636 -0.006662236 -0.0049129087 0.016643828
-0.0149010895 0.024452243 0.004362299 0.029460883 -0.017835524 -0.017838452 0.039452042 -0.003419807

action_model._continuous_distribution.log_sigma f4 [1, 2]
00000000: 584d 5f3c f4e8 8dbb
0.01362928 -0.0043307487

action_model._continuous_distribution.mu.weight f4 [2, 128]
00000000: aea9 c9bc 9282 16bd 3398 c23b b095 02bb
00000010: ee56 f73a 4414 75bc 2640 af3c a6e1 383c
00000020: a4e5 aabc a24c 00bd 8a3f 903c 1c9c c63a
00000030: cb4c 90bc 6a79 193c 914d bfba 30d1 a6bc
00000040: d363 2c3c 46af 8f3c 29d6 03ba 8a47 703c
00000050: bc35 13bd 5e79 9c3b 764f 313d 4afc 26bd
00000060: 02e5 ca3c c4e8 923b c523 e5bc dfb3 de3c
00000070: b203 7c3c 0a55 f2bc 8dd3 92ba 265a 613b
00000080: 39b8 0f3c a130 9fbc 2bb2 ffbc 9792 77ba
00000090: e3bd 9abb 10db d2bb 6b43 bdbb 6d85 65bc
000000a0: 8538 cfbb 291b ebbc ae39 4abc e9b7 393c
000000b0: db95 b638 2717 77bc 0d17 33bd 989a 903b
000000c0: 13c2 0cbd 7f87 543c a5b2 7cbc 9da1 abbc
000000d0: 010d 533c c048 af3b b401 373c 76b0 923c
000000e0: 69f6 3abd bb83 50bc 8941 6e3b 5a8a 8f3c
000000f0: 4c80 8f3c 3225 50bc 522e f93c 722f 443c
00000100: dfb7 29bc 6c04 be3c 7f93 d1bc 8dc9 353c
00000110: 9aa3 90bc d5b5 8d3c 3e05 d63c 2308 f5bb
00000120: 3cf3 b63a da63 92bb f214 c3bc 4d55 bbbc
00000130: fb8f 8ebc 7792 60bc b025 0e3d f1cc 8b3c
00000140: 76db 543b 4d4b 1a3d 8a9a 8abc f1bf 17bb
00000150: d4d9 26bd 5c86 a73b 0d2b 6abc d119 b83b
00000160: 4af7 9d3c 85b2 b43b e58d 173c c165 5ebc
00000170: c712 dbbc c5a5 98bc 06be 0bbd 39e5 e43b
00000180: 3bb8 363c a985 bbbb 7bd5 543b 8b9b eebc
00000190: 289e 133d bfe4 3d3c 6d96 723c c7ba 703b
000001a0: ed69 0cba 4d1c 10bd ae36 4dbc f215 b13a
000001b0: 2e7d 113c e8f4 07bc e38b ea3b 4f5c d83c
000001c0: 508f 8fbc d80e 0e3c 9973 083c bc4c 35bd
000001d0: bc5d 08bc 8a6c 983c fc0e 143b f2a8 95bb
000001e0: c2ff a43a aeee 323a 4030 26bc fc49 13bd
000001f0: ae05 143d 52e0 333c 35b4 9cbc 6e75 62bc
00000200: cf3f e43b 524c 3cbd ba8b babc 3e6b 46bc
00000210: fefd d93c bd1b 9fbc 2937 31ba 0bb3 94bc
00000220: 7269 49bc ce56 903c 7aa9 2ebc e009 62bc
00000230: 8193 6c3c dc3f 203c 826a 693c e9b0 293b
00000240: a9b1 8b3c 7080 ab3c 43d4 a93c 283e b3bc
00000250: 68e5 12bd 79b4 373c e766 803c 0efa c93c
00000260: 55d0 8cbc c648 4d3b e2a2 54bb 287a 07bd
00000270: 8ec4 cebc ae35 2cbc e3d5 8639 ce51 8a3c
00000280: bb7e 4fbc 0889 d43b 3a63 2f3c 7745 693c
00000290: c410 443c c402 163b e5eb c9bc c51f 273b
000002a0: 0589 9bbb 3aa4 a63c 32be ef3b 32e4 1a3c
000002b0: 3678 8dbb 9d0a 10bd d9d8 1abd 9376 a93c
000002c0: 52cc 09bd 666f bc3b 883f a13c 208b 963c
000002d0: 33a4 e2bb 7c16 ac3b 38b2 f4bc 14b7 2dbd
000002e0: a61c 25bd 256e ccba 98bc ac3c 5335 8e3c
000002f0: e598 02bc 62b4 273c 1958 593c 505a 873c
00000300: eae0 11bd 9d8f d9bb 115d c43c 3a70 fa3c
00000310: 20aa 9e3c 1dbf d73c 4797 d8bc 3b41 94bc
00000320: 7cc6 2fbd 644d dfbc 6cfe adbc 9192 02bc
00000330: 5d92 3c3b 6a78 b6bc 1552 dfbc 429c e03c
00000340: da58 f4bc 26d4 90bb 4ddf eb3c 7f66 88bb
00000350: 3da4 d1bb 8dcb d4bc 4bb4 e7bc 829a ca3b
00000360: 2dc3 7c3b 526b a63a a0e3 673d f9c4 7abb
00000370: 8c58 723c c936 673c 2fa8 203b 24f7 b53c
00000380: 93dc 9abc c240 173c 50ec afbc a8f2 7abc
00000390: 9653 f33b 22b6 b53b 4507 703c f705 2b3c
000003a0: a10d e1ba 276c 41bc 6d80 45bc fca0 2a3c
000003b0: 1624 c43c 85fb 923c 9ce1 493c bcf0 4a3c
000003c0: 6c88 32bd 5cdb 44bd 1540 da3b b070 9fba
000003d0: 6126 dcbc 5f29 0ebc 0e34 4d3c d370 e7bc
000003e0: fc05 cfbb 2f53 e9bc 82de 9d3c d4c1 28bd
000003f0: 4cf2 8a3c 9470 8e3c bf2a 243b 41aa e73c
-0.024617042 -0.036745615 0.0059385537 -0.0019925646 0.0018870512 -0.014958445 0.021392893 0.0112842675
-0.020861454 -0.031323083 0.017608423 0.0015152725 -0.017614743 0.009367326 -0.001459526 -0.02036342
0.010521847 0.017539632 -0.0005029166 0.014665494 -0.035939917 0.0047752103 0.04328867 -0.040767945
0.024767403 0.004483314 -0.027971158 0.027185379 0.01538174 -0.029581565 -0.0011201963 0.0034386008
0.008771949 -0.019432368 -0.031212887 -0.0009444146 -0.0047223433 -0.0064348057 -0.005775859 -0.014008862
-0.0063238763 -0.028699474 -0.0123428535 0.0113353515 8.706349e-05 -0.015081204 -0.043723155 0.0044129603
-0.03436477 0.012971758 -0.015423452 -0.020951087 0.012881518 0.0053492486 0.01116984 0.017906409
-0.04564515 -0.0127267195 0.003635498 0.017522026 0.017517231 -0.012704181 0.030417595 0.0119742025
-0.01035878 0.023195468 -0.025583027 0.011095417 -0.017656136 0.017298618 0.026125547 -0.0074777766
0.0013957988 -0.0044674696 -0.023813698 -0.022867823 -0.01740264 -0.013706795 0.03470391 0.017065497
0.0032479442 0.03766947 -0.016919393 -0.0023155177 -0.04073508 0.0051124524 -0.014292491 0.005618312
0.019282956 0.0055144452 0.009250139 -0.013574065 -0.026742352 -0.018633733 -0.034116767 0.0069853333
0.011152322 -0.0057227206 0.0032475877 -0.029126903 0.0360395 0.011590182 0.014806372 0.0036732422
-0.00053563603 -0.03518324 -0.012525244 0.0013510569 0.008879943 -0.008298136 0.007157789 0.026411204
-0.017524391 0.008670531 0.008328342 -0.044262633 -0.008323129 0.018606443 0.002259194 -0.004567259
0.0012588429 0.0006825727 -0.01014334 -0.03595923 0.03613823 0.010978775 -0.019128898 -0.013821943
0.0069656144 -0.045971222 -0.022771705 -0.0121105295 0.02661037 -0.019422406 -0.00067602337 -0.01815178
-0.0122932065 0.017619517 -0.010660524 -0.0137963 0.014439465 0.00978085 0.014246585 0.00258928
0.017052488 0.020935267 0.020731097 -0.021880224 -0.03586331 0.011212462 0.015674068 0.024655368
-0.017189184 0.0031323894 -0.0032445719 -0.03307548 -0.025240209 -0.010510845 0.0002571783 0.01688471
-0.012664492 0.006486062 0.01070481 0.014237753 0.011966888 0.0022889832 -0.024648616 0.0025501114
-0.0047465586 0.020341981 0.007316374 0.00945382 -0.004317309 -0.03516637 -0.03780446 0.020686423
-0.03364212 0.0057505844 0.019683614 0.018376887 -0.0069165467 0.005251704 -0.029870138 -0.042410925
-0.040310524 -0.001559679 0.021086022 0.017359411 -0.007971023 0.010235878 0.013265633 0.016522557
-0.035614885 -0.0066394345 0.023970159 0.030571092 0.019368231 0.026336247 -0.026439322 -0.01809751
-0.0429139 -0.027258582 -0.021239482 -0.0079695145 0.0028773763 -0.022274215 -0.02726082 0.02741826
-0.029827524 -0.0044198213 0.028793002 -0.004162609 -0.0063977526 -0.025975967 -0.028284213 0.0061829695
0.0038568482 0.0012696779 0.056613564 -0.0038264378 0.014791619 0.014112183 0.0024514308 0.022212572
-0.018904006 0.009231748 -0.021474987 -0.015316643 0.0074257357 0.0055453936 0.014650171 0.010438434
-0.00171702 -0.011805571 -0.012054545 0.010414358 0.023942988 0.0179422 0.012321856 0.012386497
-0.043587133 -0.04806076 0.006660471 -0.0012164321 -0.02687377 -0.008676856 0.012524618 -0.028252041
-0.006317852 -0.028482048 0.019271139 -0.041200474 0.01696124 0.017387666 0.0025049893 0.028279426

action_model._continuous_distribution.mu.bias f4 [2]
00000000: 87ae 91bc 3d27 8bbc
-0.017783416 -0.016986484

onnx::Div_51 f4 [21]
00000000: 5f47 be3f 7392 4040 2b37 b93a 2bbe d73f
00000010: 9c1e d83f d34b a53f 51ea 753f 2b37 b93a
00000020: b30c fe40 838d 393f 0eec ab3f a625 3640
00000030: 2b37 b93a 0690 d63f 1a33 d63f 2b37 b93a
00000040: e69f ac40 2b37 b93a 2b37 b93a e69f ac40
00000050: 2b37 b93a
1.4865531 3.0089386 0.0014130821 1.685491 1.6884341 1.2913765 0.96060663 0.0014130821
7.93905 0.72481555 1.3431413 2.8460479 0.0014130821 1.6762702 1.6734345 0.0014130821
5.394519 0.0014130821 0.0014130821 5.394519 0.0014130821
