Assets/AI/ppoHockeyAgent.onnx (onnx, 83813 bytes, 9 tensors)

network_body.observation_encoder.processors.0.normalizer.running_mean f4 [21]
-0.6654256 -1.9271026 0.0 -0.24675874 0.5450371 -0.10927509 -0.049633447 0.0
0.0051358705 0.12117465 -0.13191 2.5883174 0.0 0.0 0.0 0.0
-5.49986 0.0 0.0 5.49986 0.0
00000000: 5559 2abf 4cab f6bf 0000 0000 53ae 7cbe
00000010: 8d87 0b3f 9ecb dfbd 714c 4bbd 0000 0000
00000020: ce4a a83b 6a2a f83d 6a13 07be fea6 2540
00000030: 0000 0000 0000 0000 0000 0000 0000 0000
00000040: dafe afc0 0000 0000 0000 0000 dafe af40
00000050: 0000 0000

network_body._body_endoder.seq_layers.0.weight f4 [128, 21]
0.42373955 0.34220755 -0.027698651 -0.0019394908 -0.029853739 -0.0748468 -0.1351337 0.012535751
-0.11661614 0.17659178 0.3333991 0.038111188 0.014221606 0.03822418 0.1605554 -0.10884387
-0.09216985 -0.19710603 -0.1948297 -0.06887965 -0.37642547 -0.40781057 0.16077724 0.025551176
-0.08473201 -0.10155311 -0.013157955 -0.2016396 -0.11186516 0.20090036 0.10228488 0.17365421
-0.3042426 0.2988169 0.09786083 -0.22300762 0.24153358 -0.1822521 -0.19598922 -0.2819854
-0.030176809 -0.14856488 0.14457119 0.16387549 0.11980762 -0.17034887 -0.22670214 0.009001483
0.30736756 -0.14630233 -0.23339625 0.23452623 -0.13868481 -0.15787755 0.0796704 -0.19739136
0.34519568 -0.11751653 -0.029300092 0.039584182 0.25494918 -0.111188605 0.3424295 0.016908392
-0.1784558 -0.055627618 0.29348955 -0.06606004 -0.08450556 0.14418931 0.33886304 0.3761888
0.27555522 -0.12644252 0.40520564 0.25306976 0.18815705 0.06683845 0.1447126 -0.0031068441
0.18884724 -0.40303728 0.11622275 0.09879128 -0.13233875 -0.5896513 -0.195833 -0.016149959
0.071349576 0.04326732 -0.019840239 0.2901523 -0.28211564 0.18111947 0.117362276 0.043553773
-0.2579306 0.052933834 -0.3105119 0.4186358 0.44357473 -0.14312236 0.21872443 0.40054688
0.065168105 -0.05068209 0.02117114 -0.06507325 0.31409734 0.07572143 -0.04548743 0.073396176
0.03174443 0.06111704 0.24582182 0.18113624 0.10081599 0.38249195 -0.017744193 0.23047857
-0.24543226 0.012658688 -0.35114956 0.20845617 0.07367521 -0.5776217 -0.39101204 0.123168126
0.4357808 -0.059342336 -0.24388011 0.21766983 -0.10920991 0.054547735 0.45111838 0.26440412
0.14112392 -0.101507 0.18566267 -0.072178595 0.043253213 -0.08499531 -0.33805782 0.04326197
0.014223469 0.24037316 0.014633574 -0.033970095 -0.13927008 0.40356857 0.09970273 0.06719236
-0.15084301 0.10851439 0.24318871 -0.33284444 -0.053954788 0.023635054 -0.023223387 -0.31180155
-0.18592378 -0.0059206183 0.27921048 0.24555863 0.11131329 0.21968368 0.049172424 0.043425296
0.059999365 -0.30128938 0.19053859 0.22028512 -0.17951864 -0.12348535 -0.022535764 -0.104260795
0.09399769 0.06992224 0.09657593 -0.07161719 0.10958004 -0.1036782 -0.054159608 0.22499925
0.06197927 0.44590223 0.059255175 0.301815 -0.2318743 0.22106199 0.04968185 -0.2538815
-0.053486604 -0.4005926 0.54393524 0.10282101 -0.16622995 0.046344176 -0.0056633507 -0.21666573
0.041756142 0.46895653 0.19645905 -0.11992123 0.18380593 -0.06217714 -0.033819698 -0.11119461
0.33141947 0.15531428 -0.20129156 0.07921072 -0.014808609 0.011826624 0.11298458 0.012626305
-0.16249529 0.10817524 0.23568706 -0.2408106 -0.08433709 0.13856055 0.060653858 -0.08808656
-0.1703617 -0.23249643 0.055781614 0.2517612 -0.20239593 0.4482301 -0.10631111 0.44987664
-0.115153275 0.09491034 -0.24242081 0.14547162 -0.24339108 0.18144788 -0.09220193 -0.13994823
0.2602547 0.08208742 -0.041761562 0.0180741 -0.066428594 0.18686515 0.26621777 0.120599814
-0.21902905 0.014094432 0.19827008 0.16290596 -0.37302163 -0.0064180614 -0.13442892 -0.20687407
00000000: 64f4 d83e d435 af3e 48e8 e2bc 8336 feba
00000010: d48f f4bc 4749 99bd 7d60 0abe c062 4d3c
00000020: 71d4 eebd 7ad4 343e 49b3 aa3e 7a1a 1c3d
00000030: bd01 693c f590 1c3d a368 243e 89e9 debd
00000040: 8cc3 bcbd 2ad6 49be 7081 47be c610 8dbd
00000050: d7ba c0be 8ccc d0be caa2 243e b350 d13c
00000060: fa87 adbd 14fb cfbd 7794 57bc 9c7a 4ebe
00000070: 9019 e5bd d3b8 4d3e bc7a d13d 69d2 313e
00000080: b0c5 9bbe 87fe 983e 426b c83d 1c5c 64be
00000090: 9454 773e 4ba0 3abe 66b1 48be 6460 90be
000000a0: 5b35 f7bc 6421 18be 780a 143e face 273e
000000b0: b35d f53d ef6f 2ebe 9b24 68be f57a 133c
000000c0: 485f 9d3e 47d0 15be 6dff 6ebe a527 703e
000000d0: 6403 0ebe a7aa 21be 3c2a a33d f620 4abe
000000e0: 7dbd b03e 82ac f0bd bf06 f0bc 0623 223d
000000f0: b388 823e dab6 e3bd eb52 af3e 7883 8a3c
00000100: 1ebd 36be c9d9 63bd 4344 963e 7c4a 87bd
00000110: 4011 adbd 5da6 133e 757f ad3e d29b c03e
00000120: 9315 8d3e 267a 01be 1d77 cf3e 5c92 813e
00000130: 3eac 403e 99e2 883d 8a2f 143e 329c 4bbb
00000140: 2c61 413e e75a cebe 3106 ee3d 1553 ca3d
00000150: cf83 07be 63f3 16bf 7288 48be eb4c 84bc
00000160: ba1f 923d 1339 313d ff87 a2bc d88e 943e
00000170: 7671 90be 6277 393e a25b f03d 7165 323d
00000180: 7b0f 84be 26d1 583d 6afb 9ebe 6e57 d63e
00000190: 3a1c e33e ab8e 12be 4cf9 5f3e 7b14 cd3e
000001a0: db76 853d 0698 4fbd 196f ad3c 2045 85bd
000001b0: 5ed1 a03e d613 9b3d 0751 3abd bc50 963d
000001c0: 7306 023d dd55 7a3d b7b8 7b3e c77b 393e
000001d0: 9d78 ce3d fcd5 c33e 455c 91bc 9302 6c3e
000001e0: 9852 7bbe 6366 4f3c e0c9 b3be 8975 553e
000001f0: 07e3 963d 04df 13bf bb32 c8be 923f fc3d
00000200: a91e df3e f310 73bd b5bb 79be d7e4 5e3e
00000210: 72a9 dfbd 726d 5f3d fdf8 e63e fa5f 873e
00000220: ca82 103e e7e2 cfbd 5b1e 3e3e 5fd2 93bd
00000230: 482a 313d 0512 aebd ea15 adbe 7733 313d
00000240: 8e09 693c 6224 763e a8c1 6f3c 3a24 0bbd
00000250: d19c 0ebe 8aa0 ce3e f230 cc3d 269c 893d
00000260: 9776 1abe cb3c de3d 7606 793e 966a aabe
00000270: b2ff 5cbd 4d9e c13c f93e bebc 74a4 9fbe
00000280: ce62 3ebe bf01 c2bb adf4 8e3e b973 7b3e
00000290: 39f8 e33d c2f4 603e 0669 493d b9de 313d
000002a0: e5c1 753d 9a42 9abe 8c1c 433e 6c92 613e
000002b0: bcd3 37be e3e5 fcbd ec9c b8bc af86 d5bd
000002c0: dc81 c03d 6433 8f3d 9ac9 c53d 09ac 92bd
000002d0: 806b e03d 3c55 d4bd 77d6 5dbd 3466 663e
000002e0: fadd 7d3d 4c4d e43e 8eb5 723d 7f87 9a3e
000002f0: 7570 6dbe 135e 623e 327f 4b3d c2fc 81be
00000300: c514 5bbd 791a cdbe 573f 0b3f d293 d23d
00000310: 2f38 2abe 64d3 3d3d a193 b9bb 9fdd 5dbe
00000320: 7d08 2b3d 121b f03e 902c 493e 4399 f5bd
00000330: 9f37 3c3e 75ad 7ebd 8686 0abd 00ba e3bd
00000340: d0af a93e b50a 1f3e 601f 4ebe 3b39 a23d
00000350: cf9f 72bc 75c4 413c 7664 e73d 90de 4e3c
00000360: 2a65 26be fb8a dd3d f357 713e 0e97 76be
00000370: edb8 acbd d1e2 0d3e 2e70 783d ba66 b4bd
00000380: 4c73 2ebe 8b13 6ebe 437b 643d d8e6 803e
00000390: e140 4fbe 6a7e e53e a4b9 d9bd 3b56 e63e
000003a0: 7bd5 ebbd 5a60 c23d 293d 78be 83f6 143e
000003b0: 833b 79be 79cd 393e 5ed4 bcbd 974e 0fbe
000003c0: 1b40 853e 731d a83d 2c0e 2bbd 2310 943c
000003d0: b70b 88bd 9459 3f3e b24d 883e 09fd f63d
000003e0: 2749 60be 55ec 663c 5007 4b3e d2d0 263e
000003f0: b1fc bebe 9a4e d2bb bca7 09be ccd6 53be

network_body._body_endoder.seq_layers.0.bias f4 [128]
0.041309968 0.01730852 0.042175565 0.053056095 -0.042767093 0.052441947 0.0062127216 0.07778368
-0.03824027 0.04905489 -0.0047862185 0.08961441 0.03280763 0.09830542 0.048575547 -0.008055773
0.010857949 0.023200551 -0.0030316564 0.07768556 0.091580614 -0.0018600348 -0.010084693 -0.0026452842
-0.009495767 -0.00418266 -0.04810634 0.018649897 0.052346356 0.120000966 0.05695395 0.044206403
0.056962762 -0.018586684 0.059810083 0.067527235 0.022701612 0.08638911 -0.0043667816 0.068833776
0.0443182 0.029752865 0.06782186 -0.0017966361 -0.013577765 -0.056299165 -0.0042699124 0.02496984
0.031589434 0.03412276 -0.033678047 0.09565055 -0.035240505 0.037349474 -0.033643574 0.053740297
0.088469066 0.061548322 0.087361634 -0.023993924 0.07228 -0.012864877 0.049600005 0.04752055
-0.028992102 0.013499689 -0.01586612 0.019177746 0.042036068 0.004201993 -0.018521577 0.041221615
0.003289049 -0.007298996 0.044643685 0.037750896 0.06517401 0.027903166 0.0632848 0.05930418
0.0060912287 0.056361347 -0.040114153 0.031430755 0.04274148 0.0487211 0.0045086513 -0.048628982
-0.020550838 0.03373531 -0.025623458 0.036722947 0.06744263 -0.042051475 0.01774473 -0.020372715
0.039718654 0.057150986 0.030681703 -0.03266964 0.08668782 0.041676328 0.025219774 0.08574493
0.012088323 0.04066587 -0.02347717 0.042049848 0.06936477 0.03330927 0.07790854 0.026258424
0.057886243 -0.027386231 0.008018413 -0.009695855 0.08064796 0.036090657 0.013630682 0.011163581
-0.050917562 0.06944884 0.055984996 0.05623141 -0.0640073 0.07240534 -0.024934221 -0.03131455
00000000: a434 293d 99ca 8d3c 49c0 2c3d 5951 593d
00000010: 8c2c 2fbd 5ecd 563d 1694 cb3b 0d4d 9f3d
00000020: d4a1 1cbd c8ed 483d b6d5 9cbb c387 b73d
00000030: 4b61 063d 5a54 c93d 27f7 463d 5cfc 03bc
00000040: 8ae5 313c 150f be3c c1ae 46bb 9b19 9f3d
00000050: 9e8e bb3d 69cc f3ba 453a 25bc 815c 2dbb
00000060: 2294 1bbc b20e 89bb 270b 45bd abc7 983c
00000070: 2269 563d 11c3 f53d 8c48 693d c611 353d
00000080: c951 693d 1a43 98bc 6bfb 743d b84b 8a3d
00000090: bbf8 b93c c6ec b03d 3817 8fbb b9f8 8c3d
000000a0: 0087 353d 48bc f33c 30e6 8a3d 1b7d ebba
000000b0: 4675 5ebc f499 66bd 9fea 8bbb 8d8d cc3c
000000c0: ec63 013d 4fc4 0b3d fef1 09bd 70e4 c33d
000000d0: 5958 10bd c3fb 183d d8cd 09bd c91e 5c3d
000000e0: 452f b53d 181a 7c3d a8ea b23d e88e c4bc
000000f0: 8907 943d 34c7 52bc 6029 4b3d e9a4 423d
00000100: d880 edbc cd2d 5d3c aaf9 81bc a61a 9d3c
00000110: 032e 2c3d dfb0 893b 90ba 97bc ffd7 283d
00000120: 168d 573b 6b2c efbb 4cdc 363d afa0 1a3d
00000130: f479 853d 2e95 e43c 769b 813d f1e8 723d
00000140: ee98 c73b 28db 663d bd4e 24bd 89bd 003d
00000150: b111 2f3d c78f 473d 4fbd 933b 2f2f 47bd
00000160: 3b5a a8bc 092e 0a3d 49e8 d1bc cd6a 163d
00000170: 5d1f 8a3d 2b3e 2cbd 655d 913c aee4 a6bc
00000180: 07b0 223d 2717 6a3d 3258 fb3c 9ad0 05bd
00000190: 6289 b13d ccb4 2a3d b399 ce3c 0a9b af3d
000001a0: 1a0e 463c 4191 263d 3253 c0bc 763c 2c3d
000001b0: 1e0f 8e3d 4d6f 083d 838e 9f3d e81b d73c
000001c0: 201a 6d3d 1759 e0bc a95f 033c 5ddb 1ebc
000001d0: c22a a53d ccd3 133d 3953 5f3c 74e7 363c
000001e0: ef8e 50bd 323b 8e3d 8650 653d e852 663d
000001f0: 4216 83bd 4049 943d da42 ccbc b043 00bd

network_body._body_endoder.seq_layers.2.weight f4 [128, 128]
0.11614157 0.016156508 -0.028904105 0.16627482 0.09303209 0.01091886 0.07220612 0.1009407
0.04902826 -0.0356295 -0.09438416 -0.097268835 -0.013388376 0.028718889 -0.047196712 -0.18943092
-0.0029961844 -0.101945266 -0.07665404 -0.06053097 0.08307417 -0.10289539 -0.016219683 -0.022390125
-0.101848796 -0.020631298 0.20446686 0.037505843 -0.12354104 -0.08719543 -0.020017587 -0.20068489
-0.051894076 -0.09922036 0.13351487 -0.042020038 -0.08242019 -0.09380346 0.14900212 0.057681456
-0.062711045 -0.0023144805 -0.020225191 0.06096667 0.05506605 -0.004616395 -0.06548098 -0.08444572
0.070227176 0.050139096 -0.12711315 -0.03859968 -0.17066765 -0.0398676 -0.03384234 -0.025968079
0.19155845 0.12505327 0.17462479 -0.07521578 -0.08292107 0.0020382088 0.056808315 -0.0005691063
-0.020707896 0.048756775 0.0075236377 -0.021104159 0.02125048 -0.13239713 -0.11633787 0.009191758
0.13634214 -0.071500264 -0.12204109 0.16636088 0.061337214 0.04810336 -0.048883118 -0.0028045198
0.06275216 -0.11804162 -0.06588382 0.045010746 -0.03756995 0.11527079 0.04261662 -0.052219063
0.04510001 -0.017486615 -0.18401504 -0.046430215 -0.09954205 0.009590928 0.08902435 0.0918617
0.12773935 -0.19671252 -0.111287944 -0.022687523 -0.019176887 -0.018195264 -0.14231221 0.05580335
-0.057506938 -0.03140397 -0.008299858 -0.0020689387 0.063239686 -0.058360852 -0.0042561647 0.032748736
0.02608385 -0.08037572 -0.04452006 0.0022902633 -0.07564163 0.027820231 0.0057915826 0.004767439
-0.1476485 -0.15226288 -0.007129884 -0.06376878 -0.13654108 -0.074389644 -0.07280036 0.09402745
-0.042516988 0.03200815 -0.044411104 0.18520978 -0.17252655 -0.10483887 -0.0146288015 0.05789015
0.08600995 -0.12061321 -0.007518196 0.100150034 0.103364125 -0.050712798 0.06385764 0.0035738994
-0.09125596 -0.033485036 0.19480573 -0.008603126 -0.19640082 0.02614739 0.022686359 -0.20094866
-0.075910315 -0.21590742 0.044641618 0.11095105 0.10928658 0.0047187693 0.20465471 -0.017796626
-0.015664943 -0.0306764 0.057082284 -0.06262891 -0.034266304 0.0262226 0.036502745 0.07293994
-0.14146361 -0.18141349 0.04457989 0.08258019 -0.07890888 0.14004768 -0.05640575 0.0936733
0.0491909 -0.2760696 0.14274414 -0.11930146 0.05366901 -0.02447085 -0.047117706 -0.044318747
0.13099134 -0.11667694 -0.072597995 0.08079433 0.015872097 0.03915024 0.05934345 0.065258466
-0.07688021 -0.00393551 0.028325448 0.00019661913 -0.047200557 0.021701775 0.029360322 -0.09840168
0.12641668 0.19527458 -0.16725987 0.02456 0.14413828 0.09202613 -0.02932845 0.024313359
-0.08763615 -0.16006352 -0.12137649 0.11315658 0.07963724 0.13782084 0.053224083 0.0020550229
-0.010201777 0.14947203 0.018032704 -0.26138327 -0.058497984 -0.094575435 0.13915263 0.04351401
-0.065369956 -0.08339483 0.09916528 -0.11042056 -0.004492467 0.11621028 0.119916104 0.1875448
0.010425462 0.03721371 -0.003574287 0.09467077 -0.016653415 0.078594565 0.031075612 0.15375374
-0.07955614 0.09190947 -0.14082158 0.03516975 0.0953027 -0.057198558 0.073115274 -0.0058602756
0.027166316 0.0524341 0.15281431 0.30381647 -0.15583324 0.11511509 0.04456579 0.073359214
00000000: a2db ed3d a75a 843c 4dc8 ecbc f243 2a3e
00000010: 9c87 be3d 05e5 323c cde0 933d ffb9 ce3d
00000020: dbd1 483d 3df0 11bd 7c4c c1bd e234 c7bd
00000030: eb5a 5bbc e043 eb3c 5751 41bd 2efa 41be
00000040: a25b 44bb aec8 d0bd cbfc 9cbd 53ef 77bd
00000050: ca22 aa3d d1ba d2bd 24df 84bc 7f6b b7bc
00000060: 1a96 d0bd f802 a9bc c35f 513e ba9f 193d
00000070: 1603 fdbd 8593 b2bd ecfb a3bc 5780 4dbe
00000080: e28e 54bd 0b34 cbbd 1fb8 083e 341d 2cbd
00000090: ebcb a8bd 071c c0bd 0394 183e 6443 6c3d
000000a0: a66e 80bd 8aae 17bb 4daf a5bc 30b8 793d
000000b0: f08c 613d 2145 97bb e41a 86bd e1f1 acbd
000000c0: 44d3 8f3d a75e 4d3d f329 02be b31a 1ebd
000000d0: 80c3 2ebe 354c 23bd 449e 0abd 02bb d4bc
000000e0: e627 443e f70d 003e d7d0 323e bb0a 9abd
000000f0: 86d2 a9bd 7893 053b d6af 683d 1430 15ba
00000100: 9ba3 a9bc 2fb5 473d d988 f63b a1e2 acbc
00000110: 7d15 ae3c 1d93 07be 8d42 eebd 0799 163c
00000120: 469d 0b3e bb6e 92bd aef0 f9bd 825a 2a3e
00000130: bb3c 7b3d 0708 453d aa39 48bd 09cc 37bb
00000140: 3484 803d cebf f1bd 19ee 86bd 305d 383d
00000150: f3e2 19bd 1813 ec3d c48e 2e3d a8e3 55bd
00000160: caba 383d 1740 8fbc 706e 3cbe 9c2d 3ebd
00000170: b4dc cbbd 4523 1d3c 6652 b63d fd21 bc3d
00000180: 1bce 023e 026f 49be efea e3bd 2fdb b9bc
00000190: d918 9dbc 3c0e 95bc 4bba 11be 0e92 643d
000001a0: 658c 6bbd 73a1 00bd 21fc 07bc 0897 07bb
000001b0: cf83 813d ca0b 6fbd 4c77 8bbb 8a23 063d
000001c0: ccad d53c 079c a4bd ab5a 36bd 3e18 163b
000001d0: 00ea 9abd 41e7 e33c 51c7 bd3b 2d38 9c3b
000001e0: 2b31 17be cdea 1bbe cda1 e9bb 3599 82bd
000001f0: 6dd1 0bbe 9959 98bd 5b18 95bd 7791 c03d
00000200: 4b26 2ebd fa1a 033d 6be8 35bd a2a7 3d3e
00000210: cdaa 30be c3b5 d6bd a4ad 6fbc 391e 6d3d
00000220: fc25 b03d 0f04 f7bd 335b f6bb 761b cd3d
00000230: 92b0 d33d 39b8 4fbd cbc7 823d 1538 6a3b
00000240: 68e4 babd 9b27 09bd 277b 473e 20f4 0cbc
00000250: 4c1d 49be 0d33 d63c bed8 b93c 7cc5 4dbe
00000260: de76 9bbd d616 5dbe 21da 363d 4e3a e33d
00000270: a4d1 df3d e89f 9a3b 0191 513e 3bca 91bc
00000280: c453 80bc 134d fbbc 1dcf 693d 9643 80bd
00000290: d35a 0cbd c7d0 d63c e783 153d 8961 953d
000002a0: d6db 10be 75c4 39be 6799 363d cd1f a93d
000002b0: fb9a a1bd a968 0f3e b709 67bd cad7 bf3d
000002c0: 667c 493d ff58 8dbe 852b 123e 5354 f4bd
000002d0: 09d4 5b3d 1877 c8bc 7ffe 40bd 9387 35bd
000002e0: 9822 063e 52f4 eebd 42ae 94bd 7f77 a53d
000002f0: 3306 823c 015c 203d 1e12 733d 3ba6 853d
00000300: 5f73 9dbd 73f5 80bb c50a e83c 8c2b 4e39
00000310: 5f55 41bd ecc7 b13c 0f85 f03c d286 c9bd
00000320: 6073 013e 0ff6 473e 2c46 2bbe 0e32 c93c
00000330: fc98 133e 3278 bc3d 3842 f0bc cf2c c73c
00000340: 957a b3bd b1e7 23be 3d94 f8bd a3be e73d
00000350: d918 a33d e820 0d3e 7f01 5a3d 90ad 063b
00000360: 5b25 27bc 320f 193e 52b9 933c 07d4 85be
00000370: 959b 6fbd c4b0 c1bd 077e 0e3e bf3b 323d
00000380: afe0 85bd e9ca aabd 2b17 cb3d 2d24 e2bd
00000390: 8b35 93bb a8ff ed3d 9396 f53d be0b 403e
000003a0: 8fcf 2a3c 676d 183d 963e 6abb c0e2 c13d
000003b0: be6c 88bc 30f6 a03d 4892 fe3c 9f71 1d3e
000003c0: 54ee a2bd 083b bc3d 8833 10be 280e 103d
000003d0: 102e c33d 0949 6abd 76bd 953d 8e07 c0bb
000003e0: e58b de3c 24c5 563d 5b7b 1c3e d58d 9b3e
000003f0: c092 1fbe 76c1 eb3d 9e8a 363d 5b3d 963d

network_body._body_endoder.seq_layers.2.bias f4 [128]
0.008511137 0.020414168 -0.036084052 -0.033836797 -0.045519404 -0.024822356 0.06339954 0.07201632
0.06968493 0.035712563 0.053583346 -0.001877503 0.05541076 0.043541256 0.061050072 -0.015031826
-0.05027329 0.05631468 -0.0024345994 0.106560186 -0.046014003 -0.039302748 0.0195098 -0.032872654
-0.03472688 -0.035061736 0.075178415 0.05996897 0.077075735 0.051118214 -0.03400016 -0.039204698
-0.018387757 -0.032800034 0.04372153 0.029906703 0.08204901 0.06267011 -0.043332648 -0.014241427
-0.02886514 -0.03139513 -0.047587752 0.07675798 0.010476789 -0.0074706483 0.07002339 -0.027306557
-0.026908344 -0.034113403 0.044424552 0.0054759257 0.053851146 -0.0005790379 0.071373165 0.012862536
-0.028606774 0.002722593 -0.0094121825 0.05085237 -0.03920978 0.024978386 0.018135045 0.03818376
0.09867679 0.06178304 0.014784854 0.034720767 -0.02047892 -0.009252429 -0.022898803 0.050785907
0.0016979084 0.025427312 0.017932778 0.08495855 0.011840305 0.042098444 0.0144433 0.05394945
0.08837161 0.025791429 -0.04279251 -0.041828066 0.056674886 -0.0046222596 0.043767564 0.05408832
0.041188072 0.06313333 0.052751675 0.06769671 0.015325663 0.043808714 -0.022100734 -0.019854696
-0.038537815 -0.024967348 -0.027060313 0.03401116 -0.017532028 -0.04787668 0.0217435 0.08602419
0.07407372 0.06786628 -0.03221153 -0.03692777 0.066254646 -0.058244847 0.004568267 0.055178616
-0.0009701315 0.04228153 0.05126023 0.06104746 0.05154849 0.04509861 -0.017614217 -0.015869519
-0.026456557 -0.047727164 0.057735126 -0.009480757 0.05116397 0.018585267 -0.022171754 0.050886475
00000000: 4c72 0b3c 9d3b a73c dfcc 13bd 7498 0abd
00000010: 8e72 3abd 4158 cbbc 9ed7 813d 4b7d 933d
00000020: f9b6 8e3d 5647 123d 367a 5b3d 8c16 f6ba
00000030: 65f6 623d 5158 323d a40f 7a3d 0c48 76bc
00000040: 5eeb 4dbd 39aa 663d cd8d 1fbb 3a3c da3d
00000050: 2e79 3cbd ebfb 20bd 04d3 9f3c 7aa5 06bd
00000060: c63d 0ebd e59c 0fbd 24f7 993d 06a2 753d
00000070: e2d9 9d3d 5561 513d c043 0bbd 1b95 20bd
00000080: eca1 96bc 5459 06bd 5915 333d e7fe f43c
00000090: 5009 a83d 3059 803d 937d 31bd e054 69bc
000000a0: 9676 ecbc 2e98 00bd 60eb 42bd 4a33 9d3d
000000b0: d7a6 2b3c 57cc f4bb 6c68 8f3d 00b2 dfbc
000000c0: e36e dcbc 7fba 0bbd 85f6 353d 656f b33b
000000d0: 0593 5c3d 93ca 17ba 182c 923d 63bd 523c
000000e0: c158 eabc 886d 323b 8e35 1abc 934a 503d
000000f0: 6f9a 20bd 799f cc3c f28f 943c 9366 1c3d
00000100: 0f17 ca3d 3710 7d3d 2c3c 723c 5d37 0e3d
00000110: 68c3 a7bc 8097 17bc 4596 bbbc e204 503d
00000120: 5a8c de3a f04c d03c c3e7 923c c0fe ad3d
00000130: d7fd 413c 6b6f 2c3d 97a3 6c3c 19fa 5c3d
00000140: 2dfc b43d 8c48 d33c 3347 2fbd e853 2bbd
00000150: ed23 683d 5376 97bb 9e45 333d b78b 5d3d
00000160: d3b4 283d 0c4c 813d 2412 583d 93a4 8a3d
00000170: 7d18 7b3c c470 333d 990c b5bc 51a6 a2bc
00000180: d4d9 1dbd 5388 ccbc 97ad ddbc 494f 0b3d
00000190: 549f 8fbc 561a 44bd 6d1f b23c 732d b03d
000001a0: f6b3 973d 7afd 8a3d 3df0 03bd 9341 17bd
000001b0: 84b0 873d 2692 6ebd 67b1 953b f902 623d
000001c0: 6c50 7eba 662f 2d3d 3ff6 513d e70c 7a3d
000001d0: 8224 533d 52b9 383d b14b 90bc cb00 82bc
000001e0: 6cbb d8bc 8f7d 43bd ab7b 6c3d 2d55 1bbc
000001f0: 5091 513d 2140 983c 8aa1 b5bc 566e 503d

action_model._continuous_distribution.log_sigma f4 [1, 2]
-0.010609381 0.0013393225
00000000: f8d2 2dbc 358c af3a

action_model._continuous_distribution.mu.weight f4 [2, 128]
0.03869294 0.056782365 0.043753985 0.07056008 0.020701852 0.007970219 -0.01577836 0.0011492738
-0.035010234 0.022106355 -0.0044293236 -0.027899776 0.014288385 -0.022514202 -0.045279298 0.03572499
0.05207814 -3.2840177e-05 -0.012550778 -0.055188425 0.044518985 0.050640415 0.051124647 0.043493815
0.00762274 0.019515224 -0.030205427 -0.043601792 -0.056508843 -0.037748504 0.05278592 0.025362177
0.046062708 0.009225334 0.027794221 -0.08866183 -0.0155010205 -0.009881779 0.054953847 0.027645057
0.026254104 0.02766604 0.051184963 -0.038481466 -0.046986446 0.05414485 -0.03570135 -0.014007802
-0.017295087 0.035650555 -0.06419013 -0.043794546 -0.073115975 -0.025794819 -0.03823439 -0.020977722
0.0049370895 -0.023207393 0.06029892 -0.017624315 0.018260228 0.048918888 0.047337443 -0.070025876
-0.040840935 -0.005435615 -0.038676932 0.02251281 0.10615474 0.032245647 0.05048653 -0.00798107
-0.025853002 -0.041808616 0.03246703 -0.03191868 -0.048415992 0.0331963 0.03862703 -0.030094655
-0.04188169 0.035740934 0.0021922644 0.01793074 -0.008749747 0.018110704 -0.058933143 -0.07008309
-0.04764905 -0.009607045 -0.040792115 -0.052621067 -0.054906357 -0.028337155 0.064184785 0.022497965
0.052501403 0.022740846 0.043080848 -0.014891718 0.071702674 0.055141374 -0.013378119 -0.028782023
-0.034146007 0.00872962 0.0059450436 0.01675714 -0.004488498 0.04112289 0.03727541 -0.029641932
0.036602236 0.00524746 0.017422898 -0.02612879 0.010311423 0.022221338 0.036421537 0.053658243
0.018724719 0.013149663 -0.017353898 0.026912881 -0.039748505 0.03405679 0.05931912 -0.06726473
0.010311681 0.025072226 -0.061015323 -0.05852249 -0.027351364 -0.028642654 0.09294145 0.08676185
0.04822402 0.012039418 0.035666987 -0.058212154 0.07742565 0.02817231 0.04348091 0.014531642
-0.04596809 0.048143182 -0.07983321 0.08026164 -0.03716786 -0.05769518 -0.012244431 -0.06685578
-0.027822834 -0.07439686 0.0330183 0.07655994 0.023921529 0.02928279 -0.022435881 -0.09116353
-0.0758877 -0.05414877 0.068303235 -0.012971359 0.034527723 0.031606838 -0.05632225 -0.026829777
-0.014117256 -0.080470644 -0.044873975 0.056368496 -0.03442917 -0.0606883 0.03190743 -0.016328875
-0.0059335185 0.010952353 0.0053819017 -0.029874196 0.029173454 -0.020410147 0.06517185 -0.0866063
-0.0060829367 -0.032496184 -0.05153064 0.038402155 0.015267829 0.0318398 -0.022123795 0.015076678
0.061908323 0.029789185 0.0013587648 0.05526762 -0.038360603 0.000943963 -0.11170038 0.04745345
0.018622478 0.0025394936 0.026543824 0.06872239 -0.029257856 0.027676376 -0.02849058 0.02826533
0.09110616 0.032700177 -0.09397608 -0.01172722 0.04294887 0.016213117 0.028498443 -0.02527231
0.022435356 0.07856369 0.029924033 0.032425255 0.0019130851 0.00693161 -0.064687215 -0.07204751
-0.043669675 -0.0587354 0.0083172675 0.0135202855 -0.013519168 -0.04213331 0.032745123 0.083760895
0.022835294 0.08305803 -0.04810597 -0.0411147 0.05202044 -0.05067727 -0.012823396 0.020157052
-0.044639196 0.020728126 0.047714587 0.07873307 0.0689897 0.058428403 -0.091986164 0.00771254
-0.02934218 -0.047069132 0.0758575 -0.06376029 0.017988043 0.009833543 -0.03767717 0.0021942367
00000000: 7d7c 1e3d a094 683d 6137 333d ce81 903d
00000010: ee96 a93c 8595 023c 9f41 81bc 3ba3 963a
00000020: e466 0fbd 6318 b53c dc23 91bb 128e e4bc
00000030: d519 6a3c b46f b8bc c976 39bd 5e54 123d
00000040: e34f 553d dfbd 09b8 c7a1 4dbc 420d 62bd
00000050: 8a59 363d 536c 4f3d 1468 513d 9226 323d
00000060: 2ec8 f93b 64de 9f3c 5f71 f7bc cb97 32bd
00000070: d175 67bd 2d9e 1abd 0d36 583d 57c4 cf3c
00000080: 40ac 3c3d db25 173c b5b0 e33c 5594 b5bd
00000090: fef7 7dbc 2fe7 21bc 4917 613d e377 e23c
000000a0: d912 d73c e4a3 e23c 53a7 513d be9e 1dbd
000000b0: dc74 40bd fdc6 5d3d 943b 12bd fb80 65bc
000000c0: 6dae 8dbc 5106 123d 1d76 83bd e961 33bd
000000d0: d4bd 95bd a84f d3bc aa9b 1cbd 79d9 abbc
000000e0: 4fc7 a13b 6e1d bebc 00fc 763d de60 90bc
000000f0: 7996 953c 2c5f 483d e8e4 413d ba69 8fbd
00000100: d348 27bd 3e1d b2bb b46b 1ebd c96c b83c
00000110: a867 d93d 0314 043d f7ca 4e3d 09c3 02bc
00000120: adc9 d3bc 833f 2bbd 26fc 043d 29bd 02bd
00000130: d94f 46bd d8f8 073d 6037 1e3d 1189 f6bc
00000140: 238c 2bbd 1665 123d 18ac 0f3b 7de3 923c
00000150: 195b 0fbc e65c 943c e163 71bd b987 8fbd
00000160: a62b 43bd de66 1dbc a215 27bd 3089 57bd
00000170: 7de5 60bd 5223 e8bc 5073 833d a74d b83c
00000180: b60b 573d 034b ba3c 8b75 303d 64fc 73bc
00000190: dad8 923d ecdb 613d e62f 5bbc 47c8 ebbc
000001a0: afdc 0bbd ae06 0f3c a4ce c23b 4546 893c
000001b0: 4014 93bb 7a70 283d 1aae 183d a3d3 f2bc
000001c0: 3aec 153d e3f2 ab3b 77ba 8e3c 0b0c d6bc
000001d0: 3ef1 283c 8609 b63c c02e 153d bfc8 5b3d
000001e0: 9564 993c af71 573c c329 8ebc 6778 dc3c
000001f0: 54cf 22bd 227f 0b3d 9bf8 723d 17c2 89bd
00000200: 53f2 283c 4564 cd3c 34eb 79bd 47b5 6fbd
00000210: f80f e0bc 00a4 eabc 1658 be3d 32b0 b13d
00000220: 8d86 453d fb40 453c 8c17 123d de6f 6ebd
00000230: 5791 9e3d 9ec9 e63c 0a19 323d 2016 6e3c
00000240: 0949 3cbd c931 453d 987f a3bd 3760 a43d
00000250: 533d 18bd c851 6cbd de9c 48bc afeb 88bd
00000260: b6ec e3bc 625d 98bd 323e 073d 75cb 9c3d
00000270: 15f7 c33c 76e2 ef3c 74cb b7bc f2b3 babd
00000280: 036b 9bbd 1acb 5dbd 91e2 8b3d d385 54bc
00000290: f16c 0d3d 2c76 013d 29b2 66bd 1fca dbbc
000002a0: 104c 67bc cbcd a4bd c6cd 37bd a7e2 663d
000002b0: 9a05 0dbd 4b94 78bd 5eb1 023d 22c4 85bc
000002c0: f66d c2bb 7f71 333c aa5a b03b bbba f4bc
000002d0: 2bfd ee3c 2e33 a7bc d278 853d a55e b1bd
000002e0: 5f53 c7bb b81a 05bd cb11 53bd 944b 1d3d
000002f0: eb25 7a3c 736a 023d f63c b5bc 2c04 773c
00000300: 9593 7d3d 7308 f43c 9518 b23a 4d60 623d
00000310: 0220 1dbd 4974 773a 2bc3 e4bd 8c5e 423d
00000320: 2b8e 983c a26d 263b 6f72 d93c 53be 8c3d
00000330: 2cae efbc 91b9 e23c 1465 e9bc b18c e73c
00000340: de95 ba3d 9ff0 053d 8876 c0bd 8723 40bc
00000350: 28eb 2f3d 5fd1 843c 9175 e93c e007 cfbc
00000360: 5aca b73c 00e6 a03d 3f23 f53c 58d0 043d
00000370: 7cc0 fa3a 8f22 e33b bb7a 84bd a58d 93bd
00000380: f9de 32bd 8894 70bd 2645 083c 3084 5d3c
00000390: 807f 5dbc fa93 2cbd c01f 063d d58a ab3d
000003a0: 1511 bb3c 541a aa3d c40a 45bd e367 28bd
000003b0: 6313 553d f892 4fbd 3919 52bc 6720 a53c
000003c0: 97d7 36bd 08ce a93c 5f70 433d ce3e a13d
000003d0: 794a 8d3d 9f52 6f3d 3e63 bcbd 7ab9 fc3b
000003e0: 035f f0bc 90cb 40bd 2d5b 9b3d c194 82bd
000003f0: a95b 933c de1c 213c 6053 1abd 2fcd 0f3b

action_model._continuous_distribution.mu.bias f4 [2]
-0.02263166 0.048985533
00000000: 0866 b9bc 0ea5 483d

onnx::Div_51 f4 [21]
0.94653744 0.86603355 0.000999995 2.087549 2.3562286 1.4283679 2.4653108 0.000999995
5.3749795 3.4588263 0.96955246 0.784126 0.000999995 0.000999995 0.000999995 0.000999995
0.0055922475 0.000999995 0.000999995 0.0055922475 0.000999995
00000000: 4750 723f 60b4 5d3f 4412 833a 679a 0540
00000010: 73cc 1640 c2d4 b63f a7c7 1d40 4412 833a
00000020: d5ff ab40 695d 5d40 9734 783f 7bbc 483f
00000030: 4412 833a 4412 833a 4412 833a 4412 833a
00000040: 2c3f b73b 4412 833a 4412 833a 2c3f b73b
00000050: 4412 833a
