Assets/AI/sacHockeyAgent.onnx (onnx, 294926 bytes, 10 tensors)

network_body.observation_encoder.processors.0.normalizer.running_mean f4 [21]
00000000: 95ef 7ebe 58c9 3cc0 0000 0000 2c07 debd
00000010: 867a dcbe 1d01 c13d 5ff8 c6be 0000 0000
00000020: 94a4 2d3b a617 473e 0de1 843d 9a37 2440
00000030: 0000 0000 0000 0000 0000 0000 0000 0000
00000040: e2fe afc0 0000 0000 0000 0000 e2fe af40
00000050: 0000 0000
-0.24896081 -2.949789 0.0 -0.10841212 -0.43062228 0.094240405 -0.38861367 0.0
0.0026495801 0.19442615 0.064882375 2.5658937 0.0 0.0 0.0 0.0
-5.4998636 0.0 0.0 5.4998636 0.0

network_body._body_endoder.seq_layers.0.weight f4 [256, 21]
00000000: 3e9a 2abe 200a 8c3d 4fe6 11bb d88c 033e
00000010: 33c1 49bf 0b89 8a3e a964 92bd e8ec e8be
00000020: 0c71 4cbf 3af7 fabd 4265 89be 5e9e 393f
00000030: 0066 4c3d ce36 0fbd 9059 b2bd 3dc6 053e
00000040: 9264 93be 5fd7 a23d 3b98 cabd 1f9a c13e
00000050: 7315 44be bdf4 d73c 6493 383d 015a 193e
00000060: 3b30 86be 3202 213d cb3d 113f 9920 b23d
00000070: a182 763e 6b5c ba3e b821 a0be cbe2 24bf
00000080: a0c8 113e 1ce4 34be e309 f7be c866 bb3d
00000090: 0cda 823b 5726 1bbf 26f0 1cbe 8d5a af3e
000000a0: 221f 3b3e 40a7 3e3e cf2e 453f 6671 4c3e
000000b0: 0fc7 cbbc 8676 a2bd be85 213e 516c fc3e
000000c0: e13f a6bd 2a8f fd3b a7ff 83be e2eb bcbe
000000d0: 6a3d 013f 6421 113f e88b c4be 7007 99be
000000e0: 6029 053f 03f2 08bd d743 df3e a9d5 293e
000000f0: 2a41 a2be 00a7 05be 3fd9 5bbe aa30 bf3e
00000100: 2678 ca3d f4fe 5b3d 6f61 b9be e701 9a3e
00000110: d2ad e2bf b783 58bf 3dce 903d e17f 093e
00000120: e92e 1cbf 14fa 223e 303d f33e 3b1c 243e
00000130: cf83 d0b9 a5e5 b8bd 0440 24be 0dee 193e
00000140: 6662 273c 6ac6 f63d 0667 fabb 5d45 1a3e
00000150: 3f79 f0be 6530 a73e 215c 5dbc e309 933d
00000160: b56a fc3d e8b1 973e 982d dabf 5c53 a93c
00000170: 0715 d43e 0ad6 4ebf a071 77be e49a 443d
00000180: f6e2 413d e235 9c3d 5d5c 623e eaf3 56be
00000190: f0b9 57bf 01fa dbbd 4323 033f b457 7e3f
000001a0: 2af3 113d 2591 983e 9a07 1cbf 40ef 33be
000001b0: c9b4 a6bb 4814 2f3f 6034 8dbf 0d5d 663e
000001c0: 5957 d13a 755a 1dbf e25c 0c3e 9ff7 983d
000001d0: fb0d 033f 8e3c 613e 5cb7 6bbe ce10 303e
000001e0: 01be ad3d 7336 9fbd 69c3 b73d 92fe 083e
000001f0: 288e d83d 15db 143f b0f2 53be cc2f 9e3b
00000200: 5497 033f 3e7b bcbe 8c12 febe 4e5d ee3d
00000210: 1cc6 11bd 55f4 77be eb0d 3bbe b17e e7bd
00000220: 67ed a3be 42a7 0b3f 0fba a3be f9ea 8fbd
00000230: 9c6c 90be 70f0 13be a938 1fbe b712 efbd
00000240: d0eb 1d3d 1cc0 86be 66b5 87bd d70c d8be
00000250: 6354 533d 24ec d33e ce41 543e 529a 51be
00000260: 489d 1c3e 45f2 6abd 400e f4bd ca7e f5be
00000270: 2dfa 6d3e 95f3 86bb e6fc ba3e 8d4e f03e
00000280: 2ffc 42be 429f 293e 06cc 5ebe 9498 9fbe
00000290: fa9a 6dbe ae05 55be e549 1f3f 0a01 903d
000002a0: b786 40bf 2bed 873c ae78 6ebd 7770 023f
000002b0: 0d10 333e 8418 75bd f837 ec3b 5329 aabe
000002c0: ebc5 933e 19f5 433e 5112 d03e 079f 3fbd
000002d0: ad8b 6ebe 54b1 d73d 9781 953d 6a95 53be
000002e0: 3f27 fd3e 1405 903e 289e cabd ffc9 01bf
000002f0: b387 f53d 4aae 44bf 053d 8ebe 8ddd 043c
00000300: 16a9 ac3d 6464 04be 2b4b 8fbf e180 8bbe
00000310: 6c3f c7bd a7a7 a2be 6b77 97be 18c2 0b3e
00000320: 0f92 e3be b9e1 0c3e a95f 89be fcd1 09bc
00000330: 7d77 bbbe ed9a bf3e fe34 f43d 56e8 893e
00000340: 7931 2bbf a469 53bd 7b2d 11bf faf7 84be
00000350: fb63 81be 68fb 3e3e 3625 20be 0913 993e
00000360: 00d7 263f dd8e 38bc b8e9 123f 1ead 323e
00000370: bf48 273e 20be 0fbf b28b d0be 56b2 703d
00000380: c7a1 ac3d a192 cb3d d443 133f 8125 12be
00000390: b41c 67bd 3218 3ebe 261f 22bf 50eb 283f
000003a0: ae51 bfbe 3659 29be 6bb9 9cbe d471 4d3d
000003b0: c6e8 4a3f 5d6c 9cbe b6c5 3b3d 8268 3c3f
000003c0: 79b0 3d3f 9cc0 f0bd 24cd 3c3f d063 393e
000003d0: 57d9 38be 8a36 69be cd93 47be 7534 7dbe
000003e0: 99c2 163e 57de 61bd e706 97be e031 273d
000003f0: 712f fb3c 2558 163e d2e8 073e 764c ffbd
-0.16660401 0.06837869 -0.0022262519 0.12846696 -0.78810424 0.2705768 -0.07148106 -0.45493245
-0.79859996 -0.12254186 -0.26835066 0.72507274 0.049901962 -0.034964375 -0.08708489 0.13063903
-0.28787667 0.07951235 -0.09892317 0.37812898 -0.19148807 0.026361817 0.045062438 0.1497574
-0.26208672 0.039308734 0.56734914 0.08697624 0.24073268 0.36398634 -0.31275725 -0.6440856
0.14236689 -0.17665142 -0.4824973 0.09150463 0.0039932784 -0.60605377 -0.15325984 0.34248772
0.18273595 0.18618488 0.7702455 0.19965133 -0.024875192 -0.07932763 0.15773675 0.4930139
-0.08117653 0.0077380138 -0.25780985 -0.36898714 0.50484335 0.56691575 -0.3838799 -0.29888487
0.5201626 -0.033433925 0.43606445 0.16585411 -0.3169034 -0.13051987 -0.21469592 0.37341815
0.09886198 0.05370994 -0.36207148 0.30079576 -1.7709296 -0.8457598 0.07070587 0.13427688
-0.6100908 0.1591571 0.4750762 0.16026394 -0.00039771057 -0.09028176 -0.16040045 0.15032215
0.010216331 0.12049563 -0.007641676 0.15065522 -0.46967503 0.3265411 -0.013510735 0.0717962
0.1232504 0.2962792 -1.7045164 0.020669632 0.41422293 -0.8079535 -0.24164438 0.047999278
0.047335587 0.07627465 0.22105546 -0.20991483 -0.84268093 -0.10741044 0.5122568 0.99352574
0.03563229 0.29798236 -0.609491 -0.17571735 -0.0050874692 0.6839032 -1.1031609 0.22496434
0.0015971466 -0.6146615 0.13707307 0.07469105 0.5119321 0.21995756 -0.23019165 0.1719391
0.08483506 -0.07774057 0.089728184 0.13378361 0.10573989 0.5814679 -0.20698047 0.004827475
0.51402783 -0.36812776 -0.49623525 0.1163889 -0.035589322 -0.24214299 -0.18267028 -0.11303461
-0.3201706 0.5455209 -0.3197789 -0.07027239 -0.28207862 -0.14447188 -0.15548958 -0.116734914
0.038554966 -0.26318443 -0.06626396 -0.42197296 0.05159415 0.41391098 0.20728227 -0.20469025
0.15294373 -0.057359952 -0.119167805 -0.47948295 0.23239966 -0.0041183927 0.3652107 0.4693493
-0.19041513 0.16564658 -0.21757516 -0.31171095 -0.2320365 -0.20802948 0.6222213 0.07031448
-0.7520556 0.016592583 -0.058220558 0.5095286 0.17486592 -0.059837833 0.0072088204 -0.33234653
0.28861937 0.19136466 0.40638974 -0.04678252 -0.2329547 0.105318695 0.07300108 -0.20662466
0.49444005 0.28128874 -0.09893447 -0.50698847 0.11988773 -0.76828444 -0.2778093 0.008109462
0.08430688 -0.12928921 -1.1194814 -0.27246764 -0.09728894 -0.31768534 -0.29583296 0.1364826
-0.4444737 0.13757981 -0.26830795 -0.008411881 -0.366146 0.37422886 0.1192417 0.2693507
-0.66872364 -0.05161442 -0.5671002 -0.2597044 -0.25271592 0.18650591 -0.15639195 0.29897335
0.65171814 -0.01126453 0.57387877 0.17448851 0.16336344 -0.5614948 -0.4073158 0.058763824
0.08429294 0.099400766 0.5752537 -0.14272119 -0.056423858 -0.18563917 -0.6332878 0.6598406
-0.37367004 -0.16537938 -0.30610213 0.050157383 0.79261434 -0.30551425 0.04584285 0.73596966
0.740974 -0.11755487 0.7375052 0.18104482 -0.18051659 -0.22774711 -0.19489975 -0.24727042
0.1472267 -0.05514368 -0.29497454 0.04081905 0.03066227 0.14682062 0.13272408 -0.12465756

network_body._body_endoder.seq_layers.0.bias f4 [256]
00000000: fd8b ba3d ab39 b93e 005f 8fbe bc32 d2bd
00000010: 7819 183f 874f 76bd e78d 08be 0c61 c33e
00000020: 55d3 ebbe 880f 0fbf 30cf 8ebe 9241 263d
00000030: 4dcb 183f 2535 c9be 0025 3a3e 7c23 4c3e
00000040: ac02 b1be 8a7c 7ebe 46b9 8a3e 1e50 ac3e
00000050: 3243 36bf 7a47 0bbe 40c0 21bf 0855 333f
00000060: 9462 a4be 5a0b 79be 5725 c63d 5d17 c2bd
00000070: 3f84 ab3d d62c 77bd 4ac4 8fbe f843 ec3e
00000080: 7068 973d 8abd c7bd 3220 413f 73d1 3dbe
00000090: cc7c 023e 92d8 60bd a5cb a33e d819 24bf
000000a0: 75a2 c7be 0267 7e3e c786 863d b97d 62be
000000b0: 33ee 423f f5d9 cbbe 575f 06bf 9f55 96be
000000c0: 30ef c13e 39fe 04be ceba 30be 47e3 9fbe
000000d0: b96d 64be 18fb 2bbf 7e73 3ebf 8bdd 2fbf
000000e0: 6c5f b7bc 2025 2bbf 6edc 7c3e d399 94be
000000f0: 4d87 a8bd 7917 0fbe 6123 cdbb c8dd d8bd
00000100: d9bb 363e 3049 b9bc fad1 03be 015c ccbe
00000110: 8428 c13e 8980 a5be 32fd 4a3d 9564 c3be
00000120: ee8c 1f3e 45df 593d fc24 2b3f 9469 ba3d
00000130: a734 053f a8de d33e d43f 97be 46ad 143e
00000140: 9a2e 873e 6159 63bf 7303 363f 6944 7a3e
00000150: c306 c5be 0050 81be 492e 9cbd 4369 90bd
00000160: 6f18 50be 774a f9be 7ca3 cebd d7b4 b1be
00000170: adea 11bf 4214 2fbc 89ae d53e fd57 2fbe
00000180: 0e44 6bbe 3266 92be 8d5b 3abd ef61 91be
00000190: adc2 b3bd fdce febe efed c53e 0a0d 1fbe
000001a0: e9af ba3e cad7 493d 7daa c9be 1f88 163f
000001b0: 6f5c 013f a226 6dbe c8d8 c7be 0c6e 41be
000001c0: 0f24 7dbe c8d5 693b 9358 13bf da61 4e3e
000001d0: 049a db3e 805d 963e f871 1d3e 5aed b43d
000001e0: a162 853c 4e9f febd d8db a63e 387c 163f
000001f0: 7d1b 0fbf c277 1b3f 46b9 b83e 71a1 bb3d
00000200: 1896 57be a531 9abe 3f05 843d 7eed a73d
00000210: 16b7 133e 205f 12bf 5dde 21bc 2d53 b5be
00000220: e189 ec3e 7020 a4bc ec2b 833e 847a 0d3f
00000230: 64c9 9f3e 3628 94be 14b7 a33e 3882 4d3e
00000240: c5be c3be b411 47be 80de 86be 6069 543e
00000250: 8d68 d83e ce2d 0b3f a762 bdbc 36a3 b2bc
00000260: aaec 03bf 8ad1 c3be f65c 503e 9f25 ab3c
00000270: b1b6 ef3e 5887 373e a53e 47be a1e8 b5be
00000280: 2013 b3be 8f98 003f eee7 89be 60df d7be
00000290: 8d19 cb3c d8b3 e7bd e224 ff3d a9a2 533f
000002a0: 4bca a53c 6bab f9be add4 6abd e40b 83be
000002b0: 1b91 103e 00da bf3e d0dc 793e d9ac 9cbe
000002c0: 00e4 683d ae36 41be 6d6a 03bf 8c3c 12bf
000002d0: c9f8 9ebd ebfa a1be 7267 34be 4974 803e
000002e0: 7e21 d33e b81f 8ebe fbbf 2abe adfa e93e
000002f0: efc3 64be f5dd debe 5eef 0f3e 4f24 e5be
00000300: fd32 ebbe 516f 433f f7de 3d3e 093f cebe
00000310: 9561 ac3e 3cd0 f9be e29a 233e 8d17 0fbe
00000320: e400 8bbd 353f 40be e42e 7d3e 4be3 0cbf
00000330: 9c1c 93be 334e d63e 8d64 07bf e71b cabe
00000340: 8883 f73e 472c 83be 2da6 aabe 06ec 353e
00000350: 83c6 01bf 0172 1abf 1cf9 b13d 144b 283f
00000360: 3b7b 053f e281 bd3e 6325 503f 7e67 9abe
00000370: e7c3 453e f9cb 7dbe 7193 d5be e9c7 2fbc
00000380: 9d6e 1bbe 10c3 0d3e 4a15 49be 09ca 00bf
00000390: c802 03bf fa1b f53e 7a52 f1bc 6fe3 53bd
000003a0: d8b6 283d 81ce 8fbe 0f2e 083f 6f04 3bbf
000003b0: d339 92be 370d 683c a952 bd3e 0616 473f
000003c0: 9e85 24be 2fa4 a8be d812 6abd 1e98 113f
000003d0: b911 8d3e 3629 063f 2d10 d1bd b336 1c3d
000003e0: 43f9 0fbf eaa4 cd3e 4e87 2fbe 4779 eebe
000003f0: 96f4 0b3e d166 c13d 2b52 8a3d 2a17 093e
0.09108732 0.3617681 -0.28002167 -0.10263583 0.5941386 -0.060134437 -0.13335381 0.38159978
-0.4605967 -0.55883074 -0.27892447 0.040589876 0.5968521 -0.3929836 0.18178177 0.19935411
-0.3457235 -0.24852195 0.27094477 0.33654875 -0.7119628 -0.13601485 -0.63183975 0.7005162
-0.3210646 -0.24320737 0.09675091 -0.094771124 0.08374833 -0.060345493 -0.28079444 0.46145606
0.07392967 -0.097529486 0.7543975 -0.1853693 0.12742919 -0.054894038 0.31991306 -0.64101934
-0.38991132 0.24843982 0.065686755 -0.22118272 0.76144713 -0.39814726 -0.5248923 -0.293622
0.37877798 -0.12987603 -0.1725876 -0.31228086 -0.22307481 -0.67180014 -0.7439498 -0.6869742
-0.022384368 -0.66853523 0.24693462 -0.2902361 -0.082289316 -0.13973798 -0.006260321 -0.105891764
0.17845096 -0.022617906 -0.12873068 -0.39913943 0.37726223 -0.32324627 0.049557872 -0.38162675
0.15581104 0.053191442 0.6685331 0.09102169 0.52033466 0.4138081 -0.29540884 0.14519224
0.26402742 -0.88808256 0.71099013 0.24440159 -0.3848172 -0.25256348 -0.07626016 -0.07051327
-0.2032182 -0.48689625 -0.10089776 -0.34708282 -0.5699871 -0.010685982 0.41734722 -0.17123409
-0.2297518 -0.28593594 -0.045497466 -0.2839503 -0.08777366 -0.49767295 0.3865809 -0.15532318
0.36462334 0.049278058 -0.39387885 0.58801454 0.5053167 -0.23159268 -0.39032578 -0.18889636
-0.24720787 0.0035680402 -0.5755703 0.20154515 0.42890942 0.2936821 0.15375507 0.08834334
0.016282381 -0.12432729 0.32589602 0.5878329 -0.5590132 0.6072961 0.36078852 0.09161652
-0.2105335 -0.30116 0.06446313 0.08199595 0.1442531 -0.571764 -0.009879676 -0.3541502
0.46198943 -0.020034999 0.25619447 0.5526507 0.31208336 -0.2893693 0.31975615 0.20069206
-0.38231483 -0.19440347 -0.2634163 0.20743322 0.42267266 0.5436677 -0.02311833 -0.02180634
-0.51532996 -0.38245803 0.20347962 0.020891963 0.4681907 0.17922723 -0.1945749 -0.35529044
-0.3497553 0.50232786 -0.2693476 -0.4216261 0.024792457 -0.11313599 0.12458207 0.82670075
0.020238062 -0.48763594 -0.05733173 -0.2559501 0.14117853 0.37471008 0.2440064 -0.30600622
0.056858063 -0.18868515 -0.5133427 -0.5712364 -0.07762296 -0.31636748 -0.17617586 0.2508872
0.4123649 -0.27758574 -0.16674797 0.45699063 -0.22340368 -0.43528715 0.14056155 -0.44754264
-0.45937338 0.7634173 0.18542086 -0.40282467 0.336682 -0.48791683 0.15977052 -0.13973828
-0.06787279 -0.18774112 0.24724919 -0.5503432 -0.28732765 0.41856536 -0.52887803 -0.39474413
0.48342538 -0.25619718 -0.33329907 0.17765817 -0.5069353 -0.60330206 0.08690092 0.6573956
0.5214116 0.37013155 0.8130705 -0.30157083 0.19313012 -0.2478484 -0.4171405 -0.010728815
-0.15178914 0.13843942 -0.19637027 -0.5030828 -0.5117612 0.47872907 -0.029458273 -0.05173057
0.04119 -0.28087237 0.5319528 -0.7305364 -0.2855974 0.014163307 0.36977127 0.7776798
-0.16066596 -0.32937762 -0.057146877 0.5687274 0.27552584 0.5240663 -0.102081634 0.038138103
-0.5623972 0.40164882 -0.17141458 -0.46576902 0.13667521 0.09443439 0.067539535 0.13387743

network_body._body_endoder.seq_layers.2.weight f4 [256, 256]
00000000: 5045 4bbc a90a e5bc 98f1 873d 8013 f8bd
00000010: 3ebe 78bc c79d 4abd 9a18 aa3d 9b0d 523e
00000020: fc2c 153d 7de3 98be acdf 653d 5f16 843d
00000030: da2a 1dbd 7c4c 073e 32bd 943c 51a1 61bd
00000040: 9b27 a73d 6f9c a5bd 895d 803b f9e2 d03d
00000050: b51e 6ebe 3b15 f33d de04 803c 7d28 963d
00000060: 6ece eabd b6e5 5cbe 691e 49be 12ce 03be
00000070: 66a0 b7bc ec27 65be bebd adbd ab04 f2bd
00000080: 57e2 3bbd be7f 963d d1ca c23d 9b0b dfbd
00000090: 06af debd 3a60 a53e 7103 223e 6575 8bbd
000000a0: 9542 e1bd fe79 443b e7d5 98bd 7180 f7bd
000000b0: 134d b4be 5f99 503d ef61 433e 92c6 9fbd
000000c0: cae7 ddbe 4ef4 2cbe e09b 32be 7c65 39bb
000000d0: f343 c1be da16 a13e 45d0 ddbd 33f6 5d3c
000000e0: 6efa e2bd a77c fb3d 75cf 5bbe 8781 c0bc
000000f0: 814e 933c 49fe 833b 4509 48be 081a 5ebd
00000100: 455a 5d3e 5a58 9abc 0806 843d 3a0b 97bd
00000110: f071 9dbd e373 203d e1d6 42be 1b16 9a3c
00000120: 39ad c53d ccd8 07bd fe8f 17be 8744 01bf
00000130: e035 a0bd 8c4f 1cbe 78a7 96be e116 b3bc
00000140: 2fdf a6bd 9c13 04be a6be d2be c10b 06bf
00000150: 6288 98be 221b 04be 8ec3 183e fa65 f43d
00000160: 5d50 463d e6d6 e73d 7541 8b3e d90a 493d
00000170: 6bab 43be 9192 18bf d125 35bf 1ad7 d4bd
00000180: b85c 9c3e 3b18 ac3d 405c 68be 47b4 80bd
00000190: dcc7 0fbb 8b2d 2cbe e89c 3bbe cb9d 6ab8
000001a0: 3846 403d aef8 4ebe 5b45 02be bb15 d1bd
000001b0: ffcf 85be fe9e e33d 2964 1a3d c6e9 53be
000001c0: 466f a6be 62dc 343e 9a09 46be 4bf2 d9bc
000001d0: 7eb9 d53c b1c0 473d bbca eebe 0228 5a3d
000001e0: cca4 aa3d b4f5 d23c 739c 2bbd 5eac df3c
000001f0: 4bfb 803d a101 5d3d a901 fcbd b0b3 1b3e
00000200: f63a 943b 0931 99be 1b48 413e 2085 2dbe
00000210: 2852 e73d 22b8 513e f941 8ebe 7d11 3a3d
00000220: 6b00 23be fda2 f9bd 04d3 9b3c 87cf 0c3e
00000230: c56a 02be 01fd 6a3e ac34 9cbe 5776 203e
00000240: c311 5abd ed5d ef3d 00e6 7abe da29 b9bd
00000250: 7435 c2bd ad86 e83c ffc8 57bd 2bee a4bd
00000260: ab4e 0f3d 817e 39bd ea45 8b3d b868 183d
00000270: b974 ecbc c591 4b3e 6979 2b3e b7fa 583e
00000280: 45c3 bbbc 3ff1 cdbc e56e f83d 3755 91be
00000290: b080 4cbf a462 0e3e 5fa5 f53d 3786 953d
000002a0: a132 74be fb59 8bbd b5af 1cbe f4a4 313e
000002b0: 68b3 41bd 42ed 14be b238 72bd 6186 0d3e
000002c0: 86a7 73be 3fb1 45be e16d 523c d9ba b43c
000002d0: 19b7 e83d 91dd 69be 06c7 edbd 0e6b f1bb
000002e0: 561e ef3d 0724 c4be 6585 ce3d 563b 98bf
000002f0: 9e88 1abe decf 833e 56a1 123b 566b dbbd
00000300: 1173 a7bc 60b7 fd3c a1ea bbbd 1588 12be
00000310: f55d 97be e793 143d e9af 063e 833c 433d
00000320: 839c d1be fb84 023e d96c 333e 6444 cebd
00000330: 377d 18bf 3127 8cbd 7769 8d3c 3120 7dbe
00000340: c581 8b3e b581 1b3e 6055 64be 8b95 5fbe
00000350: 2263 ccbd cadd 7c3e d49e c93d 5f59 16bf
00000360: 1097 ca3a ab15 453a 62c3 043d 8c68 7dbe
00000370: fbde 9ebd 241c b1bc 10b5 3e3e ee5f a9bb
00000380: 104f 993d 7609 d0bd a6c7 8dbe 8c40 0a3e
00000390: 7635 063e 18b6 393d 7feb 893d ba8c a23c
000003a0: 05a1 a8be 60d5 39be 1fd1 763d c271 1dbd
000003b0: 0ac2 cdbb b80c 323d 1ce6 05be 99e1 11bf
000003c0: e277 d93c add7 6fbe 96b3 f33d 820f 703d
000003d0: 8ec3 493e 3ce5 1f3e f0fc 08bd fbed 2fbe
000003e0: b68f 0bbe edf7 123d 5bd6 aebd 3b1f 073e
000003f0: 4801 4bbe a784 50bd 988a e6bd facb 66bb
-0.012406662 -0.027959185 0.06637877 -0.12113094 -0.015182076 -0.049466874 0.083054736 0.20513003
0.036419854 -0.2986106 0.056121513 0.064495794 -0.038370945 0.1321277 0.018156622 -0.055085484
0.08161851 -0.08086478 0.0039174003 0.101995416 -0.23253901 0.11869284 0.01562732 0.07331941
-0.114651546 -0.21572003 -0.19640507 -0.12871578 -0.022415351 -0.2237851 -0.08483456 -0.118172966
-0.04587015 0.07348584 0.095113404 -0.108908854 -0.10873227 0.32299978 0.15821625 -0.068095006
-0.10999028 0.002997994 -0.07462674 -0.12085045 -0.35215053 0.050927516 0.19080327 -0.07801546
-0.43340904 -0.1689007 -0.17442274 -0.002828925 -0.37747154 0.31462747 -0.1083074 0.013547468
-0.11082922 0.12279635 -0.21465857 -0.023499263 0.01798177 0.004028116 -0.19534786 -0.054224044
0.21616466 -0.018840957 0.06446463 -0.07375188 -0.076877475 0.03917302 -0.19027282 0.018809369
0.0965218 -0.033165738 -0.14801022 -0.5049519 -0.07822776 -0.1526472 -0.29424644 -0.021861495
-0.08148038 -0.12898105 -0.41161078 -0.52361685 -0.29791552 -0.12900975 0.14918348 0.11933513
0.048416484 0.113202855 0.27198377 0.04908261 -0.1910836 -0.5959864 -0.7076083 -0.1039259
0.3053949 0.08403059 -0.2269144 -0.06284385 -0.0021939194 -0.16814248 -0.18321574 -5.5936904e-05
0.046941966 -0.20212051 -0.1272177 -0.10209223 -0.2613525 0.1111431 0.037693176 -0.20694646
-0.3250677 0.17662194 -0.193396 -0.026604792 0.026089426 0.04876775 -0.46639046 0.05326081
0.08332214 0.025751926 -0.04189725 0.02730387 0.0629793 0.05395663 -0.12305004 0.15205264
0.0045236303 -0.29920223 0.18875162 -0.16945314 0.11294967 0.20480397 -0.27784708 0.045426834
-0.15918128 -0.12189291 0.019021519 0.1375104 -0.12736042 0.22948076 -0.30508935 0.15670143
-0.053239595 0.11687837 -0.245018 -0.09041186 -0.094828516 0.02838453 -0.05268192 -0.080532394
0.034987133 -0.04528666 0.068004444 0.037209243 -0.028864251 0.19879825 0.16745533 0.2118939
-0.02292026 -0.02513945 0.121305265 -0.28385326 -0.7988386 0.13904816 0.11994433 0.0730099
-0.23847438 -0.06804272 -0.15301402 0.17348081 -0.047290236 -0.14543632 -0.0591361 0.13820793
-0.23794374 -0.19305895 0.01284358 0.022061752 0.11363048 -0.22838427 -0.11610226 -0.0073674982
0.11675708 -0.38308737 0.10084037 -1.1893108 -0.15091178 0.25744528 0.0022373996 -0.10713832
-0.02044061 0.03097123 -0.09175611 -0.14309724 -0.2956387 0.036273863 0.13153042 0.04766513
-0.4093972 0.1274604 0.17521991 -0.10071638 -0.5956606 -0.06843413 0.017262204 -0.24719311
0.27247444 0.15186198 -0.22298193 -0.2183439 -0.099798456 0.24693981 0.09844747 -0.5873012
0.0015456397 0.00075181824 0.032412894 -0.24746913 -0.07757374 -0.021619864 0.18623757 -0.0051689064
0.07485783 -0.101580545 -0.27691382 0.13501185 0.13106331 0.045339674 0.067343704 0.019842494
-0.32935348 -0.18147802 0.060258027 -0.038438566 -0.006279235 0.04346916 -0.13076061 -0.5698486
0.026546422 -0.23422118 0.11899488 0.05860854 0.19703504 0.1561479 -0.033444345 -0.17180626
-0.1362904 0.03588097 -0.08536979 0.13195507 -0.19824708 -0.050907757 -0.112569034 -0.0035216794

network_body._body_endoder.seq_layers.2.bias f4 [256]
00000000: 48d2 81bd bd59 47be 6ec5 59be c5ca 14be
00000010: e647 16be 2656 51be 291d cfbd 6002 1bbe
00000020: 3b91 0fbe a5a5 723e 96fb d53d f048 bebe
00000030: f965 a7be 2037 80be 32fe c7be ff46 a8be
00000040: 4114 95be 682e 55be 45d4 d23d c001 babd
00000050: 4e0f abbd 638d 75bd f00f aabe 8752 59be
00000060: 2d96 e83d f610 8ebe 1498 68be 6ec4 1bbe
00000070: e210 7fbd ad25 02be b8ef 0b3e 6d69 b6bd
00000080: 7199 f1be 356c 9abe 3ceb 12be 465e 54be
00000090: 48a9 3cbe e27a 3fbe e7a1 07bd f6b0 77be
000000a0: c4ca a4be b242 9ebe 5641 37be 85ee 4dbe
000000b0: 9e2b 763d a431 b1be 8a2a 453b e2dc 8bbd
000000c0: 1f38 5ebe 502b 81bd 10a0 35be 0735 f2be
000000d0: c579 5dbe b154 05bf 7568 64be 3061 12be
000000e0: 0871 a3be 5c08 89be cb44 2a3e efb6 a1be
000000f0: 151c 9cbe 7dbb aabd e2d4 ebbd 3d71 adbe
00000100: 29a0 d6bd 2e97 01bf 514b 83bd 359a ae3e
00000110: c6ff 403c adbc d6bd f462 e7be ff21 a6be
00000120: e43e e8bd eba1 e1be 93e1 ce3c e64e 22be
00000130: 523f 7fbe 43c4 70bd 1b7c a1bd 6466 efbe
00000140: 109f 2f3d e027 9b3d 87c0 853b db4e 553e
00000150: e0e2 e5bd 8893 e2bd 3f80 59bd 8879 f5be
00000160: 2afc 08bf e792 b0bd 3b03 62be 272a 8c3d
00000170: c612 93bd 5b16 873d 00f7 d9bc 975e ef3d
00000180: 667a 37be 2e36 3bbe a462 8ebe 9192 96be
00000190: 4547 fa3d 05ed 81be 02a2 4dbe a825 8ebe
000001a0: e3f8 7abc 9f7f 51be bf0f b3be a3a2 ffbd
000001b0: 9718 0cbf 922b 00be 257e 82be 90f5 693a
000001c0: a659 30bd ad36 d43b 6edb c7be 5979 05be
000001d0: 6f14 ecbe f768 b2be 71f3 78be d98f 32be
000001e0: 9161 d5bd 7f6e 88be e1e4 a53c 376b acbe
000001f0: d1b7 4cbe a808 40be 48dd 18bd 8518 d9be
00000200: 3705 c2bd 59f3 66be 6cb7 17bf ea43 763e
00000210: b6a5 0dbe ba66 d9bd 751b 2abd d53b 34be
00000220: a275 35be 3d6e b83d a43d 78be ab55 cd3d
00000230: 60f7 07be 82d0 99be ac7d 993c 3988 0abe
00000240: 10f1 80be 07eb 2c3c d80a 11bf f0db 85bd
00000250: 7fa0 e1be f784 5ebe c514 79be 290c c6bd
00000260: 917a 7ebd 7bf3 7dbe c25b 29be fedb e0bd
00000270: b515 dbbe 26bc 13be 7037 b9be a6fa 7fbb
00000280: 2617 74be 864e f2be ab22 88bd 7c6b c1bd
00000290: 738e c5bd b27a 94be 31e0 d4bd 8751 933d
000002a0: d297 bb3c 85a8 94be bb2d 28be dcaa 7abd
000002b0: d531 cdbe 52da 99be a6f7 67be 7363 aebe
000002c0: 7c7b 12be f29a e0bd c392 bfbc fae3 94be
000002d0: 333b 2dbe 92c2 12be 08bb 4cbe de88 20be
000002e0: 8815 2bbe 606d 35be 536d 18bf 5eb0 1ebe
000002f0: c143 e6bd 719b 9abe 1323 87be 4b94 82be
00000300: 28a3 23be 96be cdbc 1a40 12be 8812 83be
00000310: bd35 5abe 97bc e8bd f210 cc3d 5ca8 79bd
00000320: 6f9d 76bd 4216 c8be cda5 0bbe b963 adbe
00000330: 2f63 85be 5407 9dbe 2a6e 92be 7cec 4dbe
00000340: 28c3 b9be 29bb 4ebe bc79 dcbc 85c2 56be
00000350: 7d1f ae3d a84b 3dbe 4a27 433c b76b 5a3c
00000360: 540e adbe 6910 f5be 0e51 05bc fe5d a5bd
00000370: 3cb4 04bf 98d6 b9bd b093 29be 66a7 a7be
00000380: 6b64 03be 0190 a8be 4244 0ebe fa18 60be
00000390: 2802 4cbe 74a7 7cbe ff39 52be 3d82 2dbe
000003a0: 7dfa 69be 9904 463c d8c2 0dbe 43f2 7dbe
000003b0: 9593 52bd 474b ffbe 1486 cdbe ac66 243e
000003c0: 6de4 a43e 10ac a73d 95b7 dabd 250a 52be
000003d0: 4d35 dbbd 004d 68bd 2d11 dabd 8b14 a9be
000003e0: ccc3 03bf 6ecc 00be 1b69 72be 18c0 7bbe
000003f0: 119e e0bd be22 c9be 1f57 95be 0a2a 99be
-0.06338936 -0.19467826 -0.2126672 -0.14530475 -0.14675865 -0.2044302 -0.10112984 -0.15137625
-0.14020245 0.23696001 0.10448377 -0.37165022 -0.32694986 -0.25042057 -0.39061123 -0.32866666
-0.29117015 -0.20818484 0.102943935 -0.09082365 -0.083525285 -0.05994929 -0.33215284 -0.21222888
0.11356769 -0.27747315 -0.22714263 -0.1521165 -0.06227196 -0.12709685 0.13665664 -0.08906827
-0.4718738 -0.3016068 -0.14347547 -0.20739087 -0.1842395 -0.1869922 -0.033113386 -0.24188599
-0.32185948 -0.3091026 -0.17896017 -0.20110519 0.06010019 -0.34608185 0.003008517 -0.068292394
-0.21701096 -0.06307089 -0.1773684 -0.47306082 -0.21628483 -0.52082354 -0.22305472 -0.14294887
-0.31922174 -0.2676419 0.16627805 -0.3158488 -0.30490175 -0.08336542 -0.115152135 -0.33875456
-0.10479767 -0.50621307 -0.0641085 0.34102026 0.011779731 -0.10485206 -0.45192683 -0.32447812
-0.113401204 -0.44068846 0.025254047 -0.1585041 -0.24926499 -0.05878092 -0.07884999 -0.46757805
0.042876303 0.07575965 0.004081789 0.20830862 -0.112249136 -0.110632956 -0.05310082 -0.47944283
-0.5350977 -0.086217694 -0.22071545 0.068439774 -0.07181315 0.06596061 -0.026607037 0.116879635
-0.17917785 -0.18282387 -0.27809632 -0.29408696 0.12220625 -0.25376144 -0.20081332 -0.27763104
-0.015318128 -0.2045884 -0.3497295 -0.12482192 -0.5472502 -0.12516621 -0.25486866 0.00089248363
-0.043054245 0.0064762444 -0.390346 -0.13034572 -0.4610934 -0.34845707 -0.24311616 -0.17437686
-0.10419 -0.26646802 0.02025074 -0.33675548 -0.19991995 -0.18753302 -0.037320405 -0.4240152
-0.09473651 -0.22553767 -0.59264255 0.24049345 -0.13832745 -0.10615297 -0.04153009 -0.17600949
-0.17720655 0.09005401 -0.24242264 0.100261055 -0.1327796 -0.3004189 0.018736683 -0.13528527
-0.25183916 0.010554082 -0.5665717 -0.065360904 -0.4406776 -0.2173041 -0.24324329 -0.09670288
-0.062128607 -0.24799912 -0.16538909 -0.1097946 -0.4279 -0.14427242 -0.36175108 -0.003905931
-0.23836955 -0.47325534 -0.066472374 -0.09444329 -0.09646311 -0.2899986 -0.103943236 0.071932845
0.022899542 -0.2903482 -0.16423695 -0.0611981 -0.4007708 -0.30049378 -0.22653064 -0.3406025
-0.14304918 -0.109670535 -0.023385411 -0.29080182 -0.16917114 -0.14332035 -0.19993222 -0.1567721
-0.16707432 -0.17717505 -0.59541816 -0.15496966 -0.11243392 -0.30196717 -0.26393947 -0.25503764
-0.15980208 -0.025115293 -0.14282265 -0.25600076 -0.21309562 -0.11364096 0.099641696 -0.060951576
-0.060208734 -0.3907948 -0.13637467 -0.33865145 -0.26052234 -0.30669653 -0.28599674 -0.20109743
-0.36281705 -0.20188583 -0.026913516 -0.20972641 0.085021 -0.18485892 0.011911223 0.013331345
-0.33799994 -0.47864082 -0.008137001 -0.08074568 -0.51837516 -0.09074134 -0.16560245 -0.32744902
-0.12831275 -0.32922366 -0.13893226 -0.21884528 -0.19922698 -0.24673253 -0.20529936 -0.16944213
-0.2284946 0.012086057 -0.13843858 -0.24799447 -0.051410276 -0.4986212 -0.40141356 0.16054791
0.32205525 0.08187115 -0.10679547 -0.20511682 -0.10703526 -0.056714058 -0.10647807 -0.33023486
-0.5147064 -0.12577984 -0.23672907 -0.24584997 -0.10967649 -0.3928432 -0.2916803 -0.29914886

action_model._continuous_distribution.mu.weight f4 [2, 256]
00000000: 4390 f7bd 3b15 cd3e 3c7f f9bc 1d4a a3be
00000010: 9fb8 4cbe 8229 93bd 0550 f2bd 8026 0dbe
00000020: 7681 2dbd 8e33 52be 05a0 a6bd 92dc b0be
00000030: 0d7a f3be 3a91 123e a287 d9be b7ae 6ebf
00000040: b754 a8be 3b7f 5abe 5ba1 c43c f80f 35be
00000050: b777 c0be 6145 47bd a0b9 34bb 482f 603e
00000060: 7c5e fabd f68c 4a3e dfa8 353e f30d f13b
00000070: 7cd2 cbbd 919f a43d 9e47 d9bd 47d9 1fbe
00000080: 5752 b63d 16f4 173f e261 1f3e a3d0 0c3f
00000090: 792e 4c3e e31d c2be b70e 9a3e 8712 15be
000000a0: 10b9 ff3e ed92 e1bd 02e8 04bf c750 783e
000000b0: b8f4 8bbe 28b8 ef3c 417f 5abe 0e47 1ebf
000000c0: baef a5bd 7df5 393e 72e5 bdbe 3b42 afbe
000000d0: e49c 6fbe d2fe 353e 943d eb3c 9a20 cebe
000000e0: 756d 043d 414a f5be 6504 b7bb 78a0 6dbd
000000f0: bf39 0bbf 284c c7bd dfc6 cd3e bedf 2f3e
00000100: 9ac1 543d be0d 9dbe 401c 243d cb69 073d
00000110: fb87 9bbe 3cb5 b93d d5c8 973e f23f 15be
00000120: 0eb6 9c3e d2bf 323e a30f 8a3e 5983 28be
00000130: cbff ec3e cb79 9c3d 1a5a 9d3e e908 0abf
00000140: d0de 803e b871 9e3e 7303 3abe a4e4 0cbf
00000150: f413 f7be d244 27be d706 afbd 8d1e 40bf
00000160: eee2 e93e c492 933e 285b c1be 9158 da3e
00000170: 614a 20be 811a cbbe a214 e0be adba 953e
00000180: 0c53 993e ddc2 04bf a1aa c83d c56f c8bb
00000190: 0868 6dbe 0491 84be 175a a93e 02a8 e03e
000001a0: 05c4 1dbe 771a b73d 565c 6e3e 1374 c03d
000001b0: 0c53 e23e c4e3 e9bd fd17 673e 96fd 1ebf
000001c0: 8c2e 4cbe b808 cfbd b493 923d d0cb 22be
000001d0: 9ffe 893e 0a10 07be 6aa4 3d3e 07c0 6a3e
000001e0: 6fba 213c f850 21bd b1a6 e9bd ad59 adbe
000001f0: 180d 9bbd d6d3 943e 8d96 80bd c830 413f
00000200: e88b 8a3f 2d58 993e 6eec 70bf 8b2e 503d
00000210: 4d1d a8be cb4c f5be 91c0 7b3c cbe0 8b3e
00000220: f4cc 733e e107 bb3e 4b16 ba3d 76a2 223e
00000230: 98da 5d3e d6c4 e3bc b84c 45be e127 2cbf
00000240: c473 23be e868 743d ee54 c13e 04f2 9e3d
00000250: dde4 443e 4f3a 1ebf 5462 b63e 378f ee3d
00000260: 41c1 e43e 2bfe 8fbe a68c 17bf f9a2 313d
00000270: f78d 47bf f74f 063f e38d 50be 98e8 e2bd
00000280: 2869 6d3b a935 eb3e fe48 a33e 7393 a5bd
00000290: 12fa d23e 5143 a5be d5b1 ea3e b3e2 f5be
000002a0: 352c cfbe efb2 813e 8911 d4be cbec 1f3e
000002b0: e6b3 ba3e 7b3f a1be 568f 7dbf 864b bdbe
000002c0: 8930 eb3e 7c53 8dbe de78 103d 8cc9 2abf
000002d0: 1dc4 49bd 18df 9abe 856d be3e 5204 4bbd
000002e0: 5a16 72bd 3fcc 4abe 9002 873d a266 bc3d
000002f0: 891a 68bd 0d71 23bf be05 7d3e 7c9c 393e
00000300: 97ca 753e 3bf3 553e df46 f5bd 6c99 87be
00000310: c993 c13c 8138 2b3e 5a3b 87bc e329 0c3f
00000320: 4a42 d13d b729 2fbd dd3c 88be de29 c03d
00000330: f810 503f fd78 fa3e 9f90 28bf c458 c6be
00000340: d89c 9b3e 8ab7 dfbd 7fe2 ebbd ef85 03bf
00000350: b02c 49be e499 56be e767 5dbd 3dd8 ffbc
00000360: ba83 dc3e 5a07 b0be 1d19 86bd 77b4 953d
00000370: 0496 c8be 166e 133e f012 9bbd 0e12 613e
00000380: 8f49 21bc 5524 e8be 9c4a 933e 2210 3c3f
00000390: 58a7 413f 1deb c13c 9e42 b7be 0c12 8b3e
000003a0: ce4a d93e 053f f93d a998 9d3e 7768 323d
000003b0: c43c 1ebe b176 01be f1a0 c23e 592a e33e
000003c0: e7b3 fe3d b4cb 06bf 0419 5f3e 9e60 d8bc
000003d0: ee93 a13d e15a 05bf 39f7 aa3c 0ad4 7abd
000003e0: 54fa 943f 36cc f6bd 86a7 f03e 6136 523f
000003f0: 9981 6cbe 7aa2 f43e f5ab efbd f92e 923e
-0.120880626 0.4005526 -0.030456178 -0.3189248 -0.19992302 -0.07185651 -0.11831669 -0.13784218
-0.04235979 -0.20527479 -0.0813599 -0.34543282 -0.47554055 0.14313212 -0.42486292 -0.93235344
-0.32877132 -0.21337597 0.024002722 -0.17681873 -0.37591335 -0.04865015 -0.0027576461 0.21893036
-0.12225053 0.19780335 0.177402 0.007356399 -0.09952256 0.080382474 -0.10609363 -0.15610228
0.08902424 0.5935682 0.15564683 0.55005854 0.19939603 -0.37913427 0.30089352 -0.14557849
0.4994588 -0.11014352 -0.51916516 0.24249564 -0.27335143 0.029262617 -0.21337606 -0.6182717
-0.08102365 0.18160053 -0.37089115 -0.34230217 -0.23399693 0.17772987 0.028715886 -0.40259248
0.03233095 -0.47908214 -0.0055852407 -0.058014363 -0.5438499 -0.097313225 0.4019079 0.17175195
0.051942445 -0.30674547 0.040066004 0.033059876 -0.30377182 0.09067771 0.2964541 -0.14575174
0.30607647 0.17455986 0.26965055 -0.16456355 0.46288905 0.07640418 0.30732805 -0.53919846
0.25169992 0.30946136 -0.18165378 -0.5503638 -0.4825741 -0.16334847 -0.085462265 -0.75046617
0.45680946 0.2882291 -0.3776486 0.42645696 -0.15653373 -0.39668658 -0.43765742 0.29243985
0.29946172 -0.5185984 0.0979817 -0.0061168396 -0.23184216 -0.25891888 0.33076546 0.4387818
-0.15406807 0.08940595 0.23277411 0.093971394 0.44203985 -0.11420396 0.22567745 -0.6210569
-0.19939631 -0.10109085 0.071570784 -0.15898061 0.26952073 -0.13189712 0.1851975 0.22924815
0.009871109 -0.03938386 -0.11408747 -0.3385748 -0.07570857 0.29067868 -0.06278715 0.7546506
1.0823946 0.29950085 -0.94110763 0.050825637 -0.32834855 -0.4791015 0.015365736 0.2731994
0.23808652 0.3652945 0.09086283 0.15882286 0.21665418 -0.02780382 -0.19267547 -0.6724835
-0.1596213 0.05967036 0.3776011 0.077610046 0.1922793 -0.6180772 0.35621893 0.1164841
0.4467869 -0.28123602 -0.5919899 0.043368313 -0.77950996 0.52465767 -0.20366625 -0.1107952
0.0036226008 0.45939377 0.31891626 -0.08084764 0.41206414 -0.3227792 0.458388 -0.4802452
-0.40463415 0.25331828 -0.41419628 0.15617673 0.36465377 -0.31493744 -0.9904684 -0.36971682
0.45935467 -0.27602756 0.035271518 -0.66713786 -0.049259294 -0.30248332 0.37192932 -0.049564667
-0.059103347 -0.19804476 0.06592286 0.09199263 -0.05666593 -0.63844377 0.24709222 0.181261
0.24003063 0.20893566 -0.11976408 -0.2648424 0.02363004 0.16720773 -0.016507793 0.54751414
0.10217722 -0.04276439 -0.26608935 0.093829855 0.8127589 0.48920432 -0.65845674 -0.38739598
0.303931 -0.10923679 -0.1151781 -0.5137624 -0.19645953 -0.20957142 -0.054054167 -0.03123104
0.4306925 -0.3438061 -0.06547759 0.073098116 -0.39176953 0.14397463 -0.075719714 0.21979544
-0.009844198 -0.4534022 0.2876786 0.73462117 0.7564597 0.023671681 -0.35793012 0.27162206
0.42439884 0.12170223 0.30780533 0.043556657 -0.15452868 -0.12642933 0.38013414 0.44368246
0.124366574 -0.52654576 0.21786886 -0.026413258 0.078895435 -0.52091795 0.020869838 -0.061237372
1.1638894 -0.12050669 0.4700281 0.82114226 -0.23096313 0.4778021 -0.1170272 0.28551462

action_model._continuous_distribution.mu.bias f4 [2]
00000000: aacd eb3d 63a4 4fbc
0.11513837 -0.01267347

action_model._continuous_distribution.log_sigma.weight f4 [2, 256]
00000000: 0fff 19bd a5d5 0f3d 528b 0c3d d1cf 0cbe
00000010: 3cda 23bf e6f3 b7bc 0216 b63c 7d5e d43d
00000020: 7f5e 853b 8a95 06bd 2a5e 893d 88c2 f0bb
00000030: fa06 123e df15 903d 50ef 243d 11df 633e
00000040: 3435 c53d f59b c93c 9ea0 7a3d 2513 913c
00000050: 0f96 713d d44e 95bd 6b55 9dbe 81f5 273c
00000060: 3b93 f4ba 034d 1b3c 1fe3 d93c 607d 6cbc
00000070: 0d5f 033c 419c 0cbe c88d 233c 3d25 a0bc
00000080: 105f 73bd 3537 e83d cf3c 97bc 62d6 523e
00000090: 646a 9d3c 98ca 84bd 890f 193d 3a6b f4bb
000000a0: 9e88 ab3b aec9 81bd f1f3 8e3e e879 dc3b
000000b0: 7ad3 0bbd 05cc 2c3d d120 2b3d e6ee 0b3d
000000c0: 23e6 45bc 84e6 383d eae7 183d 9304 d63a
000000d0: c59f 8dbd d132 043e fef3 8fbd 8f38 c03d
000000e0: 0540 babc 974d a93d a1e4 c83d 4c5e 83bd
000000f0: f5e9 aa3d bda7 b0bc e6e3 ffbd 2d96 8fbd
00000100: a35f 66bd f2bd 873d 3118 a3bb cb5c f73d
00000110: 35b8 813d ab4e a83c 76c1 0a3e 307e ce3d
00000120: 1e98 4bbe d0a8 0d3d 61ab ff3c e4d3 993d
00000130: 8fc2 073e 76b0 47bd 3a14 033e d3a7 543d
00000140: 9612 d3bc 67a7 c03d efeb 083c b878 cd3a
00000150: 3954 863d 23ec 58bd 6b6e 01bd 4304 6bbd
00000160: c4b9 273e a261 003d 0927 073e 5a6d bebd
00000170: b3fa 2ebd 7f05 b93b 3d3d 223e 1e15 193e
00000180: f755 bb3c 6838 5a3d c025 05bd ee39 483d
00000190: 5f10 083e a98f 80bf d850 6c3e 7063 d03d
000001a0: b106 80ba 8ba9 643d c360 d53b b17b 89bc
000001b0: 8712 92bc 5cdf 3dbd 6274 583d 57cf ddbc
000001c0: 3c98 513c 6ea8 a93c 3c48 ea3c 3056 1abd
000001d0: 0ec9 1b3d 0e2b 3f3d 0c0a 613c 6623 0abe
000001e0: ae50 92bb 080a 70bc a5b6 09bd 2e9f 00bd
000001f0: 4b92 903c 1429 8f3d 0a2b babd 051b bf3d
00000200: 2bb8 b9bd bac2 16bd 059c e3bd 107e 423d
00000210: 2684 9c3d 45fc b93d 7b5e f9bd 7cb3 3d3b
00000220: 74ea 01bd a2db fd3d 0fa8 813d 2666 253c
00000230: 4695 d03d da84 203d aae5 8c3d 882a 19bd
00000240: 01d9 2c3d d5f7 1cbd f40d 3d3d eb02 513d
00000250: 2b7e b43c 49ea aa3c 8c30 21bf 4a3c d73d
00000260: bd58 983d 6f5f 223d 933c 06bf 2cd9 e43b
00000270: 6699 8bbe 38bf 513d 707d 61be 1b67 bfbc
00000280: 1d7c 733c 1aca 42bd 42b2 703e e2b6 02bd
00000290: 5543 383e decb d83d 3ae6 133e 45fb 0d3d
000002a0: 3c33 0e3d e805 a1bd d86e b1bf 4aa9 d4bc
000002b0: 85b9 723c fa89 71bd 0729 d43e 6948 d83d
000002c0: fcab 233e 99d1 e0bb 28c7 51bc a31e 66bd
000002d0: 0ddc cd3d ca12 bb3c d35f 84bd 276b dfbd
000002e0: 70a3 cebd 93ad d9bc 2052 3f3d 8da9 d3bc
000002f0: cfa8 6dbd 947d 9cbe d68b 593c bd40 1a3e
00000300: 7441 26bc f2e3 063c 8f23 16bc 2944 5dbe
00000310: fb9c f23c 37fd 5a3c bf4c 023d 587a 5a3d
00000320: 40ab 83bd 6907 a53b d0e2 6e3d 3315 61bd
00000330: 9d27 a03e 013e b93d 60ed 353e 5da0 943d
00000340: 14ef 433d 6137 d5bc 5a7b bd3d c80a bd3d
00000350: b55e e43d cdac d63d 8b24 92bd 2b63 7f3d
00000360: 5356 c63d 2a1a 3abc e696 533d b48c c1bc
00000370: cc7b a7bd cc98 0dbd 1615 ea3c a572 713d
00000380: a7fc b13c 45a9 2d3d aa25 a13c c73c 2a3e
00000390: 06e6 b13e f8d3 0dbd ace2 543b 4df7 193d
000003a0: de99 523e e511 8cb9 923e 003d 3934 edbb
000003b0: 5ff2 423c ae8c 5b3c 2d48 dcbc 8e0d c93d
000003c0: 3ac0 69bd a54b bf3d 8085 fe3d b094 0ebc
000003d0: eeea 9e3d b6bb ad3c b719 653d 3288 c5bc
000003e0: 1e6b 8cbd 23c5 02bc b763 043e d11b c43d
000003f0: fa0d 13bd 79f9 cfbd 77c2 20bc 24ae 003d
-0.03759676 0.035115857 0.034312554 -0.1375115 -0.64004874 -0.022455167 0.022227291 0.10369585
0.0040701027 -0.032857455 0.067074135 -0.0073474087 0.14260474 0.070354216 0.04026729 0.22253062
0.09629288 0.024610499 0.061188333 0.017709324 0.058980998 -0.07290426 -0.3072923 0.010251404
-0.0018659601 0.00947881 0.026597558 -0.014434189 0.008018267 -0.13731481 0.009982534 -0.019549007
-0.05941683 0.11338655 -0.018461613 0.20589593 0.01921577 -0.06483954 0.03736833 -0.0074590715
0.005234792 -0.063372955 0.27920488 0.0067283995 -0.034137227 0.042186756 0.041779343 0.03416338
-0.012078795 0.04514171 0.037330545 0.0016328268 -0.06915239 0.1291001 -0.0702896 0.09385788
-0.022735605 0.08266752 0.098092325 -0.0641447 0.08345405 -0.021564359 -0.1249464 -0.07011066
-0.05624355 0.06628026 -0.004977249 0.12078246 0.06333963 0.020545324 0.13550362 0.10082662
-0.19882247 0.03458482 0.03120965 0.07511118 0.13257812 -0.04875227 0.12800685 0.051917862
-0.025765698 0.094069295 0.008357032 0.0015676236 0.06559033 -0.052959573 -0.031599443 -0.05737711
0.16379458 0.03134311 0.13198484 -0.09298201 -0.042719554 0.005646407 0.15843673 0.14949462
0.02286814 0.05327645 -0.032506704 0.04888337 0.13287495 -1.0043842 0.23077714 0.10175216
-0.0009767619 0.05582575 0.006511779 -0.016782613 -0.0178311 -0.04635559 0.052845366 -0.027076406
0.012792643 0.020710196 0.028598897 -0.03767985 0.038033538 0.04667192 0.0137353055 -0.13490066
-0.004465184 -0.014650829 -0.03362145 -0.031401806 0.017647883 0.06990257 -0.0909024 0.093313254
-0.090683304 -0.0368068 -0.11113743 0.047483504 0.07642393 0.0908132 -0.12176224 0.0028946092
-0.031717733 0.12395407 0.06330883 0.010095155 0.10184722 0.039189197 0.068797424 -0.037394077
0.04219914 -0.03832229 0.046155885 0.051028173 0.022032818 0.020863669 -0.629647 0.10509546
0.074388005 0.039641794 -0.5243618 0.0069838967 -0.2726547 0.05120775 -0.22020507 -0.023364594
0.014861134 -0.04755602 0.235055 -0.031912692 0.17994435 0.105857596 0.14443293 0.034663457
0.03471683 -0.07862455 -1.3861952 -0.02595963 0.014814739 -0.058969475 0.4143755 0.10560686
0.15983576 -0.0068609235 -0.01280383 -0.05618156 0.10051737 0.022836108 -0.064635895 -0.109091096
-0.10089767 -0.026572024 0.04670918 -0.025837684 -0.058022317 -0.30564559 0.013277968 0.15063758
-0.010147441 0.008233057 -0.009163751 -0.21608032 0.02961587 0.013366035 0.031811472 0.053339332
-0.06429148 0.0050362838 0.058321774 -0.054951858 0.31280223 0.090450294 0.17766333 0.07257149
0.047835425 -0.026027383 0.09252043 0.09230572 0.111508764 0.10482178 -0.07135876 0.062350433
0.09684434 -0.011358777 0.05165758 -0.023626663 -0.08177909 -0.034569547 0.028574508 0.058947224
0.02172692 0.042397756 0.01967128 0.16624747 0.34745806 -0.034625977 0.003248374 0.03758936
0.20566508 -0.00026716213 0.03130967 -0.0072388914 0.011898606 0.01340024 -0.026889885 0.098170385
-0.057068087 0.093406 0.12427807 -0.008702442 0.07759653 0.021207672 0.055932727 -0.024112795
-0.068563685 -0.007981571 0.12928663 0.09575618 -0.035902 -0.10155005 -0.009811989 0.031416073

action_model._continuous_distribution.log_sigma.bias f4 [2]
00000000: fab5 93bf 682b acbf
-1.153991 -1.3450747

onnx::Div_46 f4 [21]
00000000: d7a2 9c3f 4578 853f 0e89 203b 5cc2 5940
00000010: 669f 5c40 9a24 ac3f c90b ef3f 0e89 203b
00000020: 9d4e c540 4715 5340 3bdf 523f a2ac 223f
00000030: 0e89 203b 0e89 203b 0e89 203b 0e89 203b
00000040: 285d 603c 0e89 203b 0e89 203b 285d 603c
00000050: 0e89 203b
1.2237195 1.0427328 0.0024495753 3.4024878 3.447229 1.344867 1.8675472 0.0024495753
6.1658463 3.2981737 0.8237187 0.63544667 0.0024495753 0.0024495753 0.0024495753 0.0024495753
0.013694085 0.0024495753 0.0024495753 0.013694085 0.0024495753
